code/model.pt (torch, 3200 bytes, 4 tensors)

network.layer_1.weight f4 [10, 3]
0	0x3f110f6c	0.56664157
1	0xbf0b25d1	-0.5435458
2	0xbe308c76	-0.17241082
3	0xbed7ab42	-0.42122847
4	0xbd520170	-0.051270902
5	0xbe516f38	-0.20452583
6	0x3da615f0	0.08109653
7	0x3d733e20	0.05938542
8	0x3e889c20	0.26681614
9	0x3e87840a	0.26467925
10	0xbea08063	-0.3134795
11	0x3df04008	0.11730963
12	0xbf077488	-0.5291219
13	0x3f0825bc	0.5318258
14	0x3e1b7cac	0.15184277
15	0x3ef70c38	0.4825151
16	0xbea40fc0	-0.32043266
17	0x3da6a770	0.08137405
18	0xbeec6aff	-0.46175382
19	0x3ec31694	0.38103163
20	0xbebab23a	-0.364641
21	0x3ef34c78	0.4751928
22	0xbe335580	-0.17513084
23	0xbeafea8c	-0.34358633
24	0x3d7ffe40	0.06249833
25	0xbd4a0a70	-0.04932636
26	0xbe057c06	-0.13035592
27	0xbe9146a8	-0.2837422
28	0xbe20646e	-0.15663311
29	0x3ea53c22	0.3227244

network.layer_2.weight f4 [10, 10]
0	0x3e947ebb	0.29002938
1	0x3e473bd6	0.1945642
2	0x3b2a9080	0.002602607
3	0x3e829e95	0.25511613
4	0xbe677188	-0.22601902
5	0x3df4a1e4	0.11944941
6	0xbe8feb82	-0.28109366
7	0x3dd66c64	0.104698926
8	0xbe7d04dd	-0.24708886
9	0xbd8ebb02	-0.06969263
10	0x3dd20298	0.10254401
11	0xbd9b1f82	-0.07574369
12	0xbe7c4cae	-0.24638626
13	0x3da83c70	0.082146525
14	0x3e876bad	0.26449338
15	0x3d474870	0.048653066
16	0x3c910940	0.017704606
17	0xbe96d50a	-0.2945941
18	0xbd38ccf0	-0.04511732
19	0xbcc61d40	-0.02418387
20	0x3e4df81a	0.20114174
21	0xbe492b22	-0.1964536
22	0xbe34edc3	-0.17668824
23	0x3ea0d195	0.31409898
24	0x3df11834	0.117721945
25	0xbe4beec8	-0.19915307
26	0x3d833e44	0.064083606
27	0x3dc6c8d0	0.09706271
28	0x3e7acaf2	0.2449148
29	0x3e31463c	0.17311949
30	0xbe9db5bf	-0.30802724
31	0xbdf15140	-0.11783075
32	0x3b853c00	0.0040659904
33	0x3c6e4760	0.014543384
34	0xbe043dbe	-0.12914178
35	0xbe8d3c64	-0.27585137
36	0x3e9ff359	0.31240347
37	0x3c6fcb60	0.014635891
38	0x3e8c90f9	0.27454355
39	0x3c9628f0	0.018330067
40	0xbd9d2142	-0.07672359
41	0xbe90cf6c	-0.2828325
42	0xbe97b9e0	-0.29634
43	0xbe1362f9	-0.14393224
44	0x3e607996	0.21921381
45	0xbe92139e	-0.28530592
46	0x3dbffbf8	0.09374231
47	0xbd769768	-0.060202986
48	0xbe8fb993	-0.2807127
49	0x3e725286	0.23664293
50	0x3e8776c3	0.26457796
51	0xbe0dc221	-0.13843586
52	0x3e8b0029	0.2714856
53	0xbd824b28	-0.06361991
54	0xbe56f384	-0.20991331
55	0xbe67afd6	-0.2262567
56	0xbd9c6fae	-0.07638489
57	0x3dedd81c	0.11613485
58	0x3d07b558	0.033131927
59	0x3e718722	0.23586705
60	0x3e976bff	0.29574582
61	0x3e9b82c1	0.30373195
62	0x3de1a150	0.11017096
63	0xbd94d954	-0.072680146
64	0xbe67a6f6	-0.22622284
65	0x3e9dcf2f	0.3082213
66	0x3dfc6560	0.12324023
67	0xbe57682c	-0.21035832
68	0xbe3492ae	-0.17634079
69	0xbe092a08	-0.1339494
70	0xbe5e3449	-0.21699633
71	0x3e491baa	0.19639459
72	0xbe903b3c	-0.28170192
73	0x3e6e1026	0.23248348
74	0xbe5cc7f4	-0.21560651
75	0x3e46a74a	0.19399753
76	0x3baab000	0.005208969
77	0x3e8efd93	0.27927837
78	0x3e51c7fa	0.20486441
79	0xbe87e51b	-0.2654198
80	0x3e9015c3	0.28141603
81	0xbd8ad05a	-0.06778021
82	0xbdc0e2a2	-0.09418227
83	0xbe247b2b	-0.1606261
84	0x3e731b82	0.23740962
85	0xbc870b80	-0.016484976
86	0x3e7665b2	0.24062231
87	0x3d5cebb8	0.053935736
88	0xbe91b75a	-0.284602
89	0xbe0d946f	-0.13826154
90	0x3db4e6c0	0.088330746
91	0x3e483282	0.19550517
92	0x3e82f047	0.25573942
93	0x3e8e3a1f	0.27778718
94	0x3e82af3d	0.2552432
95	0x3e205b5a	0.15659848
96	0x3dc0c40c	0.09412393
97	0x3de21cc8	0.11040646
98	0x3d624590	0.05524212
99	0xbd6c9aa0	-0.05776465

network.layer_3.weight f4 [10, 10]
0	0xbe9ec89e	-0.31012434
1	0x3e9fd4c3	0.31217012
2	0x3de30d78	0.11086553
3	0xbe91d9c1	-0.28486446
4	0xbdab5b88	-0.083670676
5	0xbe2eddc7	-0.17076789
6	0xbe82c231	-0.2553878
7	0xbde2180e	-0.11039744
8	0xbd580888	-0.05274251
9	0x3e2a5bd2	0.16636589
10	0x3dbe9d98	0.09307402
11	0xbe73f2b2	-0.2382305
12	0xbd5e89c8	-0.054330617
13	0xbe21959b	-0.15779726
14	0x3e0a10fc	0.13483042
15	0xbe58ce04	-0.21172339
16	0xbe34d43f	-0.1765909
17	0x3e6925be	0.22768304
18	0xbe1804d9	-0.14845599
19	0xbe8bd5ad	-0.2731146
20	0xbe377190	-0.17914414
21	0x3d37fe20	0.044920087
22	0xbe7a946a	-0.24470678
23	0x3db999c8	0.090625346
24	0x3e8af7b1	0.271421
25	0x3b99a5c0	0.0046889484
26	0x3e2073da	0.15669194
27	0x3e80f523	0.25187024
28	0x3e0d1710	0.13778329
29	0xbe58669c	-0.21132892
30	0xbe5e84ea	-0.2173039
31	0x3dd2d8b0	0.10295236
32	0xbe7c1194	-0.2461608
33	0xbe06dcff	-0.13170241
34	0xbe596cbe	-0.21232888
35	0xbe1ef49b	-0.15522997
36	0x3dc58838	0.09645122
37	0x3d469d80	0.048490047
38	0xbe3ce4ff	-0.1844673
39	0x3d6457a0	0.05574763
40	0x3c8e8670	0.01739809
41	0xbe9d3786	-0.30706424
42	0x3e697242	0.22797492
43	0xbd92cbea	-0.071678
44	0xbe81f5b7	-0.25382778
45	0xbe90ac7a	-0.2825659
46	0x3e7e6c5a	0.2484602
47	0xbde6c556	-0.112681076
48	0xbcfc5670	-0.030802935
49	0x3e5cd29a	0.21564713
50	0xbe80e6b9	-0.25176027
51	0x3d805014	0.06265274
52	0xbe351856	-0.17685065
53	0x3e17a8ec	0.14810532
54	0x3e31b72a	0.17355028
55	0xbe9c40a8	-0.3051808
56	0xbe89d3a3	-0.26919279
57	0xbe87a420	-0.26492405
58	0xbe620596	-0.22072443
59	0xbe5c85ee	-0.21535465
60	0xbd2d36b8	-0.042288512
61	0xbe8014ab	-0.25015768
62	0x3e9e1c17	0.30880806
63	0xbdbdf0e2	-0.092744604
64	0x3e2c8100	0.16846085
65	0xbe496bea	-0.19670072
66	0x3e46624a	0.19373432
67	0x3dee10ec	0.11624321
68	0x3dbed3e8	0.09317762
69	0x3deeeee0	0.116666555
70	0xbe0229c5	-0.12711246
71	0x3e53c60e	0.2068102
72	0x3d4a8760	0.04944551
73	0x3e15fede	0.14648005
74	0xbe22647d	-0.15858646
75	0x3e9cd467	0.306308
76	0x3d83ff8c	0.06445226
77	0xbdfc1a74	-0.12309733
78	0x3e4fa756	0.20278677
79	0x3e941387	0.28921148
80	0xbdcefcde	-0.10106824
81	0x3c7e8a60	0.015535921
82	0x3e68ce1e	0.22734877
83	0x3d96bc90	0.07360184
84	0xbd751e38	-0.059843272
85	0xbe5d8492	-0.21632603
86	0x3dddd548	0.10831696
87	0x3e30f198	0.1727966
88	0x3e06db10	0.13169503
89	0xbe40d63d	-0.18831725
90	0xbd9048de	-0.07045148
91	0xbd90ceac	-0.070706695
92	0xbe94dfa2	-0.29076868
93	0xbd33f4f0	-0.043934762
94	0x3e155f6a	0.14587179
95	0x3e8ae005	0.27124038
96	0xbd8ba7f0	-0.06819141
97	0xbde167a4	-0.11006096
98	0x3e6606a6	0.22463474
99	0xbdc19f9e	-0.09454273

network.layer_4.weight f4 [3, 10]
0	0xbe800c41	-0.2500935
1	0xbe022a9c	-0.12711567
2	0x3e65b572	0.22432497
3	0xbe3630de	-0.17792079
4	0xbdfaf5be	-0.12253903
5	0x3e4a306e	0.19745037
6	0xba75de00	-0.0009379089
7	0xbe23a8b8	-0.1598233
8	0xbc67a560	-0.01413855
9	0x3e778ef2	0.24175623
10	0xbe874592	-0.26420265
11	0xbe9a6d3b	-0.3016146
12	0xbd24cc88	-0.04023412
13	0x3e79f22e	0.2440879
14	0xbe13e6b4	-0.14443475
15	0x3e3d3c82	0.18480113
16	0xbd9c00e0	-0.076173544
17	0xbdc2393e	-0.09483574
18	0xbde6fe42	-0.112789646
19	0xbe503fee	-0.20336887
20	0x3e2faa6c	0.17154855
21	0x3e71ebc6	0.23625097
22	0x3dc4fb14	0.09618202
23	0x3cb1ee30	0.021720022
24	0xbe84ade5	-0.2591392
25	0x3d78be10	0.060728133
26	0x3d105980	0.035241604
27	0x3e81bb01	0.25337985
28	0xbc9f7480	-0.019464731
29	0xbe581a5e	-0.21103808
