code/model.pt (torch, 3200 bytes, 4 tensors)

network.layer_1.weight f4 [10, 3]
0.34794825 0.111077726 -0.3785835 0.07954693 0.19134414 0.3016793 0.43775117 0.29811102
-0.55347365 -0.4724552 0.023858309 0.42211878 -0.151862 -0.4419073 0.17420894 -0.253315
-0.0006157756 0.16228956 0.08955419 -0.42392814 -0.084839135 0.06187415 -0.061004102 -0.39871806
-0.51792115 0.3255394 0.3082149 0.3500961 0.40917057 0.3356315
00000000: 4626 b23e b87c e33d b2d5 c1be 80e9 a23d
00000010: b8ef 433e b675 9a3e ec20 e03e 02a2 983e
00000020: 73b0 0dbf a6e5 f1be 8072 c33c f41f d83e
00000030: b681 1bbe ac41 e2be d463 323e 81b2 81be
00000040: 006c 21ba 3c2f 263e 3068 b73d 1c0d d9be
00000050: 24c0 adbd c06f 7d3d 70df 79bd c624 ccbe
00000060: 7b96 04bf 1aad a63e 58ce 9d3e cc3f b33e
00000070: ce7e d13e e4d7 ab3e

network.layer_2.weight f4 [10, 10]
-0.25848264 -0.21907482 0.19342622 -0.016052186 -0.29408297 0.021133542 -0.033754826 -0.15133014
-0.31458718 -0.27587286 0.29517582 -0.19744584 -0.036347777 0.07217038 0.12657106 -0.26145312
0.1354588 -0.17849922 0.11255726 -0.23943079 0.26335642 -0.10336962 -0.103876874 0.25178513
-0.075950414 -0.19187117 0.30739704 0.035124153 -0.2601332 -0.040819615 -0.118309245 -0.17519163
-0.02502969 0.28429833 0.29950222 -0.06418118 -0.0064287484 0.15356901 0.2727181 0.07782218
0.25938967 -0.23292476 -0.16274224 -0.20564795 -0.28305385 0.08731219 0.117712766 0.0994595
0.22758362 0.06435084 -0.23197187 -0.21922937 0.20153257 0.18319291 0.08219841 -0.0014324486
0.29956213 0.048169404 0.0956856 0.23723647 -0.045601904 -0.20997623 -1.22487545e-05 -0.15502003
0.2613636 -0.16549988 0.060328484 0.04094833 -0.030065328 0.06908491 -0.20555897 -0.2308166
0.19703194 0.21828613 -0.3050354 -0.020218223 0.12944442 0.27141878 0.16948438 -0.23588678
0.30250826 0.119193465 -0.2089771 -0.21813875 0.13355851 0.07602382 -0.09986542 -0.053533435
-0.0180192 -0.21443239 -0.14494804 0.030111909 -0.082147434 -0.115622446 0.27054134 -0.13458866
0.084545374 -0.29769167 -0.18614687 -0.05096233
00000000: d657 84be 2655 60be 8611 463e e07f 83bc
00000010: 0b92 96be 4020 ad3c 8042 0abd 4af6 1abe
00000020: 9211 a1be 353f 8dbe 4921 973e 3e2f 4abe
00000030: 68e1 14bd 10ce 933d d89b 013e 2fdd 85be
00000040: b6b5 0a3e 80c8 36be 6c84 e63d 582d 75be
00000050: a7d6 863e 74b3 d3bd 66bd d4bd fbe9 803e
00000060: e48b 9bbd e079 44be 2563 9d3e 58de 0f3d
00000070: 2e30 85be 7832 27bd 1e4c f2bd 6f65 33be
00000080: 100b cdbc 8d8f 913e 5b58 993e 6c71 83bd
00000090: 40a8 d2bb 3241 1d3e b5a1 8b3e 3c61 9f3d
000000a0: b9ce 843e d483 6ebe e7a5 26be 6095 52be
000000b0: 6fec 90be bcd0 b23d 6413 f13d 6cb1 cb3d
000000c0: ae0b 693e 60ca 833d 098a 6dbe aa7d 60be
000000d0: 8e5e 4e3e ec96 3b3e a457 a83d 00c1 bbba
000000e0: 3560 993e 484d 453d d0f6 c33d 1eee 723e
000000f0: 10c9 3abd 0204 57be 0080 4db7 92bd 1ebe
00000100: 73d1 853e cd78 29be 001b 773d 70b9 273d
00000110: 904b f6bc 647c 8d3d 0d7e 52be 305b 6cbe
00000120: bec2 493e 6686 5f3e 9a2d 9cbe b0a0 a5bc
00000130: 148d 043e 67f7 8a3e 508d 2d3e 4e8c 71be
00000140: 5de2 9a3e b41b f43d 18fe 55be c45f 5fbe
00000150: 90c3 083e 60b2 9b3d 3e86 ccbd e045 5bbd
00000160: 009d 93bc 2a94 5bbe 426d 14be 40ad f63c
00000170: ea3c a8bd 76cb ecbd 6584 8a3e 9cd1 09be
00000180: 2026 ad3d 0b6b 98be 499d 3ebe e0bd 50bd

network.layer_3.weight f4 [10, 10]
-0.10977797 -0.27589488 -0.058454543 0.07084009 0.06467554 -0.05360353 -0.19871587 -0.20973232
-0.077052355 -0.0014462173 0.07605907 0.047901213 -0.07545501 0.15213555 -0.0906495 0.033751935
-0.1401659 -0.19587174 -0.29529914 0.014317632 -0.05250016 0.046831816 0.13901225 -0.2733002
-0.06760153 0.24642935 0.049795777 0.122721076 0.096404165 0.23900333 0.030064642 -0.124498084
0.2053369 0.14403704 -0.21112365 -0.08077058 -0.121491715 -0.10848495 -0.033548087 0.17764041
-0.059722632 -0.15017061 -0.124488965 -0.07253873 0.24690047 -0.31422675 -0.076254606 -0.15789509
0.19649675 -0.30259156 0.18684009 -0.12911826 0.050104707 -0.22288954 -0.27684218 0.27297857
0.12741947 0.1585497 0.10961735 0.27815476 -0.2995988 0.079648405 -0.031061351 0.22379741
0.2723851 -0.20461111 0.14941865 0.24906632 0.17654133 -0.0776684 -0.04871297 -0.1223194
-0.062357545 -0.19470498 -0.2628839 0.26320192 0.1329408 -0.095453784 0.11635652 0.1181685
-0.25749317 0.028139055 0.2417427 0.16100982 0.30701956 -0.2462225 -0.24110952 0.09844804
-0.05553794 -0.15779059 -0.11204116 0.02303058 0.11652687 0.040107608 0.00442037 -0.061116606
-0.30290183 0.08787793 -0.15370269 0.0053135157
00000000: 46d3 e0bd 1842 8dbe 086e 6fbd 9c14 913d
00000010: 9c74 843d 608f 5bbd 2c7c 4bbe 12c4 56be
00000020: a0cd 9dbd 008f bdba dcc4 9b3d 1034 443d
00000030: 2888 9abd 6cc9 1b3e 72a6 b9bd 783f 0a3d
00000040: a687 0fbe 9a92 48be 7331 97be 8094 6a3c
00000050: 680a 57bd b8d2 3f3d 3a59 0e3e 01ee 8bbe
00000060: ac72 8abd fa57 7c3e a8f6 4b3d 3055 fb3d
00000070: 8c6f c53d 4abd 743e 204a f63c daf8 febd
00000080: d643 523e 727e 133e cc30 58be 0c6b a5bd
00000090: a6d0 f8bd 5c2d debd b869 09bd 5ee7 353e
000000a0: b89f 74bd 53c6 19be 12f4 febd 308f 94bd
000000b0: 7ad3 7c3e 54e2 a0be 602b 9cbd 40af 21be
000000c0: 7236 493e 48ed 9abe 0253 3f3e 9437 04be
000000d0: 983a 4d3d 283d 64be 42be 8dbe d9c3 8b3e
000000e0: 407a 023e da5a 223e 107f e03d 4d6a 8e3e
000000f0: 0465 99be b41e a33d 6074 febc 262b 653e
00000100: 0f76 8b3e 9385 51be 3401 193e 3e0b 7f3e
00000110: 40c7 343e 9c10 9fbd 4087 47bd 9882 fabd
00000120: a06a 7fbd be60 47be b898 86be 67c2 863e
00000130: a221 083e 467d c3bd 544c ee3d 5402 f23d
00000140: 25d6 83be e083 e63c 668b 773e c2df 243e
00000150: ab31 9d3e c021 7cbe 6ae5 76be 209f c93d
00000160: c07b 63bd db93 21be d675 e5bd a0aa bc3c
00000170: a4a5 ee3d e047 243d c0d8 903b 6855 7abd
00000180: f315 9bbe 58f9 b33d 3d64 1dbe 001d ae3b

network.layer_4.weight f4 [3, 10]
-0.09466739 -0.13256085 0.24499074 -0.09979279 -0.18447556 0.22618589 0.22834465 0.23270729
-0.27339992 0.13797623 0.249989 -0.27670878 0.29298845 0.29989186 -0.29656252 0.08586559
-0.07391277 -0.010453582 -0.17313462 0.11580977 0.046525955 0.02864772 0.047046185 0.09434271
-0.19146508 -0.15305027 -0.17373304 -0.1190529 -0.290684 -0.12651998
00000000: fae0 c1bd 08be 07be dade 7a3e 2a60 ccbd
00000010: 29e7 3cbe 469d 673e 2ed3 693e d24a 6e3e
00000020: 13fb 8bbe a449 0d3e 1efd 7f3e c6ac 8dbe
00000030: 9502 963e 6d8b 993e 0bd7 97be 4cda af3d
00000040: 945f 97bd 8045 2bbc 344a 31be ac2d ed3d
00000050: 0092 3e3d a0ae ea3c 80b3 403d c036 c13d
00000060: 6c0f 44be 36b9 1cbe 13e7 31be 02d2 f3bd
00000070: 89d4 94be 748e 01be
