code/model.pt (torch, 3200 bytes, 4 tensors)

network.layer_1.weight f4 [10, 3]
0	0x3ef7fcc8	0.48435044
1	0xbd998c90	-0.07497513
2	0x3ebfac08	0.37435937
3	0xbef4c076	-0.47803086
4	0x3e3a83d8	0.18214357
5	0xbec9b7f2	-0.39398152
6	0xbf1393e5	-0.57647544
7	0xbe309756	-0.1724523
8	0xbf129fc6	-0.57275045
9	0xbe5acdc8	-0.21367562
10	0xbdf35110	-0.11880696
11	0x3ce82740	0.028339028
12	0xbe8f2f54	-0.27965796
13	0x3eaf864a	0.34282142
14	0x3eff2050	0.4982934
15	0x3f0f628c	0.56009746
16	0xbf0682c8	-0.52543306
17	0x3ec8aec2	0.3919583
18	0x3eb3ff64	0.35155785
19	0xbedf8f81	-0.43664172
20	0x3e84283a	0.2581194
21	0x3d4dda20	0.05025685
22	0xbe023126	-0.12714061
23	0x3f00aad6	0.50260675
24	0xba9b6c00	-0.0011857748
25	0x3e733b8c	0.23753184
26	0xbe9a6aab	-0.30159506
27	0xbeae464c	-0.34038007
28	0xbf0b6544	-0.54451394
29	0x3ee7edec	0.45298707

network.layer_2.weight f4 [10, 10]
0	0xbe361000	-0.17779541
1	0xbe2e367e	-0.17012975
2	0xbe65ac24	-0.22428948
3	0xbe6c3326	-0.23066387
4	0x3e59156e	0.21199581
5	0xbd9a1a52	-0.075245515
6	0xbe864736	-0.26226205
7	0xbe2afae0	-0.16697264
8	0xbdc210f6	-0.09475891
9	0xbe8191d0	-0.2530656
10	0xbe0aa852	-0.13540772
11	0xbe8c41c8	-0.27393937
12	0xbe21d66f	-0.15804456
13	0x3e74c692	0.23903874
14	0xbe479ef0	-0.19494224
15	0xbd64b620	-0.05583775
16	0xbe929ce8	-0.28635335
17	0x3d0c1690	0.034201205
18	0x3e0a9ea8	0.13537085
19	0xbe72f1b8	-0.23725021
20	0x3d9d1568	0.076700985
21	0xbdeda7ee	-0.11604296
22	0x3e3d5b6a	0.18491903
23	0x3e909785	0.282406
24	0x3cbc1a00	0.022961617
25	0xbdf14958	-0.11781567
26	0x3e841269	0.25795296
27	0xbe0dd11d	-0.13849302
28	0x3e37764a	0.17916217
29	0xbda35bcc	-0.07976493
30	0xbe46c400	-0.19410706
31	0xbe4da48a	-0.20082298
32	0xbe7415ab	-0.2383639
33	0x3e869d15	0.2629172
34	0x3da40b0c	0.080099195
35	0x3db3b004	0.08773807
36	0x3d05d4c8	0.032673627
37	0xbe8737a6	-0.26409644
38	0x3c9974d0	0.018732458
39	0xbd526750	-0.051368058
40	0x3e283130	0.16425014
41	0xbd8bd130	-0.06827009
42	0x3d7aefd8	0.06126389
43	0x3d678d88	0.05653146
44	0x3de8ef10	0.113737226
45	0x3e56816e	0.20947811
46	0x3e82ef7b	0.25573334
47	0x3e6fd346	0.23420438
48	0x3e4306fe	0.19045636
49	0xbe334f0a	-0.1751062
50	0xbd23bb40	-0.039973497
51	0xbe8a78b8	-0.27045226
52	0x3c268e40	0.010165751
53	0x3e9b5283	0.3033639
54	0xbd817090	-0.06320298
55	0x3e8f5fbd	0.2800273
56	0x3d77d678	0.060507268
57	0xbe37024f	-0.17871974
58	0xbdd9bf40	-0.10632181
59	0x3e2a0252	0.16602448
60	0xbde47af8	-0.11156267
61	0xbd88f278	-0.06686872
62	0xbe507074	-0.20355397
63	0x3e3c545e	0.18391559
64	0xbe92ca96	-0.28670186
65	0x3d9d1bf8	0.0767135
66	0x3d397710	0.045279562
67	0x3df87940	0.121325016
68	0x3de363f4	0.11103049
69	0x3ddd3b30	0.10802305
70	0x3e13b99a	0.1442627
71	0x3deccb44	0.11562207
72	0x39fa3400	0.0004772246
73	0x3c9150b0	0.01773867
74	0x3e5174b2	0.20454672
75	0xbbb10f40	-0.0054034293
76	0x3d637250	0.05552894
77	0xbe2a8875	-0.16653617
78	0xbdbcc676	-0.09217541
79	0xbe8f1721	-0.27947333
80	0x3db2618c	0.08710012
81	0x3cd78490	0.026308328
82	0x3e808761	0.25103286
83	0xbb091080	-0.0020914376
84	0xbde4d4ae	-0.11173378
85	0xbe943588	-0.2894709
86	0xbe83f027	-0.2576916
87	0xbdc76fe2	-0.09738137
88	0x3dfe56b4	0.12418881
89	0xbe0e355e	-0.13887545
90	0xbdcdd9a4	-0.10051277
91	0x3df92b08	0.12166411
92	0xbe7b3583	-0.24532132
93	0x3e8a5c43	0.27023515
94	0xbe046f32	-0.12933043
95	0xbe1b7d31	-0.15184475
96	0xbe2920a7	-0.16516362
97	0xbe357bb0	-0.17722964
98	0x3e7bb6a2	0.24581388
99	0xbd009318	-0.03139028

network.layer_3.weight f4 [10, 10]
0	0xbc4b2180	-0.012398124
1	0xbe1af08c	-0.15130824
2	0x3e9392c5	0.28822914
3	0xbe8ad262	-0.27113634
4	0x3d870194	0.06592098
5	0xbe617e3e	-0.22020814
6	0x3cb78ca0	0.022405922
7	0x3dce33a8	0.100684464
8	0x3c97a7b0	0.018512577
9	0x3e3de886	0.18545732
10	0x3e09846a	0.13429418
11	0xbe9ff695	-0.31242815
12	0x3e6b510a	0.22980133
13	0xbe5ca333	-0.2154663
14	0xbdf4e20a	-0.11957176
15	0x3e606876	0.21914849
16	0x3cfcd860	0.030864894
17	0xbe2b8e4e	-0.16753504
18	0xbc9d8ca0	-0.019232094
19	0xbcbae960	-0.02281636
20	0xbe930f0f	-0.28722426
21	0xbe32264a	-0.17397419
22	0x3e8d3237	0.27577373
23	0x3e4abebe	0.19799325
24	0xbe5e17ce	-0.21688768
25	0xbe8f7083	-0.28015527
26	0xbe17a329	-0.14808334
27	0x3e37e6bc	0.17959112
28	0xbe3730f4	-0.17889768
29	0xbe80d93e	-0.25165743
30	0x3bbe2c80	0.0058036447
31	0xbd0857d8	-0.0332869
32	0xbe8b8ec1	-0.2725735
33	0xbe0605c6	-0.1308814
34	0x3e340e42	0.17583564
35	0xbd53abc0	-0.051677465
36	0x3e0871e6	0.13324699
37	0x3c33b8a0	0.010969311
38	0xbdb034c4	-0.08603814
39	0x3e91b4e3	0.28458318
40	0x3e1589b6	0.14603314
41	0xbe9c0d07	-0.3047869
42	0xbe7c21c0	-0.2462225
43	0x3deb21ec	0.114810795
44	0x3e2f6a4a	0.1713039
45	0x3e369328	0.17829573
46	0x3e969ef3	0.29418144
47	0xbd1d39d0	-0.038385212
48	0x3e7886c6	0.24270162
49	0xbe4bd2d8	-0.1990465
50	0x3e8d2253	0.2756525
51	0x3d8de9f0	0.06929386
52	0xbe768e69	-0.24077763
53	0x3de1e558	0.11030072
54	0xbd54ad70	-0.051923215
55	0x3e4b802a	0.1987311
56	0xbe710071	-0.23535325
57	0xbe9627d9	-0.29327276
58	0x3cf10de0	0.029425561
59	0xbea0f08a	-0.31433517
60	0x3df8f1f0	0.12155521
61	0x3df83d1c	0.12121031
62	0x3bbc9e80	0.0057561994
63	0xbe458cc1	-0.19291975
64	0x3e4166ca	0.18886867
65	0x3db27d9c	0.08715364
66	0xbe112741	-0.1417513
67	0xbe9c324e	-0.3050713
68	0xbdaf6a76	-0.08565228
69	0x3e821c93	0.25412425
70	0xbc867bf0	-0.01641652
71	0xbcf09aa0	-0.029370606
72	0x3d87cac8	0.06630474
73	0xbe9a44f2	-0.30130726
74	0xbe7a8d0d	-0.24467869
75	0x3de86eec	0.11349282
76	0x3e8795c9	0.26481465
77	0xbd524770	-0.05133766
78	0xbe1c3ce2	-0.152576
79	0xbe5a78dd	-0.21335168
80	0xbe72ffa5	-0.23730333
81	0xbe58cb38	-0.21171272
82	0xbe9b14ba	-0.3028925
83	0xbe452f10	-0.19256234
84	0xbe5abdf8	-0.2136153
85	0xbe321858	-0.17392099
86	0xbe88eb3d	-0.26741973
87	0x3dfc4878	0.1231851
88	0xbe107ade	-0.1410937
89	0x3e8c6db5	0.2742745
90	0x3d067a38	0.0328314
91	0xbe3e9277	-0.1861056
92	0x3e716ec6	0.23577413
93	0xbde08312	-0.109625
94	0xbe932f8d	-0.28747216
95	0xbe1ca4c9	-0.15297236
96	0xbdcd08f8	-0.10011476
97	0xbe59b558	-0.21260583
98	0x3e440f1e	0.19146392
99	0xbe5fc10b	-0.21850984

network.layer_4.weight f4 [3, 10]
0	0x3e7d1f8a	0.24719062
1	0xbdaa199c	-0.08305666
2	0x3dbe9af0	0.09306896
3	0xbe2cc6ae	-0.16872665
4	0xbe887641	-0.2665272
5	0x3e8602ab	0.2617391
6	0xbe0a26bf	-0.13491343
7	0x3da8297c	0.082110375
8	0x3e78bb9e	0.2429032
9	0xbe1a209c	-0.15051502
10	0x3e496af6	0.19669709
11	0x3d6d6038	0.05795309
12	0x3d8dea28	0.069294274
13	0xbd6e5730	-0.058188617
14	0x3e875cab	0.26437888
15	0x3d3dd580	0.046346188
16	0xbe4d11fa	-0.20026389
17	0x3e69180e	0.22763082
18	0xbe912d05	-0.2835466
19	0x3e367a50	0.17820096
20	0xbe0741ea	-0.13208738
21	0x3d7926d0	0.06082803
22	0xbe0972f3	-0.13422756
23	0x3e8bc9f9	0.2730253
24	0xbc8721b0	-0.016495556
25	0x3cb880c0	0.02252233
26	0xbdd9cd0a	-0.10634811
27	0xbe0b5389	-0.13606085
28	0x3e0da06a	0.13830724
29	0xbd0b4c68	-0.034008414
