code/weights/good_weights.pt (torch, 3200 bytes, 4 tensors)

network.layer_1.weight f4 [10, 3]
00000000: 9048 a0be f06e be3d f71b 0dbf c00d bcbc
00000010: a349 94be aad6 833e 5940 80be 78dc 443e
00000020: c841 423e 6a59 c33e 0098 fd3e c2b0 afbe
00000030: 9a4d 06be 6c3b a7be f85d 153e 0848 72be
00000040: 8ccc c3be 142d fa3e b082 143e 2ce8 d53e
00000050: 48ef e0be c8fb ef3e 5474 c93e 7000 fe3e
00000060: 3080 123d 70a3 03bd ac51 c23e 2afa b2be
00000070: 4024 16bc 502b ec3d
-0.3130536 0.092985034 -0.55120796 -0.022955775 -0.2896243 0.25749713 -0.25049093 0.19224727
0.18970406 0.38154155 0.4953003 -0.34314543 -0.1311554 -0.32662523 0.14586627 -0.2366029
-0.38241994 0.48862517 0.14502978 0.41778696 -0.43932557 0.4687178 0.39346564 0.4960971
0.03576678 -0.032138288 0.37952936 -0.34956485 -0.009163916 0.11531699

network.layer_2.weight f4 [10, 10]
00000000: 4749 81be ca13 87be 412b 0cbe 8ecc 3c3e
00000010: 5845 54bd 70cf 903c 0a9b 683e 7edf 793e
00000020: ec8b 55be 2ed8 73be 184a 023e 700f dfbd
00000030: a46d 223e ccf3 b5bd 56ba 95be 949d 083e
00000040: 61cb 1dbe 4e6a 093e c7ef 9d3e 688d 123e
00000050: 2975 803e a4f7 a13d e4c8 57be 5c14 46be
00000060: 24e8 113e 9a84 8cbe 947e 8ebe 007f 6dbe
00000070: 263a 23be 8049 83be 00b0 af38 616d 97be
00000080: b174 8b3e f628 573e ba22 673e b238 673e
00000090: de36 5a3e 671a 96be f1bf 8e3e b210 98be
000000a0: 02b6 46be 53e2 903e a0cb 6a3d e86c 7c3d
000000b0: 8675 5e3e 0005 cd3a f97a 853e 28a7 993d
000000c0: b705 06be e24f 0a3e e805 05bd 124b 7e3e
000000d0: a049 d53d df01 8c3e 3d91 0cbe e96d 97be
000000e0: f79d 07be 0b00 1bbe 9859 debd b510 5cbe
000000f0: ede0 963e a938 22be c4f0 803d 4e59 97be
00000100: c031 86be e8b0 01bd 164a f3bd 584f 54bd
00000110: 54fa 42be da0a 243e e40d a1be 86bb 2e3e
00000120: 39f1 26be 7993 803e bda7 893e e7ab 983e
00000130: 0e5c 6a3e a028 783c d935 87be 336b 29be
00000140: 13c1 a13e 877d 40be 48c9 4d3d a063 a03d
00000150: 3873 7dbd 18e1 eebd d2f1 6e3e c8fc f53d
00000160: 9f31 973e 9a93 20be 40db cebb 7375 9c3e
00000170: 54d7 8c3d 04df 8dbd 3690 78be 3e24 713e
00000180: eecc 6e3e ce1c 083e b2e3 313e 7017 ea3c
-0.2525122 -0.26382285 -0.13688375 0.18437406 -0.051823944 0.017677039 0.22715393 0.24401662
-0.20854157 -0.23812935 0.12723577 -0.10891616 0.15862137 -0.08884391 -0.29243726 0.13341361
-0.15409614 0.13419458 0.30846998 0.14311755 0.25089386 0.07908562 -0.21072727 -0.19343704
0.14248711 -0.27444917 -0.27830946 -0.23192978 -0.1594015 -0.25642014 8.377433e-05 -0.29575637
0.27237466 0.21011719 0.22571841 0.22580221 0.21309993 -0.29317018 0.27880815 -0.29700238
-0.19405368 0.28297672 0.0573231 0.0616273 0.21724519 0.0015641749 0.26070383 0.07502586
-0.13088118 0.13507035 -0.032476336 0.24833325 0.104144335 0.27345178 -0.13727279 -0.29576042
-0.13243853 -0.15136735 -0.108569324 -0.21490748 0.2946848 -0.15841927 0.062959224 -0.29560322
-0.2620983 -0.03166285 -0.11879365 -0.05183348 -0.19040805 0.16019765 -0.3145591 0.17063722
-0.16302957 0.25112513 0.26885787 0.2981865 0.22886679 0.0151464045 -0.2640827 -0.165448
0.31592616 -0.18797885 0.050240785 0.07831502 -0.06187746 -0.11664027 0.23334435 0.12011105
0.29530045 -0.15681306 -0.0063127577 0.30558357 0.06877008 -0.069273025 -0.24273762 0.23548982
0.23320362 0.13292238 0.17372015 0.028575629

network.layer_3.weight f4 [10, 10]
00000000: 5788 9c3e 802f ccbc 0065 803b 913b 9abe
00000010: cdb6 3bbe a027 243d c69b 693e 0743 8bbe
00000020: 58ae 433d 9749 9bbe 9816 b13d 0070 1c3e
00000030: 7a79 703e 5a66 8ebe 4855 a83d 7d42 933e
00000040: e6f1 383e c497 cabd e1fa 19be 9277 663e
00000050: 650a 12be c0b6 6fbd 300c 42bd 138e 34be
00000060: 5602 1e3e ac98 08be 4250 22be 6d57 8e3e
00000070: cb16 42be fe6a 543e 54e0 c83d 8dde 883e
00000080: bacf 3c3e f0c0 223e 7829 25be 14d5 b43d
00000090: 0747 98be 5ef8 04be c0a4 d73b d3e7 893e
000000a0: 4a70 3cbe 04c4 893d 01f3 81be 0074 58bc
000000b0: d2fb 3b3e 4084 43bc 9283 363e a0ce 2a3d
000000c0: 5db3 3dbe 4e9a fcbd bcb3 c1bd bd03 9fbe
000000d0: 428e 373e c4bf 25be 7dc4 8f3e b869 b53d
000000e0: 2225 5f3e 8a74 4e3e 7883 44be 1676 4d3e
000000f0: d0ad 63bd 4eda 88be e865 7bbe 362d 4d3e
00000100: 184d f33d 50ac 69be 4546 6ebe 88ae d33d
00000110: 3085 f73d 8c68 a7bd 0c0f a03d e262 793e
00000120: 7507 1dbe e82c 91be 2ae7 87be e104 973e
00000130: 407e 5abd a1d6 803e 5852 c2bd 60cb 2bbe
00000140: 257d 07be b2a4 5d3e 68b6 e2bd 9a5c 703e
00000150: 1c24 56be b2ce 2bbe 6024 8cbd 0671 6f3e
00000160: 9f21 30be cda2 9c3e 02f3 713e eca2 c9bd
00000170: 901f 343e 202a d3bd a802 4e3d 10c0 18be
00000180: 9060 823d 6fc1 9ebe 7a49 423e 74ef 313e
0.3057277 -0.024924994 0.00391829 -0.3012357 -0.18331452 0.04007685 0.22813329 -0.27199575
0.04777369 -0.30329582 0.086468875 0.152771 0.2348384 -0.27812463 0.08219391 0.28761664
0.18061027 -0.09892228 -0.15037109 0.2250655 -0.14261778 -0.058523893 -0.047374904 -0.17632322
0.15430579 -0.1333949 -0.15850928 0.27801076 -0.18954007 0.2074394 0.09808412 0.26732293
0.18438616 0.15893912 -0.161291 0.08829704 -0.2974169 -0.1298537 0.006580919 0.2693468
-0.1840221 0.0672684 -0.2538071 -0.01321125 0.1835778 -0.011933386 0.17823628 0.04170096
-0.18525453 -0.12334119 -0.0945811 -0.3105754 0.17925361 -0.16186434 0.28079596 0.08858055
0.21791509 0.20161644 -0.19190776 0.20064577 -0.055585682 -0.26729053 -0.24550593 0.20036778
0.11879939 -0.22819638 -0.23268993 0.103360236 0.120859504 -0.081742376 0.0781537 0.24354127
-0.15334876 -0.28354573 -0.26543552 0.2949591 -0.053343058 0.2516375 -0.09488362 -0.167768
-0.13231333 0.21644858 -0.110699475 0.23472825 -0.20912212 -0.16778067 -0.068428755 0.23382959
-0.17200325 0.30592957 0.23627856 -0.09845528 0.17590165 -0.10310769 0.050295502 -0.14917016
0.06366074 -0.31006953 0.18973342 0.173765

network.layer_4.weight f4 [3, 10]
00000000: 084f 923d 4cf9 9fbd 7686 3c3e 5f19 90be
00000010: 5e86 99bd 02ec 553e 448b ed3d f661 613e
00000020: 9820 ae3d aace 623e 31e0 863e aace 2ebe
00000030: b0bb 163d aad2 aabd 7e50 793e 1183 993e
00000040: 88fb fd3d 3654 173e 6392 1ebe 37a8 8c3e
00000050: 4511 0abe 08be 723d 81e0 903e 6465 90be
00000060: b601 513e 1ed0 7ebe de75 3f3e bcb7 d93d
00000070: b551 8e3e 6090 02bc
0.0714398 -0.078112215 0.18410668 -0.28144357 -0.07496332 0.20890811 0.115988284 0.22010025
0.085023105 0.22149149 0.2634292 -0.17071024 0.036800086 -0.08340962 0.24347112 0.29982808
0.124014914 0.14778218 -0.1548553 0.27472088 -0.1348315 0.05926326 0.28296283 -0.28202355
0.20410809 -0.24884078 0.18697307 0.10630748 0.27796713 -0.007968992
