code/weights/model.pt (torch, 7202 bytes, 8 tensors)

critic.layer_1.weight f4 [10, 4]
-0.21419579 0.32197547 -0.37356412 -0.33598566 -0.09718233 -0.26375657 -0.034218073 -0.015154004
-0.38768697 -0.30537194 -0.42764825 -0.022697031 0.31291825 -0.2960813 -0.24875414 -0.16074097
-0.2351352 -0.29875022 -0.45965105 0.2955414 -0.01583451 -0.084139585 -0.018503547 -0.20904762
0.26581323 -0.18307912 -0.04892218 -0.14861137 0.31036812 0.44028556 0.12249833 -0.39228332
-0.44001907 0.13032478 0.071134746 -0.2888109 -0.13244545 -0.31414378 0.48675388 0.2615204
00000000: 2456 5bbe f8d9 a43e cc43 bfbe 5006 acbe
00000010: 8807 c7bd 1a0b 87be 4028 0cbd 8048 78bc
00000020: e87e c6be b659 9cbe b6f4 dabe 20ef b9bc
00000030: d236 a03e f897 97be 68b9 7ebe 4899 24be
00000040: 48c7 70be caf5 98be 6257 ebbe 3451 973e
00000050: 60b7 81bc 6051 acbd c094 97bc 9410 56be
00000060: ac18 883e 1879 3bbe a062 48bd 942d 18be
00000070: 92e8 9e3e 1c6d e13e 68e0 fa3d 5cd9 c8be
00000080: 2e4a e1be dc73 053e 18af 913d 06df 93be
00000090: c89f 07be 74d7 a0be ce37 f93e 00e6 853e

critic.layer_2.weight f4 [20, 10]
-0.11662553 0.17124417 -0.14245187 -0.1643916 0.09117094 -0.06998317 -0.1987609 -0.14291283
0.26054505 -0.0008906722 -0.14635399 0.007959962 -0.23984262 -0.21986562 -0.18278408 0.065577984
-0.21718398 -0.25930682 0.2290642 -0.08312783 -0.26385447 -0.25902635 0.16394377 0.3147796
0.091383904 0.08188662 0.28130677 0.01737842 -0.04432109 -0.2539739 0.30884424 -0.12973921
0.25228164 -0.049022794 -0.21811685 -0.25837028 -0.10313152 -0.18626875 0.15855399 -0.022143006
0.09176436 -0.11693247 0.14749968 0.20092985 -0.15202555 -0.09017424 -0.22710419 0.07840186
-0.24186501 -0.2865956 -0.12634242 -0.12087247 -0.049190044 0.119476795 -0.08910018 0.08179119
0.15848705 -0.18739672 -0.28824556 -0.18947549 0.020673007 0.16510272 -0.19255409 0.08241129
-0.24337673 0.055029243 0.31221637 -0.1997292 -0.28679812 0.021389693 -0.06434512 -0.26506948
-0.05087459 -0.17084596 0.2538738 -0.26346967 0.2429466 -0.024305582 0.30040547 -0.037686706
0.015415281 0.055941343 0.01608792 -0.21301402 -0.102098316 0.25992152 -0.20350854 -0.21122985
-0.1702434 -0.12534314 0.21717587 -0.27357003 -0.24078926 0.19948569 0.17390385 -0.13529032
0.20202127 0.2547855 0.015406728 -0.31512526 0.0477162 -0.12746496 0.19243523 -0.30988154
-0.03383833 -0.16142687 -0.06837666 0.27234718 0.05679345 0.22882482 0.046479583 0.07127103
0.30361876 -0.122731656 -0.19672333 -0.023705214 -0.17978813 -0.25795776 0.020548224 0.11947438
-0.2110734 0.11728606 -0.0007918775 0.17571351 0.051595688 0.06519908 -0.044228792 -0.23452494
0.053370416 -0.006226599 -0.027166694 -0.24558723 -0.0052214265 -0.31301415 -0.0034676492 0.20243195
0.28744736 -0.032200277 -0.11007525 -0.06300163 -0.26005784 -0.037509352 -0.12146273 0.12540942
0.31567857 -0.0028185546 0.27987072 -0.24669681 0.15396371 -0.03003347 -0.16615856 -0.019111633
0.14020959 0.07781324 -0.11352387 0.2915075 0.24267527 0.1846672 -0.04553485 0.2644966
-0.17491929 -0.20248944 0.29197064 0.28431788 0.0054674745 0.23049763 0.03428778 -0.038484097
0.13317287 0.2681413 -0.17477812 -0.28161088 -0.031326264 0.19613126 0.16445336 0.15849775
0.2855622 -0.053045183 0.08268541 0.012289554 -0.068556204 -0.16702141 0.10366008 -0.15743122
-0.0007339716 0.057356387 0.16261277 0.14698967 -0.21527922 0.011649132 -0.17581087 -0.03321719
0.27716634 -0.28018522 -0.314375 -0.15744935 0.1980016 -0.26680946 0.0738489 -0.30880475
00000000: 5ed9 eebd a25a 2f3e e7de 11be 4656 28be
00000010: d4b7 ba3d 5653 8fbd fa87 4bbe be57 12be
00000020: 2966 853e 007c 69ba d2dd 15be 806a 023c
00000030: 4e99 75be 7424 61be c02b 3bbe c04d 863d
00000040: 7a65 5ebe ddc3 84be ce8f 6a3e ec3e aabd
00000050: ef17 87be 1a9f 84be e0e0 273e cb2a a13e
00000060: 7c27 bb3d 2cb4 a73d 7107 903e 305d 8e3c
00000070: 088a 35bd de08 82be d520 9e3e 5bda 04be
00000080: 0f2b 813e 20cc 48bd 065a 5fbe 1c49 84be
00000090: 9e36 d3bd 3cbd 3ebe fa5b 223e 4065 b5bc
000000a0: f4ee bb3d 4a7a efbd 280a 173e 8ec0 4d3e
000000b0: 96ac 1bbe 46ad b8bd 008e 68be 2891 a03d
000000c0: 76ab 77be a9bc 92be e85f 01be fc8b f7bd
000000d0: 807b 49bd 40b0 f43d 287a b6bd 2482 a73d
000000e0: 6e4a 223e ede4 3fbe ec94 93be dd05 42be
000000f0: 705a a93c b010 293e e62c 45be 40c7 a83d
00000100: c037 79be 5866 613d d3da 9f3e d085 4cbe
00000110: 34d7 92be 7039 af3c 60c7 83bd 30b7 87be
00000120: e061 50bd 3ef2 2ebe bffb 813e 7fe5 86be
00000130: fec6 783e 801c c7bc bfce 993e 605d 1abd
00000140: 6090 7c3c c022 653d d0ca 833c 5920 5abe
00000150: ec18 d1bd 6f14 853e 8b64 50be a34c 58be
00000160: 4954 2ebe f459 00be 5a63 5e3e 5f11 8cbe
00000170: 7691 76be fa45 4c3e da13 323e 8c89 0abe
00000180: aade 4e3e 3f73 823e 806c 7c3c 1958 a1be
00000190: 1072 433d 2d86 02be be0d 453e cba8 9ebe
000001a0: 109a 0abd 164d 25be 1009 8cbd 1771 8b3e
000001b0: 40a0 683d 0e51 6a3e 6061 3e3d 8cf6 913d
000001c0: eb73 9b3e bc5a fbbd d771 49be 7031 c2bc
000001d0: 611a 38be 0a13 84be c054 a83c fcae f43d
000001e0: a023 58be ac33 f03d 0096 4fba 3eee 333e
000001f0: 0056 533d 1887 853d 4029 35bd 4e27 70be
00000200: f09a 5a3d 8008 ccbb b08c debc 387b 7bbe
00000210: 8018 abbb 6443 a0be 8041 63bb 524a 4f3e
00000220: 4d2c 933e 70e4 03bd 226f e1bd 0007 81bd
00000230: 4d26 85be 68a3 19bd 74c1 f8bd 546b 003e
00000240: 9fa0 a13e 80b7 38bb 374b 8f3e 179e 7cbe
00000250: aaa8 1d3e c008 f6bc 7825 2abe 0090 9cbc
00000260: 1a93 0f3e 8c5c 9f3d 347f e8bd 7940 953e
00000270: de7f 783e 6619 3d3e c082 3abd 196c 873e
00000280: 0b1e 33be 6459 4fbe 2d7d 953e 1d92 913e
00000290: 8028 b33b 9207 6c3e 5871 0c3d 80a1 1dbd
000002a0: 785e 083e d149 893e 09f9 32be 4d2f 90be
000002b0: f84f 00bd a2d6 483e 7666 283e 3c4d 223e
000002c0: 3535 923e e845 59bd f856 a93d 205a 493c
000002d0: 3267 8cbd a907 2bbe bc4b d43d a635 21be
000002e0: 0068 40ba 88ee 6a3d f683 263e 7684 163e
000002f0: 2872 5cbe 00dc 3e3c c407 34be c00e 08bd
00000300: bfe8 8d3e 7074 8fbe c3f5 a0be 673a 21be
00000310: eec0 4a3e 409b 88be 183e 973d a81b 9ebe

critic.layer_3.weight f4 [10, 20]
0.060799032 -0.06135547 0.12282288 0.097247034 0.18177506 0.22195339 -0.07064997 -0.18798605
-0.08885181 0.17123526 -0.164149 0.21769378 -0.1480067 0.058749974 0.054917216 0.1025773
0.13391513 -0.05957021 0.12042928 0.047401905 -0.12085919 -0.0971183 0.021844357 -0.15239295
-0.045359492 0.072107345 0.20654267 -0.2128801 0.21163478 0.075383335 0.19539663 -0.016508043
-0.078061536 0.15043142 0.13920721 0.203331 0.06248942 0.0662753 -0.050276935 -0.00497292
0.1753557 0.17073628 -0.0955535 -0.08064708 -0.029996082 0.22224468 0.09112713 0.019072354
-0.036295027 -0.18288366 0.05278963 0.09676495 0.06171426 -0.08242144 -0.20624141 -0.22098778
0.020431057 -0.21978557 0.21784046 0.018888533 0.13706598 -0.08830795 -0.20041862 0.14844432
-0.14836708 0.1722109 0.13108864 -0.095934436 -0.09434572 -0.06861152 0.083826005 0.13772774
0.016290843 0.013631105 0.13912481 -0.018133461 -0.061390832 0.055221528 0.14886612 0.046753466
0.14663994 0.20555303 0.12324157 -0.116224214 -0.202829 -0.037675843 -0.19374007 -0.17586778
-0.21547724 0.20948446 -0.06305218 -0.14916986 0.16744539 0.14526287 -0.05052696 0.06541854
-0.03541042 0.10349721 -0.21835023 0.14576021 0.20029962 -0.2111027 -0.10378178 -0.14275685
-0.039011434 0.05520165 0.015556663 0.16442043 0.07233149 0.19773439 0.11586207 0.10596067
-0.12738335 0.043378443 0.12093276 -0.00069747865 0.08429867 0.029465556 -0.037643105 0.14091995
-0.22222221 0.16745287 -0.20439738 -0.070203334 0.17263135 -0.1257286 0.14797264 -0.060395047
0.120682865 -0.12379783 0.16253334 -0.19143292 0.113775074 0.110496044 -0.12485042 -0.09394416
0.12279275 0.06611255 0.058633536 -0.087628424 -0.10141902 0.21631217 -0.004809603 0.18525684
0.052251667 -0.16640261 0.061148614 -0.11046574 -0.1418117 -0.20617822 -0.077401 0.20588657
-0.12641393 0.08926937 0.12387657 -2.977252e-05 -0.18796857 0.09014884 -0.01808551 0.021980062
-0.009814799 -0.19537956 0.19206429 -0.017444015 0.21965924 0.21717232 0.1559928 0.15284479
0.18029675 0.05590412 0.025045231 -0.0793367 0.1469352 0.07086098 0.0068199188 0.025214344
-0.18194719 0.2051588 -0.20436998 0.21620545 -0.18799104 0.18886921 0.20500335 0.14744845
-0.00073072314 0.1513136 -0.13431431 -0.030929893 0.20252216 -0.1638212 -0.026034787 0.16694704
-0.06700517 0.07007432 0.044827968 -0.16278666 -0.018540189 -0.1332072 0.1825167 -0.087549865
00000000: 6808 793d e04f 7bbd 908a fb3d 7429 c73d
00000010: 3e23 3a3e c047 633e eeb0 90bd 6a7f 40be
00000020: f0f7 b5bd 4c58 2f3e ad16 28be 1eeb 5e3e
00000030: 128f 17be d0a3 703d e0f0 603d 0c14 d23d
00000040: 0c21 093e e4ff 73bd a0a3 f63d 8028 423d
00000050: 0685 f7bd f6e5 c6bd f0f2 b23c e60c 1cbe
00000060: e0ca 39bd 04ad 933d ec7f 533e 3efd 59be
00000070: cab6 583e 9462 9a3d 0e16 483e e03b 87bc
00000080: bade 9fbd b20a 1a3e 568c 0e3e 0036 503e
00000090: e8f4 7f3d 58bb 873d 30ef 4dbd e0f3 a2bb
000000a0: 7290 333e 7ed5 2e3e 8eb1 c3bd 4c2a a5bd
000000b0: 58ba f5bc 1c94 633e dca0 ba3d a03d 9c3c
000000c0: 18aa 14bd db45 3bbe f039 583d b42c c63d
000000d0: 18c8 7c3d 92cc a8bd f330 53be 9f4a 62be
000000e0: 085f a73c 780f 61be 9211 5f3e 20bc 9a3c
000000f0: 065b 0c3e ccda b4bd 8a3a 4dbe ca01 183e
00000100: 8aed 17be 0e58 303e 1a3c 063e 4679 c4bd
00000110: 5438 c1bd 3284 8cbd f8ac ab3d 8008 0d3e
00000120: 6074 853c 0055 5f3c bc76 0e3e a08c 94bc
00000130: f474 7bbd f82f 623d 5c70 183e 9080 3f3d
00000140: c828 163e 7e7c 523e 1466 fc3d f606 eebd
00000150: 68b2 4fbe fc51 1abd cc63 46be af16 34be
00000160: 11a6 5cbe 1883 563e 8021 81bd fcbf 18be
00000170: ce76 2b3e cabf 143e 5cf5 4ebd 28fa 853d
00000180: 840a 11bd 58f6 d33d 3497 5fbe 2a42 153e
00000190: 581b 4d3e 4e2b 58be 8b8b d4bd da2e 12be
000001a0: 74ca 1fbd 201b 623d 60e1 7e3c d45d 283e
000001b0: 8822 943d e27a 4a3e 1849 ed3d e801 d93d
000001c0: c870 02be 98ad 313d 98ab f73d 00d7 36ba
000001d0: c8a4 ac3d c061 f13c a82f 1abd 524d 103e
000001e0: 388e 63be c478 2b3e 8c4d 51be c4c6 8fbd
000001f0: 46c6 303e 00bf 00be 2486 173e cc60 77bd
00000200: 9428 f73d b789 fdbd 246f 263e fe06 44be
00000210: e802 e93d c04b e23d 94b1 ffbd cc65 c0bd
00000220: c47a fb3d 0466 873d b829 703d 8876 b3bd
00000230: c6b4 cfbd f080 5d3e e099 9dbb f8b3 3d3e
00000240: d805 563d 7265 2abe f876 7a3d dd3b e2bd
00000250: 1637 11be 6220 53be 6a84 9ebd eed3 523e
00000260: a772 01be dcd2 b63d 00b3 fd3d 00c0 f9b7
00000270: d57a 40be f49f b83d 1028 94bc 880f b43c
00000280: 40ce 20bc 9411 48be 80ac 443e c0e6 8ebc
00000290: 5aee 603e 6c62 5e3e 94bc 1f3e 5883 1c3e
000002a0: b69f 383e b8fb 643d a82b cd3c 487b a2bd
000002b0: 2e76 163e 901f 913d a079 df3b 508e ce3c
000002c0: 5d50 3abe 2615 523e 5d46 51be f664 5d3e
000002d0: b980 40be ee66 413e 66ec 513e bafc 163e
000002e0: 008e 3fba f4f1 1a3e b189 09be b060 fdbc
000002f0: f861 4f3e bfc0 27be e846 d5bc 2af4 2a3e
00000300: 023a 89bd 2083 8f3d 889d 373d 8cb1 26be
00000310: 98e1 97bc 7867 08be a8e5 3a3e 584d b3bd

critic.layer_out.weight f4 [1, 10]
0.13561505 -0.28844368 0.2519928 0.29854456 -0.032046586 0.108335525 -0.17545372 0.014188498
0.0431543 0.26079533
00000000: acde 0a3e e4ae 93be 3305 813e d5da 983e
00000010: 4843 03bd 04df dd3d 24aa 33be e076 683c
00000020: 90c2 303d f786 853e

actor.layer_1.weight f4 [10, 4]
0.43038818 -0.14814226 0.44010764 -0.12122505 -0.40281045 -0.4543477 0.31271744 -0.21701811
-0.19944313 -0.020761121 -0.03690607 0.41350806 -0.034292433 0.381325 0.28467223 -0.11964726
-0.099301055 -0.11270249 0.2425151 0.20630725 -0.52656054 -0.22140601 -0.0030183152 -0.43524998
0.4037149 0.4931153 0.26006165 -0.24435002 -0.20634915 -0.057459787 -0.25773874 0.011750173
0.0123811625 0.10280752 -0.17184289 0.23603438 0.3036916 0.28961086 0.059350174 -0.17002922
00000000: d75b dc3e 9bb2 17be ca55 e13e d744 f8bd
00000010: 2c3d cebe 43a0 e8be 801c a03e ff39 5ebe
00000020: d23a 4cbe 3a13 aabc d22a 17bd 54b7 d33e
00000030: 3976 0cbd 083d c33e 8fc0 913e 9f09 f5bd
00000040: 5a5e cbbd 90d0 e6bd e155 783e 3542 533e
00000050: accc 06bf 42b8 62be edce 45bb 16d9 debe
00000060: b8b3 ce3e 9c79 fc3e cd26 853e e436 7abe
00000070: 314d 53be f45a 6bbd 55f6 83be cc83 403c
00000080: 5cda 4a3c c08c d23d 95f7 2fbe ffb2 713e
00000090: 777d 9b3e e047 943e 2b19 733d 241c 2ebe

actor.layer_2.weight f4 [20, 10]
-0.2957808 -0.17238715 0.15456519 -0.19671613 -0.024395961 -0.24348316 -0.049155004 -0.016417336
-0.24263239 -0.017468745 0.013278602 0.120533936 -0.12597314 -0.2573241 0.17008647 -0.10514562
-0.08760496 0.0869562 -0.30392656 -0.2556358 -0.26741016 -0.11195634 0.1622375 0.2068133
-0.036345 -0.12344601 0.18259071 -0.25410485 0.08399435 -0.0073104138 0.28950617 -0.23948884
-0.17573889 -0.12759602 0.06650528 -0.037129745 0.039630037 -0.28175142 -0.26027432 -0.23746859
-0.032285303 -0.06693304 0.14459516 -0.3005175 0.11014055 0.10822212 -0.27303723 0.24322774
0.13521788 -0.24684314 0.08293475 -0.025370777 -0.08735482 0.062696 0.26771796 -0.19061296
-0.2854134 -0.06280459 0.066183195 -0.15347862 -0.00067556475 0.038962997 0.29527563 -0.10852885
-0.1969349 0.18628389 -0.08999377 -0.07124984 0.29931778 0.082936965 0.17275144 -0.16666637
0.13806704 0.20525284 -0.3130214 -0.2675424 0.15454198 0.18353818 0.04371172 0.09247408
-0.09558911 0.0862394 0.15027642 0.04515095 0.2846142 -0.0033623327 -0.013812752 -0.003246521
-0.093124 0.2826508 0.09481074 -4.5484485e-05 -0.17675287 -0.07943129 -0.1696537 0.29718247
-0.11045712 -0.20406604 0.053251747 -0.12243861 0.21953778 -0.061501674 0.22485556 -0.31948677
-0.19120932 0.21609135 0.079438776 0.14103344 -0.21294883 -0.23423676 0.047450077 0.009433759
0.23463659 0.21441011 0.041257896 -0.20648807 -0.1917716 -0.18712986 0.0030491431 0.089527346
-0.10741856 0.25144842 0.13461295 0.32311076 -0.11483893 -0.23403147 -0.009610829 0.287703
-0.19043165 0.23010811 -0.25301594 -0.0044796127 -0.099953026 -0.2627642 -0.10552807 -0.15698409
0.27158973 0.10158276 0.020932302 0.17578684 -0.07568422 -0.18447304 -0.093754895 0.21347265
-0.021168312 -0.23448727 -0.27749392 0.18834372 -0.263471 0.020953383 0.26274133 0.15821104
-0.059751175 -0.01640005 -0.28257644 -0.18856831 0.25554335 -0.17527854 -0.2691073 0.013785842
-0.1301146 0.25861436 0.2088237 0.022425337 -0.08768268 0.058853064 -0.24275813 -0.048465338
-0.013779945 0.28894475 0.06147103 0.28279766 0.23486686 0.111861154 0.2992685 -0.106916174
-0.090488575 -0.10272499 -0.2893568 0.10448926 -0.09269435 0.02234886 0.29623416 -0.21661161
-0.2989794 -0.09173326 0.20694578 0.12679203 -0.275295 -0.18722156 -0.0058573545 -0.07331453
0.09960696 -0.06161414 -0.019259606 -0.084016204 -0.06595903 -0.10123721 0.24965999 0.29240403
00000000: 9570 97be 4286 30be 5646 1e3e f46f 49be
00000010: 0ada c7bc a653 79be c256 49bd a67d 86bc
00000020: a074 78be 9d1a 8fbc 7e8e 593c 7fda f63d
00000030: 1aff 00be fcbf 83be 262b 2e3e 9656 d7bd
00000040: 3b6a b3bd 1816 b23d 439c 9bbe b2e2 82be
00000050: fce9 88be 5e49 e5bd 9621 263e dec6 533e
00000060: 7fde 14bd 43d1 fcbd 0ff9 3a3e 081a 82be
00000070: 3b05 ac3d 328c efbb 273a 943e 903c 75be
00000080: e5f4 33be 88a8 02be ec33 883d 5c15 18bd
00000090: 1b53 223d b941 90be ad42 85be f72a 73be
000000a0: 983d 04bd 3114 89bd c110 143e 6edd 99be
000000b0: 5e91 e13d 8fa3 dd3d 89cb 8bbe b110 793e
000000c0: 8e76 0a3e 73c4 7cbe b2d9 a93d 60d6 cfbc
000000d0: 15e7 b2bd c366 803d 5412 893e 0b30 43be
000000e0: b521 92be b19f 80bd 0e8b 873d 8029 1dbe
000000f0: 6218 31ba aa97 1f3d 5e2e 973e 6044 debd
00000100: 4da9 49be 34c1 3e3e a74e b8bd 70eb 91bd
00000110: 2e40 993e dbda a93d c1e5 303e 97aa 2abe
00000120: 7261 0d3e cd2d 523e 5744 a0be 51fb 88be
00000130: 4140 1e3e 6ff1 3b3e 0f0b 333d 0d63 bd3d
00000140: 39c4 c3bd 489e b03d 10e2 193e 34f0 383d
00000150: f4b8 913e 955a 5cbb e24e 62bc 96c3 54bb
00000160: ccb7 bebd 9bb7 903e 222c c23d 98c6 3eb8
00000170: b4fe 34be dfac a2bd b3b9 2dbe 4d28 983e
00000180: 5837 e2bd b0f6 50be 811e 5a3d 18c1 fabd
00000190: 83ce 603e 2ee9 7bbd 8940 663e c593 a3be
000001a0: 60cc 43be 0d47 5d3e ccb0 a23d 126b 103e
000001b0: 420f 5abe c3db 6fbe 035b 423d 0e90 1a3c
000001c0: 9344 703e 538e 5b3e 0afe 283d 9c71 53be
000001d0: c65f 44be f89e 3fbe 22d4 473b 1d5a b73d
000001e0: 43fe dbbd d9bd 803e fad7 093e c66e a53e
000001f0: ac30 ebbd f2a5 6fbe bd76 1dbc cf4d 933e
00000200: 8400 43be 76a1 6b3e 4e8b 81be b7c9 92bb
00000210: 2cb4 ccbd 0789 86be 1a1f d8bd 70c0 20be
00000220: cf0d 8b3e 9f0a d03d 387a ab3c 7701 343e
00000230: 5400 9bbd 80e6 3cbe 9102 c0bd 9398 5a3e
00000240: 2b69 adbc 6e1d 70be af13 8ebe 2ddd 403e
00000250: ace5 86be 6ea6 ab3c 0886 863e 1302 223e
00000260: a6bd 74bd 6659 86bc dcad 90be 0d18 41be
00000270: 94d6 823e 387c 33be 6fc8 89be 03de 613c
00000280: c33c 05be 1a69 843e e1d5 553e 57b5 b73c
00000290: fa92 b3bd e90f 713d 9695 78be 9783 46bd
000002a0: 47c5 61bc 91f0 933e 0cc9 7b3d dbca 903e
000002b0: f080 703e 7617 e53d b939 993e def6 dabd
000002c0: 1352 b9bd 7b61 d2bd 9326 94be 77fe d53d
000002d0: 89d6 bdbd f514 b73c 01ac 973e 6fcf 5dbe
000002e0: d413 99be a6de bbbd 98e9 533e c5d5 013e
000002f0: 77f3 8cbe 02b7 3fbe 0def bfbb ee25 96bd
00000300: bcfe cb3d 1c5f 7cbd 52c6 9dbc b010 acbd
00000310: 8715 87bd 7455 cfbd dea6 7f3e fbb5 953e

actor.layer_3.weight f4 [10, 20]
-0.07213927 0.122137874 0.20245169 -0.026139736 0.12890342 -0.13876897 -0.19611092 0.15207615
-0.212645 0.053555265 0.04766058 -0.084443666 -0.12344225 -0.102005385 0.22452846 0.21906519
-0.16219385 -0.09292463 -0.21055834 0.21209177 -0.024140574 0.019125167 0.032166306 0.03232172
0.16331227 0.025606286 -0.016921496 0.048286878 0.17426586 0.0061129434 -0.081506304 -0.03347146
0.1344392 0.015471393 -0.026928289 0.0037314934 -0.1650241 -0.12368742 0.05031305 -0.22114833
-0.19321392 0.20115104 0.07519784 -0.13863541 0.049926676 -0.019078404 0.10696421 0.024730377
-0.044812113 0.18529297 0.018832045 -0.11706764 0.119381994 -0.047074065 -0.22516666 0.06816756
-0.01926476 0.032971736 -0.09735221 -0.13338727 0.12824677 0.046004213 0.015510813 0.064526685
0.14482136 0.12239325 0.08186037 -0.09342481 0.111277856 0.12100288 -0.13986757 -0.07012624
0.13032222 -0.018356904 -0.06201817 -0.08810055 0.124811 0.19787794 -0.22115107 -0.017402196
0.13812695 -0.06720487 0.033477362 -0.104908876 -0.2262787 0.16945057 -0.083875865 0.07306335
0.05648625 0.15049735 0.026201926 -0.121216506 0.18539484 -0.16005088 0.12005749 -0.020196546
-0.11635299 -0.16160804 -0.02153697 -0.20672879 0.15495005 -0.14169611 -0.120585896 -0.025761582
-0.21230756 0.089579396 0.02750901 0.05208691 0.025355738 0.012098773 -0.20116965 0.065923996
0.17894097 0.012154453 0.12940243 0.013790785 0.013135004 0.058378153 -0.176557 -0.07609122
0.19434208 0.025860587 -0.007009789 -0.055937268 -0.058772296 0.20952418 -0.03408086 0.19436587
0.18623106 0.035961702 -0.0011716231 0.15982041 -0.18684568 0.1907361 -0.1004568 0.13945033
-0.21508424 -0.1086005 -0.052567195 0.18545045 0.10365217 0.02943215 -0.20922764 -0.14277686
-0.120920904 -0.17849292 -0.029846748 -0.12073893 -0.0074470043 0.004884229 -0.15550534 -0.20006481
0.035126172 0.008341349 -0.15783209 0.11481098 0.2068555 -0.1855888 -0.075066 0.15263472
-0.0915914 -0.2200211 0.12224456 0.11940539 -0.20344056 0.10773271 -0.15313824 -0.097446814
0.031504653 -0.017305752 -0.09525722 0.09440916 0.22202207 0.12465692 0.13173094 -0.06940983
0.01607813 0.11506696 -0.21914555 0.06638843 -0.044694 -0.07646672 0.08915268 -0.1948004
-0.19175386 0.17733721 0.13592038 -0.22028309 -0.124482274 0.12362267 0.22562611 0.08650088
0.17484806 -0.041390613 0.1505367 -0.20838736 -0.029915716 -0.07575622 0.033336118 0.12774786
00000000: c1bd 93bd 6c23 fa3d 7f4f 4f3e 0023 d6bc
00000010: 42ff 033e 7419 0ebe 4dd1 48be dab9 1b3e
00000020: 9cbf 59be c45c 5b3d be37 433d cdf0 acbd
00000030: 4acf fcbd 33e8 d0bd caea 653e a052 603e
00000040: 2516 26be 454f bebd 9b9c 57be 962e 593e
00000050: 74c2 c5bc 62ac 9c3c d1c0 033d c863 043d
00000060: 553b 273e 46c4 d13c f39e 8abc 76c8 453d
00000070: c072 323e 164f c83b c7ec a6bd 5f19 09bd
00000080: 6eaa 093e ba7b 7d3c b798 dcbc 128c 743b
00000090: 14fc 28be d44f fdbd 0f15 4e3d b574 62be
000000a0: dfd9 45be 8afa 4d3e 5301 9a3d 71f6 0dbe
000000b0: ea7f 4c3d 504a 9cbc 0d10 db3d 5c97 ca3c
000000c0: e88c 37bd 71bd 3d3e a945 9a3c 29c1 efbd
000000d0: 8c7e f43d bcd0 40bd 1792 66be 6f9b 8b3d
000000e0: 21d1 9dbc 5f0d 073d 9860 c7bd ac96 08be
000000f0: 1f53 033e ea6e 3c3d 1121 7e3c 9126 843d
00000100: 0d4c 143e 50a9 fa3d 69a6 a73d 8255 bfbd
00000110: a5e5 e33d 5cd0 f73d 7239 0fbe 599e 8fbd
00000120: 3073 053e 3861 96bc c406 7ebd 106e b4bd
00000130: e99c ff3d 84a0 4a3e 6d75 62be 0d8f 8ebc
00000140: 2771 0d3e b5a2 89bd 8f1f 093d 77da d6bd
00000150: 9bb5 67be 7384 2d3e 1cc7 abbd 3da2 953d
00000160: 205e 673d fa1b 1a3e 6ca5 d63c 5c40 f8bd
00000170: 25d8 3d3e 61e4 23be b4e0 f53d 3a73 a5bc
00000180: 7a4a eebd 947c 25be 4d6e b0bc b6b0 53be
00000190: 3aab 1e3e c918 11be bdf5 f6bd f409 d3bc
000001a0: 2767 59be 6775 b73d 935a e13c 1559 553d
000001b0: d6b6 cf3c ef39 463c 6bff 4dbe 2903 873d
000001c0: 4d3c 373e 7923 473c 1282 043e bff2 613c
000001d0: 3334 573c ee1d 6f3d 5ccb 34be b7d5 9bbd
000001e0: 9c01 473e 95d9 d33c 5fb2 e5bb 7a1e 65bd
000001f0: 38bb 70bd 828d 563e 5f98 0bbd d907 473e
00000200: 5bb3 3e3e 944c 133d 2691 99ba f6a7 233e
00000210: 7954 3fbe 5350 433e 4bbc cdbd 11cc 0e3e
00000220: 0b3f 5cbe f069 debd b350 57bd b9e6 3d3e
00000230: 9747 d43d b11b f13c c53f 56be 1934 12be
00000240: 61a5 f7bd d9c6 36be 2b81 f4bc f945 f7bd
00000250: 0006 f4bb e20b a03b cb3c 1fbe cadd 4cbe
00000260: 76e0 0f3d 27aa 083c bc9e 21be 0522 eb3d
00000270: eed1 533e fe0a 3ebe 34bc 99bd 474c 1c3e
00000280: 4694 bbbd 364d 61be 5b5b fa3d d08a f43d
00000290: b952 50be f8a2 dc3d 45d0 1cbe 3292 c7bd
000002a0: 060b 013d cbc4 8dbc 3816 c3bd 9759 c13d
000002b0: c159 633e 214c ff3d 7ae4 063e be26 8ebd
000002c0: 48b6 833c 3aa8 eb3d b167 60be a8f6 873d
000002d0: 0e11 37bd 959a 9cbd ae95 b63d c279 47be
000002e0: 205b 44be e397 353e b62e 0b3e e491 61be
000002f0: 90f0 febd e22d fd3d 880a 673e 6027 b13d
00000300: 5f0b 333e 3489 29bd 4b26 1a3e 7f63 55be
00000310: ce11 f5bc 1426 9bbd 748b 083d 56d0 023e

actor.layer_out.weight f4 [1, 10]
0.060628925 -0.23377708 -0.04416289 -0.07419393 -0.04467218 0.29914033 -0.30652127 -0.26103246
0.16552065 -0.13324027
00000000: 0956 783d 4263 6fbe 26e4 34bd fdf2 97bd
00000010: 2dfa 36bd ec28 993e 5bf0 9cbe 0ca6 85be
00000020: 3f7e 293e 2370 08be
