code/weights/model.pt (torch, 8539 bytes, 20 tensors)

network.layer_1.weight f4 [10, 4]
6.535736e-06 -6.209041e-36 1.4687644e-15 -6.634514e-08 1.1231122e-05 -5.974251e-16 -1.74212e-07 1.1165909e-18
6.613747e-29 2.2042745e-12 -5.0608533e-06 -8.1512087e-07 -2.541605e-39 3.8431964e-09 -4.090496e-06 -1.133573e-28
9.543762e-10 -3.3739394e-17 1.2282938e-05 -1.2811221e-12 2.4001963e-07 -8.308659e-27 -1.7920097e-33 8.4573e-41
-3.416189e-07 2.1266185e-11 -3.0226047e-05 -1.5901202e-05 -9.480892e-09 -2.9655407e-08 -1.5040054e-05 -7.9754603e-28
5.141924e-07 -4.9986024e-06 -1.3520782e-08 4.4014444e-23 -4.848132e-37 -7.700204e-39 -3.53632e-40 1.6611675e-23
00000000: 8b4d db36 3c0d 0485 d8ab d326 a079 8eb3
00000010: 4d6d 3c37 3132 2ca6 080f 3bb4 9dc7 a421
00000020: acad a710 ae1c 1b2c 66d0 a9b6 aece 5ab5
00000030: f6ac 1b80 1d0d 8431 1841 89b6 8cb2 0f91
00000040: 212b 8330 7298 1ba4 d112 4e37 4a4d b4ab
00000050: 0cdc 8034 e891 2494 d5df 1489 c1eb 0000
00000060: be67 b7b4 310f bb2d f18d fdb7 9263 85b7
00000070: 67e1 22b2 eebc feb2 8a54 7cb7 9fc0 7c92
00000080: 0807 0a35 abb9 a7b6 0749 68b2 3ed7 541a
00000090: 30f9 2483 09d9 5380 c8d9 0380 84a8 a019

network.layer_1.bias f4 [10]
-4.71265e-40 3.48534e-19 -2.0295279e-36 -1.23597e-40 -1.117932e-39 3.23065e-40 -3.15215e-40 -5.2347197e-37
1.8919154e-08 1.4482093e-21
00000000: b221 0580 f8bc cd20 34a7 2c84 8a58 0180
00000010: 572c 0c80 9384 0300 b16e 0380 d720 3283
00000020: a983 a232 e2d8 da1c

network.batch_norm_1.weight f4 [10]
0.050786316 0.050786316 0.050786316 0.050786316 0.050786316 0.050786316 0.050786316 0.050786316
0.050786316 0.050786316
00000000: 5005 503d 5005 503d 5005 503d 5005 503d
00000010: 5005 503d 5005 503d 5005 503d 5005 503d
00000020: 5005 503d 5005 503d

network.batch_norm_1.bias f4 [10]
0.0 0.0 0.0 0.0 0.0 0.0 0.0 0.0
0.0 0.0
00000000: 0000 0000 0000 0000 0000 0000 0000 0000
00000010: 0000 0000 0000 0000 0000 0000 0000 0000
00000020: 0000 0000 0000 0000

network.batch_norm_1.running_mean f4 [10]
0.0 0.0 0.0 0.0 0.0 0.0 0.0 0.0
0.0 0.0
00000000: 0000 0000 0000 0000 0000 0000 0000 0000
00000010: 0000 0000 0000 0000 0000 0000 0000 0000
00000020: 0000 0000 0000 0000

network.batch_norm_1.running_var f4 [10]
1.0 1.0 1.0 1.0 1.0 1.0 1.0 1.0
1.0 1.0
00000000: 0000 803f 0000 803f 0000 803f 0000 803f
00000010: 0000 803f 0000 803f 0000 803f 0000 803f
00000020: 0000 803f 0000 803f

network.layer_2.weight f4 [10, 10]
1.86104e-40 1.38573e-40 3.7552487e-12 -2.6094235e-33 4.6604503e-26 -4.4099814e-22 3.197e-40 1.71534e-40
1.2520293e-16 -3.27381e-40 -2.912942e-32 -3.375492e-38 1.499766e-39 2.3781942e-11 -2.93002e-40 4.790934e-17
-3.0398174e-11 -1.002428e-31 -1.9329882e-30 8.743945e-28 -4.504274e-35 2.15828e-40 4.759482e-39 -2.915e-40
1.57049e-40 -3.3083662e-19 -2.574461e-39 4.040995e-21 1.03772754e-10 1.5876147e-12 -9.16813e-33 3.1674165e-21
-1.1701282e-28 4.595603e-29 6.409486e-15 -1.2759746e-24 -1.479958e-39 -2.3002793e-33 1.03524505e-35 2.373881e-29
-1.7637278e-36 -4.174e-41 -4.582644e-38 -3.4615076e-38 9.0611636e-11 8.33518e-40 -1.694014e-18 -6.449384e-13
3.3504243e-28 2.273e-40 -1.4252829e-35 3.62877e-10 -1.0317584e-38 2.2127464e-19 1.2836812e-36 -8.4292315e-36
7.6606825e-36 2.6871077e-36 -1.3367329e-29 -5.9955214e-25 5.227438e-10 -5.244488e-12 -1.803185e-36 -1.750608e-13
-1.2606e-40 -2.901022e-30 4.798705e-23 1.4034923e-35 1.235591e-39 -8.660514e-22 3.2467845e-19 1.1349635e-10
-1.9749735e-14 9.9553925e-15 -3.8422e-41 -3.7368608e-11 2.7844622e-18 -1.1036566e-13 3.9981824e-19 -4.366543e-11
1.4206515e-29 1.5307781e-30 -9.0298e-41 9.0504466e-30 1.47838e-40 -1.4143568e-33 4.21415e-40 1.1163e-40
-3.6501866e-35 2.1260818e-21 8.923071e-14 6.49844e-40 -8.810973e-33 -6.267e-41 5.2937597e-17 1.2335529e-15
-1.3738236e-38 3.058359e-38 -5.14128e-40 -4.4956e-40
00000000: c806 0200 4982 0100 4620 842c 4dc8 5889
00000010: 3ac6 6615 9448 059c 327b 0300 2bde 0100
00000020: 6259 1025 9b90 0380 a43f 178b 7ec7 3781
00000030: bd54 1000 2c30 d12d c530 0380 5ef1 5c24
00000040: 4db1 05ae 621f 028c 98d2 1c8e a88d 8a12
00000050: 007d 6f86 a459 0200 80d3 3300 952c 0380
00000060: cab5 0100 9e4a c3a0 8d08 1c80 1baa 981d
00000070: de32 e42e d96f df2b 246a 3e8a bf52 6f1d
00000080: d554 1491 5606 6910 13ed e627 9072 c597
00000090: 851d 1080 8819 3f89 1a2c 5c05 79bd f00f
000000a0: 970a 1684 5b74 0080 bc80 7981 6076 3c81
000000b0: d141 c72e 8213 0900 0afe f9a1 b688 35ab
000000c0: be5b d411 9f79 0200 e48f 9785 667e c72f
000000d0: 3a59 7080 149e 8220 3468 da03 1a45 3385
000000e0: b9ec 2205 0698 6404 928f 878f 6a8d 3997
000000f0: d3b0 0f30 2686 b8ac e465 1984 d719 45aa
00000100: 675f 0180 df5b 6b8e 170d 681a b23e 9505
00000110: 5374 0d00 bedf 829c 05a8 bf20 c494 f92e
00000120: cae3 b1a8 2557 3328 1b6b 0080 5059 24ae
00000130: 0175 4d22 7985 f8a9 d302 ec20 e70a 40ae
00000140: 3912 900f 0962 f80d b7fb 0080 9b90 370f
00000150: 1d9c 0100 1600 eb88 bc96 0400 2e37 0100
00000160: c413 4286 67a4 201d 01ee c829 8013 0700
00000170: 2bff 368a b3ae 0080 af21 7424 12c6 b126
00000180: 9d98 9580 4e83 2601 2e99 0580 31e5 0480

network.layer_2.bias f4 [10]
1.6479543e-37 -7.7295185e-14 -6.263256e-39 6.023496e-23 1.1164303e-15 -2.7871396e-21 -1.2372714e-25 -1.21195e-28
2.0811123e-21 -1.7559158e-37
00000000: d44e 6002 a40d aea9 6933 4480 a2a3 911a
00000010: 02e5 a026 1f97 529d b22a 1996 07a2 1991
00000020: 913e 1d1d bc00 6f82

network.batch_norm_2.weight f4 [10]
0.050786316 0.050786316 0.050786316 0.050786316 0.050786316 0.050786316 0.050786316 0.050786316
0.050786316 0.050786316
00000000: 5005 503d 5005 503d 5005 503d 5005 503d
00000010: 5005 503d 5005 503d 5005 503d 5005 503d
00000020: 5005 503d 5005 503d

network.batch_norm_2.bias f4 [10]
0.0 0.0 0.0 0.0 0.0 0.0 0.0 0.0
0.0 0.0
00000000: 0000 0000 0000 0000 0000 0000 0000 0000
00000010: 0000 0000 0000 0000 0000 0000 0000 0000
00000020: 0000 0000 0000 0000

network.batch_norm_2.running_mean f4 [10]
0.0 0.0 0.0 0.0 0.0 0.0 0.0 0.0
0.0 0.0
00000000: 0000 0000 0000 0000 0000 0000 0000 0000
00000010: 0000 0000 0000 0000 0000 0000 0000 0000
00000020: 0000 0000 0000 0000

network.batch_norm_2.running_var f4 [10]
1.0 1.0 1.0 1.0 1.0 1.0 1.0 1.0
1.0 1.0
00000000: 0000 803f 0000 803f 0000 803f 0000 803f
00000010: 0000 803f 0000 803f 0000 803f 0000 803f
00000020: 0000 803f 0000 803f

network.layer_3.weight f4 [10, 10]
1.8246536e-29 -1.9106255e-21 -1.4749685e-37 3.0700678e-38 -2.1359e-40 1.0775817e-37 8.7376065e-29 -4.3764915e-31
1.3921339e-18 -2.3187696e-34 -7.708111e-16 1.3114576e-13 -2.216441e-28 4.119036e-27 8.2061945e-13 1.0126392e-11
1.3795116e-10 1.3052246e-34 2.41326e-40 5.752058e-13 -5.7329546e-37 1.51671e-40 -2.39478e-40 2.6231654e-33
5.2806135e-14 6.70405e-40 -1.9627039e-22 1.9585071e-24 -1.0117118e-15 -3.44436e-40 -1.0250303e-25 1.122494e-34
3.0300985e-37 5.207272e-18 -9.433259e-10 2.722885e-21 -7.119227e-10 2.6422183e-33 -1.6236467e-24 -6.597974e-15
9.566338e-24 -2.9635826e-14 -1.44412e-40 3.725709e-39 2.5324052e-17 3.40046e-40 -3.0972461e-25 8.10636e-40
2.0383e-41 2.1508224e-32 1.14927e-40 8.293656e-12 5.7024124e-24 2.9543095e-12 5.2153558e-37 -1.023e-40
9.262751e-28 7.188696e-10 1.34934e-40 4.200343e-39 1.2681049e-24 2.9327996e-12 -2.9779784e-30 2.107511e-13
-7.168227e-32 9.509754e-12 6.884692e-12 -2.4004293e-15 -1.3962529e-22 5.8521295e-31 8.621459e-36 -5.376046e-32
1.189523e-31 -9.604152e-28 -4.5574e-41 8.841235e-39 3.63372e-16 -1.79241e-40 -5.2049836e-14 -9.0932105e-18
-1.436398e-37 -2.6172859e-38 5.245574e-35 2.4392494e-10 -1.2023808e-35 -1.0540506e-36 -2.6985517e-16 -8.41298e-34
-2.1676654e-12 1.0084098e-22 1.968185e-11 -1.7353922e-11 -1.54405e-40 -3.74252e-40 -1.569236e-26 -2.7907915e-38
3.3080858e-34 -3.7417895e-19 -2.231512e-21 -3.59091e-40
00000000: b70a b90f df5c 109d 27c3 4882 8026 2701
00000010: 6753 0280 3eac 1202 4f86 dd10 7806 0e8d
00000020: 5571 cd21 d21b 9a87 d22b 5ea6 31a8 132a
00000030: d07b 8c91 fd2b a313 ddfb 662b 3725 322d
00000040: cdad 172f 7e7e 2d07 b8a0 0200 f2e7 212b
00000050: 1415 4383 cca6 0100 919b 0280 8fec 5909
00000060: 54d1 6d29 d14c 0700 be46 6d9b 3b88 1718
00000070: 94cd 91a6 26c0 0380 04c9 fd95 7e34 1507
00000080: c337 ce02 4b1d c022 54a6 81b0 41bc 4d1d
00000090: 1bb1 43b0 c581 5b09 463f fb97 92b7 eda7
000000a0: 360a 3919 c877 05a9 9092 0180 c391 2800
000000b0: ba92 e923 e9b3 0300 d3b5 bf96 b9d3 0800
000000c0: d238 0000 ab5a df0a 5f40 0100 4ee7 112d
000000d0: f599 dc18 1ce4 4f2c 2878 3103 2c1d 0180
000000e0: 2fc6 9212 f399 4530 2478 0100 d9bc 2d00
000000f0: d03a c417 9f60 4e2c 319a 718e de48 6d2a
00000100: 0a19 ba8b 204c 272d cb3b f22c 1bf8 2ca7
00000110: efcb 289b 97e9 3d0d b05b 3705 f491 8b8b
00000120: af68 1a0c 122f 9892 0b7f 0080 c445 6000
00000130: 3e78 d125 a7f3 0180 6069 6aa9 79bd 27a3
00000140: 2a83 4382 a47f 0e81 8773 8b06 6219 862f
00000150: d6b7 7f85 6156 b383 988f 9ba5 dcc8 8b88
00000160: 3089 18ac 8bd1 f31a 961f ad2d 8fa5 98ad
00000170: 6bae 0180 4313 0480 dc68 9b94 f5f1 1781
00000180: 2adc db07 53e0 dca0 b89b 289d 00e9 0380

network.layer_3.bias f4 [10]
1.754211e-39 -5.0361838e-14 1.5187671e-38 -1.9171142e-27 5.3702193e-34 2.599795e-39 3.7174493e-37 6.993336e-11
1.2764426e-38 1.9979869e-27
00000000: 071a 1300 3fcf 62a9 0c61 a500 b2e3 1793
00000010: c674 3208 2c4f 1c00 1aff fc02 fbc8 992e
00000020: 07fe 8a00 fd4b 1e13

network.batch_norm_3.weight f4 [10]
0.050786316 0.050786316 0.050786316 0.050786316 0.050786316 0.050786316 0.050786316 0.050786316
0.050786316 0.050786316
00000000: 5005 503d 5005 503d 5005 503d 5005 503d
00000010: 5005 503d 5005 503d 5005 503d 5005 503d
00000020: 5005 503d 5005 503d

network.batch_norm_3.bias f4 [10]
0.0 0.0 0.0 0.0 0.0 0.0 0.0 0.0
0.0 0.0
00000000: 0000 0000 0000 0000 0000 0000 0000 0000
00000010: 0000 0000 0000 0000 0000 0000 0000 0000
00000020: 0000 0000 0000 0000

network.batch_norm_3.running_mean f4 [10]
0.0 0.0 0.0 0.0 0.0 0.0 0.0 0.0
0.0 0.0
00000000: 0000 0000 0000 0000 0000 0000 0000 0000
00000010: 0000 0000 0000 0000 0000 0000 0000 0000
00000020: 0000 0000 0000 0000

network.batch_norm_3.running_var f4 [10]
1.0 1.0 1.0 1.0 1.0 1.0 1.0 1.0
1.0 1.0
00000000: 0000 803f 0000 803f 0000 803f 0000 803f
00000010: 0000 803f 0000 803f 0000 803f 0000 803f
00000020: 0000 803f 0000 803f

network.layer_4.weight f4 [3, 10]
9.995198e-13 1.7868e-41 1.6858e-41 1.14818e-40 -2.1064866e-24 5.7960804e-14 3.42302e-13 3.635883e-39
-2.9847799e-21 -2.52511e-40 1.1527642e-38 -2.25542e-39 4.8522588e-27 5.7984e-41 3.5520247e-19 4.7746314e-31
4.6266604e-38 -1.5031663e-34 7.738085e-12 -9.862128e-27 -1.138608e-11 -6.0721274e-23 1.3647362e-17 -9.85046e-39
3.476828e-31 -3.1301492e-29 2.9191683e-30 4.48095e-38 8.811e-42 8.696e-42
00000000: 7fab 8c2b cf31 0000 fe2e 0000 1140 0100
00000010: 44fb 2298 2184 8229 ebb2 c02a 5d97 2700
00000020: 0a86 619d e6bf 0280 6086 7d00 318f 1880
00000030: c037 c013 a3a1 0000 aeac d120 16f2 1a0d
00000040: 3ce6 7b01 19ce 4787 3d21 082d ee56 4394
00000050: 584e 48ad a6d0 929a d8bf 7b23 1343 6b80
00000060: b7a8 e10c a9b7 1e90 c1d4 6c0e 54f7 7301
00000070: 9018 0000 3e18 0000

network.layer_4.bias f4 [3]
-1.8317908e-38 1.4033861e-24 -3.0706947e-37
00000000: e076 c780 da29 d917 0cfb d082
