code/weights/model.pt (torch, 3938 bytes, 6 tensors)

critic.layer_1.weight f4 [10, 4]
000000 ee dd 5d 3e 64 42 a1 bd b3 a9 f3 be 8e aa 8d be
       0.2166669 -0.07873991 -0.47590408 -0.27669185
000010 6e aa c4 3d 54 3d 09 3f 38 0f 8b bd e0 a0 c6 be
       0.096028194 0.53609204 -0.06790012 -0.38794613
000020 1b 56 db 3e 5f 07 dd 39 c2 7e 3c 3e bc 95 8e bd
       0.4283913 0.00042157897 0.1840773 -0.06962153
000030 3b 01 66 be ad 80 0c be 61 23 27 3c a5 3a d8 be
       -0.22461407 -0.13720961 0.010201306 -0.42232242
000040 ec 96 53 3e ec 4e 3c 3e be 0a 2b be ed 6b 0b bf
       0.20663041 0.18389481 -0.16703317 -0.54461557
000050 bd bd 5d 3e db d2 4a 3d 3a 41 54 be d6 9f cf 3e
       0.2165441 0.049517494 -0.20728007 0.40551633
000060 cf 67 d3 be 32 a9 1b 3e 21 e6 05 bf d8 fc 52 3e
       -0.41290137 0.15201262 -0.52304274 0.20604265
000070 f1 af 33 3c 04 3e 3a 3e e3 56 87 be ce 59 ae be
       0.010967241 0.1818772 -0.26433477 -0.3405289
000080 1a c9 b8 be 55 aa d9 be 37 60 10 3e 9f 5f 64 be
       -0.36090928 -0.42512766 0.14099203 -0.22302102
000090 f0 e7 82 be 51 b8 1e 3e 43 7a 2a 3e 9f c4 47 3e
       -0.2556758 0.15499999 0.16648202 0.19508599

critic.layer_1.bias f4 [10]
000000 32 2c 4c bc 9f 41 86 be 8b d2 ac be db 9b c5 3e
       -0.012461709 -0.2622194 -0.33754382 0.3859547
000010 68 92 03 be ba c7 b8 3e 8a 5c 48 3d a4 a0 a2 be
       -0.12848818 0.3608988 0.048916377 -0.31763184
000020 5f 0c 99 3e b1 16 fe 3e
       0.2989225 0.49626687

critic.layer_out.weight f4 [1, 10]
000000 04 e8 2b 3d cd 39 af be 83 b8 0d be 5d 1d 8b 3e
       0.041969314 -0.34223786 -0.13839917 0.2717084
000010 9d 50 1b 3e d0 95 23 3b 51 1f a3 3e 9b 29 53 3e
       0.1516747 0.0024961121 0.3185983 0.2062134
000020 8a 6d 47 3d cf 77 db bc
       0.04868845 -0.026790528

actor.layer_1.weight f4 [10, 4]
000000 40 99 86 be 18 04 b8 3d 36 07 98 be 78 3f c5 bd
       -0.26288795 0.08985156 -0.29693002 -0.09631246
000010 cc ae f0 be d8 5f a0 3d 58 41 1f be ec eb c9 be
       -0.4700836 0.07830781 -0.1555227 -0.39437807
000020 9c 77 37 be 80 6b c5 3c 0a 55 db 3e d4 0f 58 3e
       -0.17916721 0.024099112 0.42838317 0.21099788
000030 d6 e8 f4 be 7a 73 b4 be 3c 90 2d 3e f0 6b b1 bd
       -0.4783389 -0.35244352 0.16949552 -0.086631656
000040 f2 92 c8 be b4 fe 0c 3e 28 f0 7d be b4 cc 2e 3e
       -0.3917461 0.13769037 -0.24798644 0.17070276
000050 68 2c 5d 3e b8 00 b5 3e f6 11 8d 3e 80 29 4e 3d
       0.21598971 0.3535211 0.27552766 0.050332546
000060 e0 3c 0c be f6 ed c9 3e 10 f5 05 bd 38 c0 62 be
       -0.13695097 0.39439362 -0.032704413 -0.22143638
000070 a8 bc ce 3d 62 56 b3 be 14 00 f2 3e f6 c8 c6 be
       0.10094577 -0.35026842 0.47265685 -0.38825196
000080 10 b3 23 be 18 1d 54 3e b4 81 6b 3e a4 c2 c1 3e
       -0.15986276 0.20714223 0.22998697 0.37843812
000090 ee a4 fc be f0 1b 26 3e aa b3 e2 be 78 2a ac 3d
       -0.4934458 0.16221595 -0.44277698 0.08406538

actor.layer_1.bias f4 [10]
000000 a0 45 49 3e c8 68 8c bd 34 cc 88 3e 76 42 ef 3e
       0.19655466 -0.06855923 0.26718295 0.46730393
000010 32 e6 cc be 58 2d 93 be b2 10 d1 3e d0 82 cc bd
       -0.40019375 -0.28745532 0.4083305 -0.09985888
000020 94 e3 35 3e 90 09 85 bd
       0.17762595 -0.064959645

actor.layer_out.weight f4 [1, 10]
000000 00 1e 3f be 53 72 34 be 08 8c 47 3d 58 fe db bd
       -0.18663788 -0.17621736 0.04871753 -0.107418716
000010 6e 56 d1 bd 58 fc 35 3e 65 03 0d be 3c 87 69 be
       -0.10221563 0.17772043 -0.13770826 -0.22805494
000020 ca ab 97 be 2c 4f ce bd
       -0.29623252 -0.100736946
