code/weights/model.pt (torch, 2938 bytes, 4 tensors)

critic.layer_1.weight f4 [10, 4]
0.15920001 -0.1221586 -0.3508715 0.3453902 -0.40415972 -0.2437972 0.47131377 0.35546684
0.469913 -0.3915189 -0.29818287 0.22007054 -0.2234664 0.47614682 -0.08597549 0.0115109645
0.48419183 -0.22190581 0.26271048 0.41937608 0.44751054 -0.30509382 -0.4903287 -0.10951405
-0.271822 0.18311308 0.06258332 -0.083380185 -0.37344447 0.16767241 0.11554568 -0.30640367
0.03776694 -0.033358324 -0.22691436 -0.0674066 0.34653258 -0.4893251 0.30212915 -0.018035652
00000000: 5405 233e 4a2e fabd 6ea5 b3be fcd6 b03e
00000010: 06ee cebe f9a5 79be 0a50 f13e c0ff b53e
00000020: 7098 f03e 2a75 c8be 6dab 98be 2c5a 613e
00000030: 60d4 64be 84c9 f33e eb13 b0bd 7c98 3c3c
00000040: fee7 f73e 473b 63be fd81 863e 76b8 d63e
00000050: 1a20 e53e 4235 9cbe 5d0c fbbe e748 e0bd
00000060: 412c 8bbe ff81 3b3e af2b 803d 3bc3 aabd
00000070: 1d34 bfbe 51b2 2b3e 37a3 ec3d f1e0 9cbe
00000080: 82b1 1a3d bda2 08bd 3d5c 68be 790c 8abd
00000090: b86c b13e d288 fabe acb0 9a3e 81bf 93bc

critic.layer_out.weight f4 [1, 10]
-0.1982479 -0.16525356 0.02206515 -0.10795322 0.15948616 -0.2330286 -0.015705513 0.028262569
0.2147816 -0.12134792
00000000: 7f01 4bbe 3b38 29be f9c1 b43c 9416 ddbd
00000010: 5750 233e 0d9f 6ebe d9a8 80bc e786 e73c
00000020: b5ef 5b3e 4285 f8bd

actor.layer_1.weight f4 [10, 4]
-0.24077374 0.40233988 0.40127933 -0.34433162 -0.17636037 -0.36498594 -0.25870138 -0.13579142
-0.3385707 -0.14523107 -0.30071986 -0.39022708 -0.22481537 0.36364347 -0.33856577 0.40952432
0.08458394 0.0661062 -0.31639886 0.12554586 0.39272434 0.18060988 -0.35272878 -0.17651421
-0.43042606 0.30887485 -0.04409051 -0.2421462 -0.04473692 -0.046858966 -0.23620272 -0.12293023
0.43292755 -0.39618373 0.2634523 0.16769612 0.35773587 0.09645641 0.3841008 0.10466677
00000000: 648d 76be 7eff cd3e 7c74 cd3e 3c4c b0be
00000010: d097 34be 70df babe 8274 84be e80c 0bbe
00000020: 2459 adbe 74b7 14be f4f7 99be d8cb c7be
00000030: 0036 66be 7a2f ba3e 7e58 adbe 2cad d13e
00000040: 583a ad3d b062 873d 08ff a1be 188f 003e
00000050: 2a13 c93e ccf1 383e de98 b4be 24c0 34be
00000060: ce60 dcbe d824 9e3e 4098 34bd 2cf5 77be
00000070: 103e 37bd 30ef 3fbd 20df 71be d8c2 fbbd
00000080: aea8 dd3e 98d8 cabe 38e3 863e 88b8 2b3e
00000090: 2829 b73e f08a c53d dca8 c43e 885b d63d

actor.layer_out.weight f4 [1, 10]
0.0637992 -0.07347092 0.11418399 -0.18061148 0.17559546 0.124878556 0.069678485 -0.104305685
0.1903989 0.032289296
00000000: 28a9 823d ec77 96bd 4cd9 e93d 37f2 38be
00000010: 4ccf 333e 54c0 ff3d 98b3 8e3d 389e d5bd
00000020: eef7 423e c841 043d
