code/weights/model.pt (torch, 3938 bytes, 6 tensors)

critic.layer_1.weight f4 [10, 4]
000000 ea 3e f4 be b2 48 88 3d 2f d2 b8 3e 7a ba cf be
       -0.4770425 0.066544905 0.36097857 -0.40571958
000010 45 ce d5 3e c6 35 aa be 92 0c dc be 50 9d e8 be
       0.41758934 -0.3324415 -0.4297834 -0.4543252
000020 2b 84 7e be e8 48 57 3d 11 47 dc be a4 52 ee 3e
       -0.24855106 0.052559763 -0.4302297 0.46547425
000030 d8 96 5b bd 75 8e f6 be bd 14 c8 be b4 27 78 be
       -0.053610653 -0.4815556 -0.39078322 -0.24233896
000040 1a 5e 98 be 50 bd bd 3e 4e ca af bd bf 8f f1 be
       -0.29759294 0.37058496 -0.085835084 -0.47179982
000050 fe 39 de 3e f9 c0 09 3e 30 98 1e be 82 b4 a7 be
       0.4340362 0.1345252 -0.15487742 -0.32754904
000060 22 75 f4 be 15 e2 7a be 6b 78 b2 be ec cc c3 3e
       -0.47745615 -0.24500306 -0.34857497 0.3824228
000070 92 22 f8 3e 86 fe e8 3e cc 06 99 3d 8e 9d 93 be
       0.48463875 0.45506686 0.074719995 -0.28831142
000080 51 be d7 bd 56 a0 e1 3e 4e 36 ea bc ff 37 02 3f
       -0.10534347 0.4406764 -0.028590348 0.50866693
000090 f9 48 69 be 93 ad 69 3d 59 e8 b7 bd 7e 46 88 3e
       -0.22781743 0.0570503 -0.08979864 0.2661628

critic.layer_1.bias f4 [10]
000000 9c c5 83 bd 88 75 fc 3e c4 20 de 3e d5 e0 ee 3e
       -0.06434175 0.4930842 0.43384373 0.46655908
000010 e5 22 57 3d 19 29 49 3e b5 a6 ea be 06 c4 e8 be
       0.052523512 0.19644584 -0.45830312 -0.45462054
000020 24 14 b5 be 94 e6 ef 3d
       -0.3536693 0.11713901

critic.layer_out.weight f4 [1, 10]
000000 28 c8 2b be db ad 3a 3c d6 83 7b be 09 5f fa bd
       -0.16775572 0.011393989 -0.2456201 -0.12225158
000010 8b 2a 85 be c7 39 9d 3e 0c 18 3d be aa 4c ab 3e
       -0.2600902 0.30708143 -0.18466204 0.33456928
000020 71 56 54 be ee 81 3e 3b
       -0.207361 0.0029069143

actor.layer_1.weight f4 [10, 4]
000000 b8 77 4d 3e 70 bf 00 be 44 1d b6 be 04 ac 30 be
       0.200652 -0.12573028 -0.35569203 -0.17253119
000010 f8 e1 89 bd a0 7f ce 3e 9c 73 f1 3e 4c 74 59 3e
       -0.06732553 0.40331745 0.47158515 0.2123577
000020 f6 de 88 be a0 38 e2 3d 60 47 80 bc 1c cb f8 3e
       -0.26732606 0.110459566 -0.015659034 0.4859246
000030 80 9e 91 bc 08 83 f2 be 60 ff a9 3d 14 98 0b 3e
       -0.017775774 -0.47365594 0.08300662 0.13632232
000040 ec a1 09 be fa 96 8c 3e e8 04 ca be e0 06 6e 3e
       -0.13440675 0.27458936 -0.39456868 0.2324481
000050 20 25 8c be 8e ae e5 be 30 44 85 bd 50 0f dd 3d
       -0.27372074 -0.44859737 -0.06507146 0.10793936
000060 06 bc 8a be 88 9e d4 bd f8 db 96 bd 12 94 b8 be
       -0.27096575 -0.103818 -0.073661745 -0.3605047
000070 82 7d 96 3e d8 52 c2 3e ac cc ae 3e 20 93 95 be
       0.2939263 0.3795383 0.34140527 -0.2921381
000080 9c 53 20 be c8 75 43 be 00 d5 a9 bc 3e 87 83 be
       -0.15656894 -0.19087899 -0.02073145 -0.2568912
000090 e4 8b 9d 3e fc f7 82 be 54 e8 b6 be 00 64 4b 3a
       0.3077079 -0.25579822 -0.35724127 0.00077587366

actor.layer_1.bias f4 [10]
000000 90 44 0c 3d 2e 1d 9c be 34 5d a5 3e c4 39 a6 be
       0.034245074 -0.30491012 0.3229767 -0.32465947
000010 10 d5 04 be 84 0a 7e be 40 46 99 3d 00 a8 88 bc
       -0.12971902 -0.24808699 0.07484102 -0.016681671
000020 6c 69 5b 3e 3c ac 04 3e
       0.21426934 0.12956327

actor.layer_out.weight f4 [1, 10]
000000 92 bf 2c 3e eb d7 7a be bc 45 5a be 80 4b 0a 3e
       0.16869953 -0.24496429 -0.21315664 0.13505363
000010 fb 70 94 3e 58 79 09 bd ed 83 87 3e c0 b4 15 3e
       0.28992447 -0.033562988 0.2646784 0.14619732
000020 0c ab 46 be 4b a2 87 3e
       -0.19401187 0.26491007
