code/weights/model.pt (torch, 8539 bytes, 20 tensors)

network.layer_1.weight f4 [10, 4]
00000000: 01eb 6b36 766b 3e21 e6f0 33b8 3215 fe2f
00000010: 6c68 1a2b 7d6b 232d 964b 2332 e92e fd18
00000020: 566a c4b6 34d8 ea16 b31b a902 c058 d48f
00000030: e226 9d33 1873 e237 eefd 1a2e 14a7 e885
00000040: c814 8081 ec5c cf31 1a43 44ae 2164 2a32
00000050: d24a 02b6 19ab 759c a73f 2c35 3e27 64b7
00000060: f682 ffb3 bb6d 7c00 b9b2 0900 8861 28b8
00000070: f111 a920 24ba 8c81 e27d 6135 c42a 80b7
00000080: bd34 0488 2683 3589 a984 82ae 05dc 982c
00000090: b03f b09f 5a20 88b8 347b 82b8 6075 59b5
3.515452e-06 6.4516727e-19 -4.290128e-05 4.621739e-10 5.4856705e-13 9.2893445e-12 9.505035e-09 6.5446334e-24
-5.8536343e-06 3.7941182e-25 2.4848217e-37 -2.0938999e-29 7.317955e-08 2.6994894e-05 3.524108e-11 -2.187855e-35
-4.7049594e-38 6.035057e-09 -4.462484e-11 9.918069e-09 -1.941506e-06 -8.128484e-22 6.416762e-07 -1.3598996e-05
-1.18981845e-07 1.1426965e-38 8.90633e-40 -4.0145154e-05 2.8641586e-19 -5.1694977e-38 8.4002215e-07 -1.5278703e-05
-3.97843e-34 -2.1848748e-33 -5.935281e-11 4.344527e-12 -7.464426e-20 -6.491011e-05 -6.2218314e-05 -8.10096e-07

network.layer_1.bias f4 [10]
00000000: a13e e135 a3a2 e231 0e21 490e 4a6f 0680
00000010: 470d 8fb8 63dd 0e80 9819 9433 ab9c bbb2
00000020: b749 1237 5472 8702
1.6782034e-06 6.5959553e-09 2.4791078e-30 -5.90936e-40 -6.8212445e-05 -1.365116e-39 6.8964425e-08 -2.184091e-08
8.719441e-06 1.9902088e-37

network.batch_norm_1.weight f4 [10]
00000000: 67d2 733d 67d2 733d 67d2 733d 67d2 733d
00000010: 67d2 733d 67d2 733d 67d2 733d 67d2 733d
00000020: 67d2 733d 67d2 733d
0.059526827 0.059526827 0.059526827 0.059526827 0.059526827 0.059526827 0.059526827 0.059526827
0.059526827 0.059526827

network.batch_norm_1.bias f4 [10]
00000000: 0000 0000 0000 0000 0000 0000 0000 0000
00000010: 0000 0000 0000 0000 0000 0000 0000 0000
00000020: 0000 0000 0000 0000
0.0 0.0 0.0 0.0 0.0 0.0 0.0 0.0
0.0 0.0

network.batch_norm_1.running_mean f4 [10]
00000000: 0000 0000 0000 0000 0000 0000 0000 0000
00000010: 0000 0000 0000 0000 0000 0000 0000 0000
00000020: 0000 0000 0000 0000
0.0 0.0 0.0 0.0 0.0 0.0 0.0 0.0
0.0 0.0

network.batch_norm_1.running_var f4 [10]
00000000: 0000 803f 0000 803f 0000 803f 0000 803f
00000010: 0000 803f 0000 803f 0000 803f 0000 803f
00000020: 0000 803f 0000 803f
1.0 1.0 1.0 1.0 1.0 1.0 1.0 1.0
1.0 1.0

network.layer_2.weight f4 [10, 10]
00000000: 8f67 0480 6236 7b83 20b1 ec01 0985 0480
00000010: a95b 0580 2681 bb9c f061 1300 61e4 310b
00000020: 6a95 7701 810c 818f 4cd3 2cb0 d22b 0280
00000030: a011 a3a1 1e1c 198e 4c73 4e9b 1864 4da9
00000040: ea6c 0b10 3a90 06b0 6a21 4308 ef8f a208
00000050: 4e66 4e2c 40a6 0f00 efca a285 69e3 4189
00000060: a5d4 9ba6 5a9d ca87 d282 bd8a 91bb d282
00000070: a71d f096 53fe ad9c 51b7 3480 1f43 2521
00000080: 5dd7 2b85 6c50 83ac 3455 0c00 943f 0b00
00000090: 095e 372d 6f51 859c e1b9 6baf 3cf3 e1b0
000000a0: 1c96 0080 8464 412e 4408 2e91 3539 a683
000000b0: 819f 2b2e 5f3e 8281 4e1e 0280 4799 1280
000000c0: db38 5dac 0024 0600 74ea 0800 cbe0 1300
000000d0: f6d0 4130 1b11 0300 f636 8381 1a4b f930
000000e0: 9868 ae2a 5b93 30b1 0e3c cb9e c6b1 5e88
000000f0: bfc3 0a80 5eee 1404 4007 e7a7 2cd2 0b00
00000100: dbca e8af 76d2 4b83 7ea6 0280 88aa ba06
00000110: d2e8 a783 b46e 398f 7655 52b0 8ff9 e285
00000120: 7c36 0380 584b 0200 a558 c912 bbd0 dd95
00000130: d8de 0402 8a18 a503 aede 062c 25be ea25
00000140: edb6 1421 1aa0 2cb1 1eb8 9f86 6ef3 0080
00000150: 5127 a604 7c30 1c00 2bf4 87a9 4583 4f8d
00000160: 2849 5906 f091 03af 1013 8126 6798 1000
00000170: c069 0e80 4a9f 4eb1 0e35 808f 3c39 5382
00000180: e646 729f 6917 0480 41cc 5a88 ac89 0980
-4.04492e-40 -7.38247e-37 8.694687e-38 -4.15066e-40 -4.92059e-40 -1.2408006e-21 1.780008e-39 3.4260773e-32
4.5473934e-38 -1.2725198e-29 -6.2873506e-10 -1.99391e-40 -1.1049975e-18 -1.8872244e-30 -1.7077175e-22 -4.560596e-14
2.749682e-29 -4.8953874e-10 5.8719956e-34 9.783859e-34 2.9331151e-12 1.437172e-39 -1.5308953e-35 -2.3338458e-33
-1.0812923e-15 -3.0486065e-34 -1.8249247e-32 -3.0964385e-37 -3.8792804e-25 -1.1513921e-21 -4.841207e-39 5.599301e-19
-8.079937e-36 -3.7321726e-12 1.132591e-39 1.032998e-39 1.0423226e-11 -8.822252e-22 -2.1439163e-10 -1.6440036e-09
-5.3849e-41 4.3972395e-11 -1.3728727e-28 -9.769737e-37 3.9022566e-11 -4.7843956e-38 -1.94542e-40 -1.708024e-39
-3.143755e-12 5.63927e-40 8.1879e-40 1.825515e-39 7.050994e-10 2.81643e-40 -4.8200665e-38 1.813848e-09
3.0981185e-13 -2.5695133e-09 -2.1518299e-20 -6.7014667e-34 -9.88575e-40 1.750677e-36 -6.412324e-15 1.085586e-39
-4.2344692e-10 -5.9897936e-37 -2.43397e-40 7.0215997e-35 -9.868831e-37 -9.142525e-30 -7.6519e-10 -2.1344611e-35
-2.95052e-40 2.10699e-40 1.2706736e-27 -8.959051e-26 9.761781e-38 9.703462e-37 1.9166157e-12 4.0721376e-16
5.038645e-19 -2.5120301e-09 -6.007969e-35 -8.7326e-41 3.906252e-36 2.588787e-39 -6.037561e-14 -6.394481e-31
4.086691e-35 -1.1966228e-10 8.95634e-16 1.52404e-39 -1.323633e-39 -3.006749e-09 -1.264221e-29 -1.5518257e-37
-5.130414e-20 -3.7574e-40 -6.584209e-34 -8.75907e-40

network.layer_2.bias f4 [10]
00000000: 3815 3580 afd0 2e27 f5ce 0600 6495 a82a
00000010: 6f1d 33ae c92f 2c21 1821 a190 7f82 20a9
00000020: 6a8b d9ac ec0b 05b0
-4.874893e-39 2.4260478e-15 6.25255e-40 2.9946455e-13 -4.072603e-11 5.833911e-19 -6.355429e-29 -3.5640324e-14
-6.182989e-12 -4.840206e-10

network.batch_norm_2.weight f4 [10]
00000000: 67d2 733d 67d2 733d 67d2 733d 67d2 733d
00000010: 67d2 733d 67d2 733d 67d2 733d 67d2 733d
00000020: 67d2 733d 67d2 733d
0.059526827 0.059526827 0.059526827 0.059526827 0.059526827 0.059526827 0.059526827 0.059526827
0.059526827 0.059526827

network.batch_norm_2.bias f4 [10]
00000000: 0000 0000 0000 0000 0000 0000 0000 0000
00000010: 0000 0000 0000 0000 0000 0000 0000 0000
00000020: 0000 0000 0000 0000
0.0 0.0 0.0 0.0 0.0 0.0 0.0 0.0
0.0 0.0

network.batch_norm_2.running_mean f4 [10]
00000000: 0000 0000 0000 0000 0000 0000 0000 0000
00000010: 0000 0000 0000 0000 0000 0000 0000 0000
00000020: 0000 0000 0000 0000
0.0 0.0 0.0 0.0 0.0 0.0 0.0 0.0
0.0 0.0

network.batch_norm_2.running_var f4 [10]
00000000: 0000 803f 0000 803f 0000 803f 0000 803f
00000010: 0000 803f 0000 803f 0000 803f 0000 803f
00000020: 0000 803f 0000 803f
1.0 1.0 1.0 1.0 1.0 1.0 1.0 1.0
1.0 1.0

network.layer_3.weight f4 [10, 10]
00000000: 553a 2808 68f5 edab e182 e52a 363d 1b00
00000010: b13b 47ad 4a8e 8a21 dea5 fd08 c543 31a0
00000020: 5065 9f81 dfc1 0a80 0d24 78ac c8bb 3a00
00000030: 59b0 0dac de21 b305 f7d2 8502 8488 9384
00000040: 9422 3980 863c 7904 5b72 87ae af21 b5ae
00000050: 9a58 dd02 f76f eb80 10d6 0700 5c67 2985
00000060: 1c4c 3803 b927 fd08 5bba 1a81 a88a 0000
00000070: 1424 b420 187d 2900 e468 ff1d e04e 0600
00000080: a8c1 aea7 e99c 359b 1cea f01c d2ba 26af
00000090: 35e3 1280 c0da f602 48f0 2f0b 72c6 6f13
000000a0: 37a6 2026 4a21 0f86 1e21 1c0b aa7e 190a
000000b0: 5fbf 24a6 6cd0 0080 17fe 3180 7212 1195
000000c0: cdc5 3a80 8338 3500 dac7 692d b65b 2195
000000d0: 6b00 b29a bcaa 7722 a9be 10a9 0740 dd08
000000e0: ffa2 0180 e57c 1680 0ae9 fb08 4700 e82c
000000f0: 0b01 0880 db68 5401 4f8d 0680 7417 2901
00000100: de01 f001 503b 0980 dbf8 820a 5b45 400e
00000110: 85bd f02b 9f6a 2600 a0fc 9596 df3d 442f
00000120: 1ef9 2200 1f72 8d2f 15ab 2708 abee 1080
00000130: dea6 361b e44f 0c81 cab5 5b9a 8cf1 0300
00000140: 53d0 0680 3397 0180 68da 0200 a07b aa83
00000150: 0c87 b2a3 627d 458d 3555 3a98 0aab 021e
00000160: c498 e409 7949 7e8a 4aff 0b8b 570c d827
00000170: 31e1 0880 7096 0da4 d4ec fe9f 69c5 2a2e
00000180: f93d 0000 69ba 4e80 db35 43a6 51aa 0485
5.062423e-34 -1.6907977e-12 4.0769387e-13 2.501517e-39 -1.13250945e-11 9.388907e-19 1.5265879e-33 -1.5014906e-19
-5.855275e-38 -9.87903e-40 -3.5262932e-12 5.393822e-39 -2.0135198e-12 1.684552e-35 1.9663681e-37 -3.4684904e-36
-5.247028e-39 2.92976e-36 -6.159403e-11 -8.2369105e-11 3.2523886e-37 -2.1621507e-38 7.1964e-40 -7.965326e-36
5.416011e-37 1.5236222e-33 -2.8419036e-38 4.974e-41 3.051706e-19 3.81013e-39 6.7606392e-21 5.79308e-40
-4.8504664e-15 -1.502267e-22 1.5942384e-21 -1.5163984e-10 -1.734545e-39 3.6272008e-37 3.3884542e-32 3.0263882e-27
5.5736414e-16 -2.6919768e-35 3.0069422e-32 7.390505e-33 -5.7158286e-16 -7.4768e-41 -4.59109e-39 -2.9297068e-26
-5.397416e-39 4.887554e-39 1.32888926e-11 -3.2586038e-26 -7.361975e-23 3.3565128e-18 -3.2139794e-14 1.3316006e-33
-1.50307e-40 -2.065185e-39 1.51613e-33 6.5938674e-12 -7.35058e-40 3.901348e-38 -6.01705e-40 3.1057224e-38
8.8164756e-38 -8.47797e-40 1.2612154e-32 2.369922e-30 1.7105628e-12 3.527997e-39 -2.4231677e-25 1.7848077e-10
3.211773e-39 2.5728839e-10 5.045584e-34 -1.554986e-39 1.5108605e-22 -2.5771258e-38 -4.5434987e-23 3.62157e-40
-6.25746e-40 -1.46076e-40 2.6202e-40 -1.0020085e-36 -1.9355993e-17 -6.0856236e-31 -2.4082955e-24 6.917513e-21
5.5032664e-33 -1.2243474e-32 -2.6962484e-32 5.9965422e-15 -8.15467e-40 -3.0701927e-17 -1.07964984e-19 3.882886e-11
2.2232e-41 -7.23004e-39 -6.7727203e-16 -6.237892e-36

network.layer_3.bias f4 [10]
00000000: 06b0 e22d 1605 aa1c b462 8096 4f83 a618
00000010: 819c 1880 b6f1 9a07 db83 101e ee5d 73ac
00000020: cbc3 532e 3b89 f796
2.5771395e-11 1.1250971e-21 -2.0741806e-25 4.3042582e-24 -2.260195e-39 2.331341e-34 7.650564e-21 -3.4584518e-12
4.8149745e-11 -3.9991607e-25

network.batch_norm_3.weight f4 [10]
00000000: 67d2 733d 67d2 733d 67d2 733d 67d2 733d
00000010: 67d2 733d 67d2 733d 67d2 733d 67d2 733d
00000020: 67d2 733d 67d2 733d
0.059526827 0.059526827 0.059526827 0.059526827 0.059526827 0.059526827 0.059526827 0.059526827
0.059526827 0.059526827

network.batch_norm_3.bias f4 [10]
00000000: 0000 0000 0000 0000 0000 0000 0000 0000
00000010: 0000 0000 0000 0000 0000 0000 0000 0000
00000020: 0000 0000 0000 0000
0.0 0.0 0.0 0.0 0.0 0.0 0.0 0.0
0.0 0.0

network.batch_norm_3.running_mean f4 [10]
00000000: 0000 0000 0000 0000 0000 0000 0000 0000
00000010: 0000 0000 0000 0000 0000 0000 0000 0000
00000020: 0000 0000 0000 0000
0.0 0.0 0.0 0.0 0.0 0.0 0.0 0.0
0.0 0.0

network.batch_norm_3.running_var f4 [10]
00000000: 0000 803f 0000 803f 0000 803f 0000 803f
00000010: 0000 803f 0000 803f 0000 803f 0000 803f
00000020: 0000 803f 0000 803f
1.0 1.0 1.0 1.0 1.0 1.0 1.0 1.0
1.0 1.0

network.layer_4.weight f4 [3, 10]
00000000: b3d4 4523 4c89 0c80 70aa a79d bcf1 44b0
00000010: 21bd cc8e 318c b38d 9dba 60b1 f241 0e15
00000020: 9417 9987 6f14 d101 c1e5 270e d136 1511
00000030: 4ad3 0b15 95dd 0380 0025 1711 9998 672c
00000040: 98c6 b416 8c23 0380 312c 0100 f5ae 2319
00000050: 85f5 4b2b 5c31 d7b0 bd8d 9a85 1f65 1d88
00000060: 3d19 12aa 3b33 1180 e929 b41c 6d86 7481
00000070: 6c3b 3d83 fd90 7e9d
1.0724432e-17 -1.151279e-39 -4.438076e-21 -7.164791e-10 -5.0472007e-30 -1.1065477e-30 -3.2702367e-09 2.8728693e-26
-2.303474e-34 7.6803796e-38 2.0694962e-30 1.1770919e-28 2.8237504e-26 -3.54995e-40 1.1923201e-28 3.2911783e-12
2.9205899e-25 -2.88258e-40 1.07688e-40 8.462235e-24 7.2460814e-13 -1.5657338e-09 -1.4534157e-35 -4.7364336e-34
-1.2976161e-13 -1.579581e-39 1.1922234e-21 -4.4912168e-38 -5.561032e-37 -3.3691577e-21

network.layer_4.bias f4 [3]
00000000: d74c 5d00 1325 3a8c 9ef1 0a00
8.568266e-39 -1.4340075e-31 1.005031e-39
