code/weights/model.pt (torch, 15330 bytes, 6 tensors)

critic.layer_1.weight f4 [248, 4]
000000 48 57 82 be 5c 1b 87 3e d8 0d ed bd 18 77 cf be
       -0.25457215 0.2638806 -0.11574906 -0.4052055
000010 44 4a ad be e8 96 bf 3e ac 15 f0 be 34 fa b6 3e
       -0.33845723 0.3741982 -0.46891534 0.35737765
000020 98 20 f2 3e 28 16 e6 bd 1c 7c f8 3e 88 5b f1 be
       0.47290492 -0.11234695 0.48532188 -0.47140145
000030 f8 b0 0d 3e dc 07 ad 3e c0 4c 72 bc 94 45 b9 3e
       0.1383704 0.3379506 -0.014788806 0.36185896
000040 08 4d 0f be 08 10 5d 3e 30 d7 57 bd 9c ec 9a 3e
       -0.13994229 0.21588147 -0.052695453 0.30258644
000050 f2 88 8c be 26 a6 ed 3e c0 87 4d 3e 9e 40 d4 3e
       -0.2744823 0.46415824 0.20071316 0.4145555
000060 94 d8 11 be 18 c9 09 3e 28 84 d2 be 8c 5d df be
       -0.14242774 0.13455617 -0.41116452 -0.43626058
000070 5c 54 e5 3e c0 93 16 bd 0a d8 c8 3e 5c 63 79 3e
       0.44790924 -0.036762 0.39227325 0.24354309
000080 d2 75 cd be 70 07 34 bd 58 cc cf be 98 ab 5a 3e
       -0.40128952 -0.043952405 -0.4058559 0.2135452
000090 28 ac 65 be 1c 75 a3 be 84 b5 a0 3e c0 9d bd bd
       -0.22428954 -0.31925285 0.31388485 -0.09258604
0000a0 80 ea 35 bd fc 56 f5 be 5e d7 f6 be 18 1d f0 3e
       -0.04441309 -0.47917926 -0.48211187 0.46897197
0000b0 e8 f4 b7 be c0 a5 6f 3c 68 12 42 be 40 2a ba bd
       -0.35929036 0.01462692 -0.18952334 -0.0909009
0000c0 da 7b b5 be 8c 73 b0 be a2 93 d1 3e 3c d9 9a 3e
       -0.35446054 -0.34463155 0.40932947 0.30243862
0000d0 d8 0d 68 be 70 1f b6 be 7a ca e2 be 5a ef a8 3e
       -0.22661531 -0.3557086 -0.44295102 0.3299511
0000e0 28 e2 d1 3e 58 cb 31 3e bc f8 53 3e 00 b8 19 3a
       0.40992856 0.17362726 0.20700353 0.0005863905
0000f0 9c 39 54 be c4 0d 88 be c8 a0 96 bd 00 98 c6 b9
       -0.20725101 -0.26573002 -0.07354885 -0.00037878752
000100 e4 39 88 3e e0 93 88 3d 28 af 99 3d 00 e3 a5 bc
       0.26606667 0.0666883 0.075041115 -0.020249844
000110 dc 46 dc 3e b0 01 34 3d 08 f3 e7 bd 78 13 e1 3d
       0.4302281 0.04394692 -0.113256514 0.109900415
000120 58 b0 8d 3d b8 69 3f be 48 04 47 3e 48 b1 8d 3d
       0.069184005 -0.18692672 0.19435227 0.06918579
000130 6a 99 92 3e a0 b5 b8 bc 88 10 d5 be 4c 4d df be
       0.2863267 -0.022547543 -0.41614175 -0.4361366
000140 28 ef 27 3e 60 f8 d4 be 74 68 9e 3e a0 ea 3a be
       0.16399825 -0.41595745 0.30939066 -0.18253565
000150 46 26 f9 be 02 fb e0 be 34 d4 89 3e 20 90 a8 3e
       -0.48662013 -0.43941504 0.2691971 0.3292246
000160 40 16 07 3c cc e2 07 3e 00 76 48 3c 40 7d 7d 3d
       0.008245051 0.1327011 0.012235165 0.061887026
000170 dc 1d 07 3e c8 e5 6c be 28 31 30 3e f8 7e 6b be
       0.13194984 -0.2313453 0.17206252 -0.22997653
000180 68 84 d9 bd 28 68 a1 3d e8 5c f6 3d 48 b2 46 3e
       -0.106209576 0.07881194 0.12029439 0.19403946
000190 3e 79 f2 3e 38 7a f7 be 0e 4e d3 be f8 bb fa be
       0.47358125 -0.48335433 -0.41270489 -0.48971534
0001a0 a4 7e 3e 3e f0 b9 2a be 22 0a b5 3e 18 bc 33 be
       0.18602997 -0.16672492 0.35359293 -0.17552221
0001b0 84 d5 87 3e 18 40 1d 3e 6e 91 d3 be 9e 42 bb be
       0.26530087 0.15356481 -0.41321892 -0.36574262
0001c0 1e 14 b8 be 70 27 d9 be 74 ff 7a 3e c0 45 1b bd
       -0.35952848 -0.424129 0.2451151 -0.037908316
0001d0 fe 67 84 be ae 70 e0 3e c0 b6 26 bd 50 ab ed 3d
       -0.2586059 0.43835968 -0.040701628 0.11604941
0001e0 00 eb fa be 36 b6 b1 3e 00 15 0f bd 30 37 98 be
       -0.49007416 0.34709328 -0.034932137 -0.29729605
0001f0 10 99 b8 be 18 d6 01 be 4a 2e ee 3e a4 be 72 be
       -0.36054277 -0.12679327 0.4651969 -0.23705536
000200 ec bc 0a be c8 01 a5 3d c8 76 ad be bc cd 19 be
       -0.1354863 0.0805698 -0.33879685 -0.15019888
000210 00 b4 6e 3c ee 11 a5 be 30 bf 6a 3d 10 fa 1f 3e
       0.0145692825 -0.32240242 0.057311237 0.15622735
000220 b8 77 5d 3e 90 a2 44 bd 64 34 77 be dc b0 43 3e
       0.216277 -0.048006594 -0.24141079 0.19110435
000230 c4 c9 2e be 7c f5 bd 3e 92 1d b2 be 62 45 a1 3e
       -0.17069155 0.37101352 -0.34788185 0.31498247
000240 c8 38 eb be 80 6a 78 3d 00 28 31 3b a0 67 67 bd
       -0.45941758 0.06064844 0.0027031898 -0.05649531
000250 3a 82 a0 be 28 be 69 3e ac bc 06 3e 40 da 69 3c
       -0.31349355 0.22826445 0.1315791 0.014273226
000260 b8 6a b4 3d 50 25 ce bd 24 a9 8a 3e cc 39 95 be
       0.088094175 -0.100657105 0.2708217 -0.29145658
000270 54 18 fb be d4 44 97 be 80 25 e4 3b 50 90 42 be
       -0.49041998 -0.295447 0.006962478 -0.19000363
000280 26 37 eb 3e 10 8c 28 bd 70 d9 8e 3d bc 3b ea be
       0.45940512 -0.0411492 0.06975067 -0.457487
000290 34 b6 c4 be 70 a8 de 3e aa 8e 91 3e 62 3a b7 be
       -0.3842026 0.43487883 0.28429157 -0.3578673
0002a0 3e 49 fc 3e f0 40 c1 be fc bf 2b 3e dc ab 52 be
       0.4927463 -0.37744856 0.16772455 -0.20573372
0002b0 ae 66 a1 be a6 be cc be 3e 82 fd be 50 22 24 bd
       -0.3152365 -0.39989203 -0.4951343 -0.040071785
0002c0 e4 e9 32 3e 02 94 c6 be a8 56 d2 bd 38 a5 9a be
       0.17472035 -0.38784796 -0.102704346 -0.30204177
0002d0 44 ea b2 be 94 ed 7f be f0 65 5d 3d 3c 39 32 be
       -0.34944355 -0.24992973 0.054052293 -0.17404646
0002e0 44 a1 b6 be ec 84 c0 be 8c 51 d5 be 58 2b f2 be
       -0.3566991 -0.3760141 -0.41663778 -0.47298694
0002f0 da 88 81 3e 78 f3 7a be 78 17 3f 3e d0 39 bd 3e
       0.25299722 -0.24506938 0.18661296 0.3695817
000300 12 8b a3 3e 00 91 9c 3c f4 82 16 be c2 5b a2 3e
       0.3194204 0.01911211 -0.14698392 0.3171063
000310 ec a8 b0 be 3e a5 c0 be f0 f6 67 3d 4a d8 a4 3e
       -0.34503877 -0.3762607 0.056631982 0.32196265
000320 5c 65 93 3e b0 7b fa 3e c8 5c 47 3e ac f7 c4 be
       0.2878827 0.4892249 0.19468987 -0.3847021
000330 d0 ef ee be d0 da d9 be 90 91 6f bd 94 07 9d be
       -0.46667337 -0.42549753 -0.05848843 -0.30669844
000340 aa d8 8c 3e 7c 9d c6 3e f0 5e 53 bd e0 8d 29 bd
       0.27509052 0.38792026 -0.05160421 -0.04139507
000350 88 02 6a be f8 13 10 3e 58 66 08 3e 06 9f d2 be
       -0.22852528 0.14070117 0.13320291 -0.4113695
000360 30 20 18 bd 64 4a 94 be 50 0a 12 be 36 2d bf 3e
       -0.03714007 -0.28963006 -0.14261746 0.3733918
000370 b6 83 a9 be a8 56 91 bd c4 9e 4d 3e c0 20 45 3c
       -0.331083 -0.070966065 0.20080096 0.012031734
000380 1e bf fc be 68 0a a1 be 60 8d 7f 3e 94 7a 4d 3e
       -0.4936456 -0.31453252 0.24956274 0.20066291
000390 76 9a c1 3e 74 08 f9 be f0 2b c2 bd 5e ff 9e 3e
       0.37813157 -0.48639262 -0.09481037 0.31054205
0003a0 10 7a 98 bd e8 fc c1 bd 2a 6a 9b 3e b8 ca c3 3e
       -0.074451566 -0.09472066 0.30354434 0.382406
0003b0 9e 72 fe be b8 86 ed 3e 1c 9b 11 be 48 a8 2b be
       -0.4969682 0.46391845 -0.14219326 -0.16763413
0003c0 00 9f eb be d8 1d 17 3e 48 f4 d2 be 88 60 05 be
       -0.46019745 0.14757478 -0.41201997 -0.13025105
0003d0 f0 25 b9 3e f6 1d f1 be 10 30 35 be 3e 60 8c be
       0.36161757 -0.4709317 -0.17694116 -0.27417177
0003e0 9a 27 ac be 80 9a 52 be e8 59 cc be 80 3f 0a bc
       -0.33623964 -0.2056675 -0.39912343 -0.008437991
0003f0 f0 85 b9 bd f8 e8 41 be 88 d3 1f be 70 1b 35 3d
       -0.0905875 -0.18936527 -0.15608037 0.04421562

critic.layer_1.bias f4 [248]
000000 c8 38 93 be 68 a3 78 be 7a 0b e4 3e 34 1c 06 be
       -0.28754258 -0.24281085 0.44540006 -0.13096696
000010 08 42 a7 3e bc 85 0e 3e bc 21 6a be a4 df 83 be
       0.32667565 0.13918203 -0.22864431 -0.25756562
000020 88 e7 18 3e 38 a1 f9 3e 5c ab 9f 3e 0e 48 cd 3e
       0.14932072 0.48755813 0.31185424 0.40094036
000030 ac c4 9b be a8 c5 d1 3d 1e 8c f8 3e ec c4 b1 3e
       -0.30423486 0.10242778 0.485444 0.34720552
000040 80 e7 6c 3e 18 6f a7 be da cd 87 3e 44 fe 5e 3e
       0.23135185 -0.32701945 0.2652424 0.21776682
000050 00 21 4b bc 48 84 8e 3e 60 42 85 3e b2 d6 af 3e
       -0.0123980045 0.27835298 0.26027203 0.34343487
000060 60 da ae bc 7c 9f 27 3e a6 36 f5 be be e2 f6 3e
       -0.021344364 0.16369432 -0.47893256 0.48219866
000070 50 27 81 3e b0 86 0b be 1a a7 92 3e f8 b6 b6 be
       0.25225306 -0.13625598 0.28643113 -0.3568647
000080 80 d7 10 bc 64 c3 2e 3e ce fc 8a be 32 e4 d8 be
       -0.008840442 0.17066723 -0.27146 -0.423616
000090 74 58 48 3e 78 55 41 be 00 0b 1f bc 7c 19 d1 be
       0.19564992 -0.1888026 -0.009707212 -0.40839756
0000a0 7c 21 ef be 58 4f 91 bd 00 89 8a bb b4 a2 ad be
       -0.46705234 -0.07095212 -0.0042277575 -0.33913195
0000b0 a0 bf b8 3c 62 52 98 be c0 0c a5 bd 90 5c 45 be
       0.022552311 -0.29750353 -0.080590725 -0.19273591
0000c0 ce b9 c0 3e aa cb c9 be 4e dc de 3e 9c ce 3f 3e
       0.37641758 -0.39413196 0.43527454 0.18731159
0000d0 18 81 fc bd b4 4c 27 3e 18 6d 8a bd 9a aa c9 be
       -0.1232931 0.16337854 -0.06759089 -0.3938797
0000e0 d8 03 88 3d 68 29 85 3e 62 e8 e9 be fe f3 9d be
       0.06641358 0.26008153 -0.45685107 -0.30850214
0000f0 6a b1 a1 be 6c 60 30 3e 48 a9 81 be 84 56 31 be
       -0.3158067 0.17224282 -0.25324464 -0.1731816
000100 28 46 ff be ca 8b c9 3e b8 29 c4 bd a0 67 9d 3e
       -0.49858212 0.39364463 -0.0957827 0.30743122
000110 66 cc a9 be 8e 9e 81 3e c8 18 f1 be 50 97 7a 3e
       -0.33163756 0.2531628 -0.4708922 0.24471784
000120 e2 a0 c2 3e a6 e6 e4 be c6 82 e1 3e b2 db a4 be
       0.3801337 -0.4470722 0.44045085 -0.32198864
000130 5a 10 9d 3e 6e b9 b3 3e 9e 49 9b be b0 f4 b1 be
       0.30676538 0.3510241 -0.30329603 -0.34756994
000140 84 78 07 be 80 bd 3a 3c c0 1b f7 be c4 4c 68 3e
       -0.13229567 0.011397719 -0.4826336 0.22685534
000150 18 41 be bd 60 e2 cf 3e 70 67 1c be 00 8b ad 3e
       -0.092897594 0.40602398 -0.15273833 0.3389511
000160 34 a4 ea be 30 7e 58 bd e6 c9 e4 3e 9c bf 82 3e
       -0.45828402 -0.052854717 0.44685286 0.2553681
000170 68 1f cf 3e 10 a5 73 3e 94 5a e7 3e 20 8f 50 bd
       0.4045365 0.23793435 0.45186293 -0.050917745
000180 54 1b 2d 3e 38 63 09 3e d0 b0 6d 3d 84 d5 aa be
       0.16904956 0.13416755 0.05802995 -0.33366024
000190 56 e1 fb 3e c0 35 6a bc 54 c6 fb be 2c 7b 5e be
       0.49195355 -0.014295042 -0.4917475 -0.21726674
0001a0 40 d6 2a bc 80 f4 57 bd 88 d1 da 3e 00 e6 3c bd
       -0.010427058 -0.052723408 0.42737985 -0.046117783
0001b0 88 9d 09 3e 9c 6d 57 be a4 12 3c be 70 f4 50 be
       0.13439 -0.21037906 -0.18366486 -0.20405746
0001c0 08 d8 c5 be e0 0f 86 3c 40 21 9a 3d 34 d1 13 3e
       -0.3864138 0.016364992 0.07525873 0.14435273
0001d0 18 9b a4 3e 04 e7 a8 3e a0 fe 7a 3d 00 e7 ed 3b
       0.32149577 0.3298875 0.061277986 0.0072602034
0001e0 60 ef dd bd 04 3c 1b 3e 16 46 9d 3e 54 fd 01 3e
       -0.10836673 0.15159613 0.30717534 0.12694293
0001f0 a2 e4 c9 3e d4 1a 26 be c0 95 8e 3c c0 36 99 bc
       0.39432245 -0.16221172 0.01740539 -0.018702865
000200 00 c3 53 bb 14 15 ef 3e b2 f5 83 3e aa 6f fc 3e
       -0.0032312274 0.4669577 0.25773388 0.49303943
000210 7c e8 39 3e b4 b5 1d 3e 0e f7 f6 be 7e 74 c8 3e
       0.18155092 0.15401345 -0.48235363 0.39151376
000220 50 27 90 3d 9c 90 8d 3e 64 a7 6a be 74 c8 ff be
       0.07038748 0.2764939 -0.22915417 -0.4995762
000230 58 57 9c 3d 30 f7 0a 3d f8 c3 dd bd 14 44 76 be
       0.07633847 0.033927143 -0.10828394 -0.24049407
000240 b0 95 97 3e 10 bc 06 3e 90 7a 5b bd f8 70 05 3e
       0.2960639 0.13157678 -0.05358368 0.13031375
000250 aa 2d bc 3e 40 13 f9 bd 4e bd dd be 90 c0 1a be
       0.3675359 -0.12161875 -0.4330849 -0.1511252
000260 c0 a4 d7 3d d8 3d 0f be 00 c4 b3 3d c0 fd 92 bc
       0.105294704 -0.13988435 0.087776184 -0.017943263
000270 08 ad 88 bd 88 49 70 3e a8 8a 2b 3e e8 e1 b1 3d
       -0.06673628 0.2346555 0.16752112 0.08685666
000280 44 00 f3 be 84 bc 87 be 68 ca 48 be f4 4f 56 3e
       -0.4746114 -0.26511014 -0.19608462 0.20928937
000290 8c ae 20 be 0c 28 30 3e 74 a4 49 be d0 11 1c 3e
       -0.15691584 0.17202777 -0.1969164 0.1524117
0002a0 e4 ad 72 be f4 04 46 be 90 6f f2 3e dc ba 92 be
       -0.23699147 -0.19337827 0.4735074 -0.28658187
0002b0 9c 3f ec be 70 7a bc 3d 50 e5 ee be c8 db bc bd
       -0.4614228 0.092030406 -0.46659327 -0.092216074
0002c0 18 64 4d 3e 7e f1 85 3e e0 a4 54 3e a0 8a f2 3e
       0.20057714 0.26160806 0.2076602 0.47371387
0002d0 20 75 31 3e cc 3a 55 be 00 ad 9e 3c 00 bd ef 3b
       0.17329836 -0.2082321 0.019369602 0.0073162317
0002e0 dc 0c d6 be 74 fe 3b 3e 38 1c b7 bd d8 ed 7e 3e
       -0.41806686 0.18358785 -0.08940929 0.24895418
0002f0 d0 c5 b7 be 92 c1 96 3e d4 0c 58 be e4 31 1c 3e
       -0.35893106 0.29444557 -0.21098644 0.15253407
000300 7a 66 c2 3e 18 e0 d8 bd 00 e5 e5 3e 4a 88 a3 be
       0.37968808 -0.105896175 0.44901276 -0.31939918
000310 b0 c3 3a 3d ce 2e c2 3e 40 7a e7 bd 10 f0 93 3e
       0.04559678 0.37926334 -0.11302614 0.2889409
000320 38 95 b4 3d 20 38 aa 3e b8 d4 ed be e0 9b b5 bc
       0.08817524 0.33245945 -0.46451354 -0.022169054
000330 3c 15 ae be 36 96 e4 be 20 c1 f0 be 00 ec 9b 3a
       -0.34000576 -0.44645852 -0.47022343 0.0011895895
000340 28 a4 d4 3d 72 98 80 3e 48 28 0a 3e a8 3d 5c 3e
       0.10382873 0.25116307 0.13491929 0.21507895
000350 c8 d9 45 be b0 6e 6c bd 8a 51 92 be e0 ee 3b 3e
       -0.19321358 -0.057722747 -0.28577834 0.18352842
000360 24 b9 24 3e 10 20 79 3d 18 43 fe be a0 ef 4f be
       0.1608625 0.060821593 -0.49660563 -0.20306253
000370 f4 c8 cf be 38 33 ac 3e 80 c1 a0 3d 38 61 fd bd
       -0.40583003 0.33632827 0.07849407 -0.12372059
000380 64 05 0a be b2 1e b4 3e 20 a7 6d bd be d7 ca be
       -0.13478619 0.3517967 -0.05802071 -0.39617723
000390 0e 22 a5 3e fc 85 3a be 16 83 c5 be b8 02 d6 3e
       0.32252544 -0.18215173 -0.38576573 0.4179895
0003a0 c0 4b 8e 3c 8a 83 a8 be 80 6e c8 3c 64 db ec be
       0.017370105 -0.32912856 0.024466753 -0.46261132
0003b0 30 c7 de 3e 20 93 fc bc a6 74 84 3e e0 0b 74 bd
       0.43511343 -0.030831873 0.25870246 -0.059581637
0003c0 2e 08 e4 3e 70 38 93 3d c0 9a 42 be 88 4a d3 be
       0.4453749 0.07188499 -0.19004345 -0.412678
0003d0 60 2e 3d be 8a a7 cf be f8 cf 88 be 40 08 a7 be
       -0.18474722 -0.4055751 -0.26721168 -0.32623482

critic.layer_out.weight f4 [1, 248]
000000 46 ea 65 3d 26 b8 2d 3d 3a 0d 5a 3d 16 2d ba bc
       0.056131624 0.042411946 0.05323527 -0.022726577
000010 7b 5c 63 bd ec 22 d2 bc ed c2 28 bd 7e 30 d0 bc
       -0.055508118 -0.025651418 -0.04120152 -0.025413748
000020 ce 58 dd bc 2f 40 30 bd a0 be 42 3b c0 78 bb 3a
       -0.027019884 -0.04302996 0.0029715672 0.0014302954
000030 e4 1d 12 bc 54 e4 6c bd 5c 66 09 bd 32 5b 4e bd
       -0.008918259 -0.05783494 -0.033544883 -0.05037994
000040 34 ea d3 3c a8 5e 6f 3d 0c 18 1f bc 22 10 23 3d
       0.025868513 0.05843988 -0.009710323 0.039810307
000050 4b ae 7e bd b4 34 79 bc d8 d2 5b 3d 70 b3 d5 3c
       -0.062177937 -0.015210319 0.053667873 0.026086539
000060 60 57 68 bb f8 8e 21 3c 9e 17 64 3d e0 b1 d3 bb
       -0.003545247 0.009860747 0.055686586 -0.0064604133
000070 90 a6 86 bb 56 f3 57 3d 04 6f 56 bc 4a 04 1f 3d
       -0.0041092113 0.052722298 -0.013087992 0.03882245
000080 84 fe e9 bc e8 c6 6a 3c 00 7c cb 3c ae ce 21 bd
       -0.028563745 0.0143296495 0.024839401 -0.039503746
000090 50 d7 e3 3b 80 63 c3 bb 84 b7 6f bd c6 d4 2c 3d
       0.0069531575 -0.005962789 -0.058524624 0.042195104
0000a0 a2 de e1 bc 6e ae 16 bd e0 cc 2b bd b2 3d 62 3d
       -0.02757198 -0.036787443 -0.04194343 0.05523462
0000b0 f4 fc 37 3d 78 54 55 3c 50 bf 0b bb d0 3d 66 bd
       0.04491897 0.013020627 -0.0021323748 -0.056211293
0000c0 6a 9d 08 3d b7 47 2e bd 70 c4 4c bb c8 85 41 3d
       0.033353247 -0.04254886 -0.0031245016 0.047246724
0000d0 9a 84 5e 3d b8 c9 f0 3c 2c b2 f0 bc 70 d4 4e bd
       0.054325677 0.029393062 -0.029381834 -0.050495565
0000e0 2c 60 83 bc 20 7b 07 3c a4 bd 09 bc e4 e2 38 bd
       -0.01603707 0.008269101 -0.00840703 -0.045138255
0000f0 06 99 66 3d 0c 07 e0 bc b4 e0 7e 3d fc af 7f bd
       0.05629828 -0.02734711 0.062226012 -0.06242369
000100 ce 59 3d bd 9e eb 70 bd e0 66 b5 3b 90 32 d7 3c
       -0.046228223 -0.058818452 0.0055359453 0.026269227
000110 d2 54 fe bc 00 c2 83 3c 56 f1 37 bd 80 29 8f 3a
       -0.031046305 0.016083717 -0.04490789 0.0010922402
000120 b4 7c 15 3d e4 29 76 3d 7c 8a 4f 3d 94 c3 03 bc
       0.03649588 0.060098544 0.05066918 -0.008042235
000130 20 35 2a 3c 70 fc bd 3b 24 08 75 3d ac 5f 6e bd
       0.010388643 0.005797915 0.059822217 -0.05819671
000140 c0 a1 c5 3a a8 2a c7 bc 4c 1d a9 3c 3e d9 6f bd
       0.0015078112 -0.024312332 0.020643853 -0.058556788
000150 78 47 30 3c ae 3d 3a 3d c2 bf 12 bd 2e a2 47 3d
       0.010759227 0.04546898 -0.035827406 0.04873865
000160 42 d3 5c 3d bc 1d b8 3c b0 fd 05 bb 14 d5 3e 3d
       0.05391241 0.022475116 -0.00204454 0.046589926
000170 70 ca 6b 3c 4f 67 43 bd 4c c6 8e 3c 58 84 17 bc
       0.014391527 -0.047705945 0.01742854 -0.009247862
000180 00 a5 77 3c 7c ac 88 bc 9a e7 07 3d 64 d9 b9 3c
       0.015115023 -0.01668381 0.033179857 0.022686668
000190 90 68 33 bb c2 72 17 bd f4 3e ab 3c b8 4c 1c 3d
       -0.0027375557 -0.036974676 0.020904042 0.038159102
0001a0 66 2e 57 bd b0 0e 35 bd 12 20 65 3d 10 80 cf 3b
       -0.052534483 -0.04420346 0.055938788 0.006332405
0001b0 f4 0c 5d bd e0 94 69 3d 90 c3 77 bb 40 22 bc bb
       -0.05396743 0.057026744 -0.0037805773 -0.0057413876
0001c0 32 e7 5a 3d 74 e5 3c 3d 06 f5 1b 3d 1c ab 13 bd
       0.05344314 0.04611726 0.03807547 -0.036051854
0001d0 54 49 54 bc 20 f8 20 bd c4 f8 44 bc 52 a4 a3 bc
       -0.012956936 -0.03929913 -0.012022201 -0.019975815
0001e0 d8 7f a5 bc 80 af 76 3c e0 17 8a 3b 20 5b 67 3b
       -0.020202562 0.015056491 0.004214272 0.0035302117
0001f0 8e d7 38 bd 00 38 db 3b d0 f1 8a 3c e0 02 a2 bc
       -0.045127444 0.0066900253 0.016961008 -0.019776762
000200 1c 48 42 3d 10 41 2d 3d 54 94 22 bc f8 3e 81 bd
       0.04743205 0.042298377 -0.0099230595 -0.063108385
000210 b4 17 9c 3c 96 d3 31 bd 10 36 6e bc f4 f7 19 3d
       0.019054271 -0.043414675 -0.014539257 0.037589982
000220 e8 c7 26 3d 58 b6 c0 bb cc 05 30 3d bc 8e 1f bc
       0.04071799 -0.005881112 0.04297428 -0.00973862
000230 24 54 e1 bc 20 09 13 3b 30 5f 02 3d 44 21 a8 3c
       -0.027505942 0.002243586 0.03182906 0.020523675
000240 d0 bd 12 3c 48 e4 73 bc 70 d0 4d 3c fa 68 4a 3d
       0.008956388 -0.014885969 0.012561902 0.04941652
000250 70 28 f0 3b 20 1a 42 bc 40 f6 ae 3a 12 9b 45 bd
       0.0073290393 -0.011847049 0.0013348535 -0.04824359
000260 98 9a ba 3c b2 3d b0 bc f4 fd 5f bc 58 be 51 3d
       0.022778794 -0.021513794 -0.013671387 0.051206917
000270 4b 88 3a bd 1a b6 33 3d 84 ce 0f 3d f8 f2 6e bd
       -0.045540135 0.043874837 0.035109058 -0.05833718
000280 e0 e2 6f 3c 06 df 43 bd e0 03 7e 3d 78 7a 7e 3d
       0.014641494 -0.047820114 0.062015414 0.062128514
000290 60 05 74 bd 12 1f 15 bd 22 39 78 3d e0 20 18 bc
       -0.05957544 -0.036406584 0.06060136 -0.009285182
0002a0 22 da 73 3d 14 84 3a 3d 20 96 26 3c 8a 0f 1b 3d
       0.0595342 0.045536116 0.0101676285 0.037856616
0002b0 b6 26 20 bd 3a d8 3d bd 28 59 a0 3c ec e5 a9 bc
       -0.039099418 -0.046348788 0.019573763 -0.020739518
0002c0 db 52 7a bd d6 b4 89 bc ba a1 18 3d 40 7e b2 3b
       -0.061114173 -0.016809862 0.03726361 0.005447179
0002d0 fc 76 2d bd 78 cd ea 3c 0b 4b 32 bd 68 88 f1 3c
       -0.0423498 0.028662428 -0.043528598 0.029483989
0002e0 f0 21 08 bd 14 15 11 3d f0 39 6b 3d 94 d2 97 bc
       -0.03323549 0.035420492 0.0574283 -0.018533029
0002f0 94 eb 81 3d 00 00 3b b8 33 d5 4b bd 18 a9 16 3d
       0.06343761 -4.4584274e-05 -0.04976387 0.036782354
000300 44 9c 47 3d 2e 82 59 3d fc 7d ba bc 70 67 d9 3c
       0.04873301 0.053102665 -0.022765152 0.02653858
000310 f8 91 7e 3c b1 2a 27 bd 60 fd 2c 3d 0d 25 5b bd
       0.015537731 -0.040812198 0.042233825 -0.05350213
000320 92 1b 81 3d dc 1c fa bc 5c 04 d6 bc 58 d8 7c 3d
       0.06304087 -0.03053134 -0.026125126 0.06172976
000330 78 1b ed 3c 6b 8f 25 bd 68 d5 2a 3d 40 f6 1d bb
       0.028943762 -0.040419977 0.041707426 -0.0024103075
000340 5c 7c b6 3c 3f 85 60 bd 00 c0 c6 38 7c b6 89 3c
       0.022276096 -0.054814573 9.4771385e-05 0.016810648
000350 50 51 d2 3b 32 2b fc bc 8e ea 27 3d c4 07 72 bd
       0.0064183846 -0.030782316 0.040995173 -0.059089437
000360 0e fc 44 3d f6 ff 75 3d d8 a7 fd bc a0 d7 57 bc
       0.04809194 0.060058556 -0.030963823 -0.013173968
000370 dc 63 77 bd b2 2a f0 bc aa 40 0f bd 54 d1 60 bd
       -0.060397968 -0.029317234 -0.034973778 -0.05488713
000380 9c b8 d4 3c f0 b3 4c 3c a8 38 9e bb 94 f9 a2 3c
       0.025966935 0.012494072 -0.0048285313 0.019894399
000390 78 b5 06 bd 94 55 e4 3c 80 84 d0 bb ce 4a 5b 3d
       -0.032887906 0.027872838 -0.0063634515 0.053538136
0003a0 00 e0 67 39 8c 4f 24 bc e0 99 69 3b 1a 93 46 3d
       0.00022113323 -0.010028731 0.0035644695 0.04848013
0003b0 1e c6 44 3d 8c be e2 bc 94 ce 19 bc e0 d7 4a 3c
       0.0480405 -0.02767875 -0.009387631 0.01238057
0003c0 00 6d 4c bc 40 4f 49 bb c4 cb 2a 3d 6e aa 41 bd
       -0.0124771595 -0.0030717403 0.041698232 -0.047281675
0003d0 00 5d 81 3c 38 d4 94 3c e8 9c 3f 3d 70 bb 38 bb
       0.015791416 0.0181676 0.046780497 -0.0028187893

actor.layer_1.weight f4 [248, 4]
000000 04 d5 d2 3e aa 6f 63 3e 41 6b a7 be af e3 1a 3d
       0.41178143 0.22210565 -0.32699016 0.037814792
000010 a4 86 89 be e8 75 29 be de 05 78 bd bb 7e 58 be
       -0.26860535 -0.16548884 -0.06055247 -0.21142094
000020 a2 1f d3 bd 8e 90 32 3d fa 06 5b 3d 02 3c 09 3e
       -0.10308768 0.04359489 0.05347345 0.13401797
000030 bb 44 2c 3e 7c f9 a8 3e f1 65 8c 3e 7c 8f 90 be
       0.16823094 0.3300284 0.27421525 -0.2823447
000040 5c ca 1c 3e 07 b0 ee bc 78 b6 a3 3e 26 b0 40 bd
       0.15311569 -0.02913667 0.3197515 -0.04704299
000050 7e 8c fd be 6b 4c fd be fd b4 e2 3c 34 7a 28 be
       -0.4952125 -0.49472365 0.027674193 -0.16452867
000060 7a 15 7c 3b e2 42 c3 be b8 ba 2a 3e 4f a0 af 3d
       0.003846495 -0.38136965 0.1667279 0.08575498
000070 d6 6c 74 3d 83 27 8f be 1d ec b3 be c5 d6 99 3e
       0.059674107 -0.27959833 -0.35141078 0.3004667
000080 57 17 00 3f 5b a5 f7 bd f6 b8 9a be b6 da d6 be
       0.50035614 -0.12092086 -0.3021924 -0.41963738
000090 9d fa e7 be 0a 91 07 3e db b9 19 3e e7 1f b0 be
       -0.4530839 0.13238922 0.15012304 -0.3439934
0000a0 0b 85 9c be 03 e5 ae 3e 24 df 1f be 89 6f ad 3c
       -0.30570254 0.34159097 -0.15612465 0.021171348
0000b0 a6 8b 5b be be ef a5 be 7b b4 10 3e 63 f5 6f bd
       -0.2143999 -0.3240947 0.14131348 -0.05858363
0000c0 3b 4d 42 be 1d 9c f6 be af a6 fb 3e 10 54 d9 bb
       -0.18974774 -0.4816598 0.49150607 -0.0066323355
0000d0 c3 cc db be cd 28 8d bd 86 fd e0 3e 20 47 e6 3e
       -0.42929658 -0.06892548 0.43943423 0.4497614
0000e0 ea 22 c4 3e 18 95 f2 3d b0 f4 79 3e 37 b1 f2 be
       0.38307887 0.118448436 0.24409747 -0.4740083
0000f0 ac c8 cf be 61 6f c6 3e 5e ff be 3e 38 39 e2 be
       -0.40582788 0.3875685 0.37304205 -0.4418428
000100 84 77 98 3e d1 db ce 3e 62 8c bc be ba 79 d2 3e
       0.29778683 0.40402082 -0.36825854 0.41108495
000110 24 55 20 3e 39 bd 53 3e 9d a9 92 3e bd 49 c5 be
       0.15657479 0.20677651 0.2864503 -0.3853282
000120 d2 3a 79 3d 61 7b 61 3b 5e d0 61 3d b2 8f 77 bc
       0.06084711 0.0034405815 0.055130355 -0.015109943
000130 f6 07 e1 3e 88 5c ba 3e 35 60 8d 3d c7 9e 38 be
       0.43951386 0.3639872 0.06903116 -0.18029319
000140 c7 df 3e 3e db 92 c4 3e 3b 73 9f be b2 58 77 3e
       0.18640052 0.38393292 -0.311426 0.24154928
000150 95 1d fd 3e f7 45 f2 3e aa 09 d5 3e f4 46 6f be
       0.49436632 0.47319004 0.41608936 -0.2336691
000160 c7 9e 6c 3e 35 0a b2 be a2 ad 7b 3e ea 6b d9 3e
       0.23107444 -0.34773412 0.24577954 0.42465144
000170 f5 5d b1 bd 3e a9 86 3d a9 07 cd 3e 32 5b 5b 3e
       -0.08660499 0.06575249 0.40044907 0.21421507
000180 0a 5e 9c 3e 7f 97 af bd 46 26 a1 be d4 2a f6 be
       0.30540496 -0.085738175 -0.31474513 -0.4807955
000190 9e 23 8b be 50 33 ac be 9a 3a fb 3d ce 5b e1 be
       -0.2717561 -0.33632898 0.12267037 -0.44015354
0001a0 ef 12 c7 bc d1 96 9c be 05 ce 35 be d7 83 cf 3e
       -0.02430102 -0.30583814 -0.17754371 0.40530273
0001b0 42 1e d8 3e b5 4f d0 be 33 d2 ee bd 60 4e dd be
       0.42210585 -0.40685812 -0.11661186 -0.43223858
0001c0 17 c4 be be cb 4a 80 3e 0d 99 22 3e 4b ac c8 3e
       -0.3725898 0.25057063 0.15878697 0.3919395
0001d0 2b 61 f0 3d b3 6c 3a be 8d be ca 3e 97 0e 9f 3e
       0.11737283 -0.18205528 0.39598504 0.3106582
0001e0 7b 0a 00 bf 12 9e 42 bc 0e b6 10 be ae 13 d9 bd
       -0.5001599 -0.011878507 -0.14131948 -0.10599457
0001f0 7b 0b ad be cb fe 26 be 30 8d 5d bc ba b1 cc be
       -0.3379782 -0.16308133 -0.013522431 -0.39979345
000200 4e 1d 32 be 03 8e cc be 2e 25 d4 bd 95 0d ba 3e
       -0.17393991 -0.39952096 -0.10358654 0.36338487
000210 0c e2 e1 3d cf e4 b8 be 05 a3 27 3e 78 65 f4 3e
       0.11029443 -0.36112067 0.16370781 0.47733665
000220 5e 83 92 3d 05 22 fc be d8 0b a5 be 45 8f cf 3e
       0.071539626 -0.49244705 -0.322356 0.40538993
000230 09 7d b2 3e 39 5e 2e 3c 05 a4 f3 bc da e9 ab 3e
       0.3486102 0.010642582 -0.029741297 0.33576852
000240 e8 ae be 3e c3 fc a8 3e 36 d6 7d 3e a0 98 65 be
       0.37242818 0.33005342 0.24788746 -0.22421503
000250 a0 c4 e8 3e 06 ef a0 3e cf a0 29 be 61 33 5a 3d
       0.45462513 0.3143236 -0.1656525 0.053271655
000260 b8 61 cc be c5 9d 27 bd 96 e7 d3 be d4 f0 9c be
       -0.39918303 -0.040921945 -0.41387624 -0.30652487
000270 1d 10 bb bd f0 ad dc be c3 89 fb bd df ec 2b be
       -0.09133933 -0.43101454 -0.12282135 -0.16789578
000280 cc be a0 be dc ce e8 be 6d 2f b6 3e 8b a1 93 bb
       -0.31395566 -0.4547032 0.35583058 -0.0045053414
000290 26 61 8b be 7d 30 79 be f0 a0 d4 bd 0a b0 b4 3e
       -0.27222556 -0.24334903 -0.10382259 0.35290557
0002a0 b6 31 e9 be 91 9d 65 3d f8 fa db be dd 41 a0 be
       -0.4554574 0.05605847 -0.4296491 -0.3130025
0002b0 0d fa ef 3e 62 53 a7 3e 04 15 67 3e bc 8a b8 be
       0.4687046 0.32680804 0.2256661 -0.36043346
0002c0 4f ad 09 be 7b 9a 1b 3e 31 a1 96 3e 0c 7b ec 3d
       -0.13445018 0.15195648 0.29419854 0.11546907
0002d0 4d e2 a9 3e 00 b9 19 be 5b 42 f6 3e bd c3 d4 be
       0.33180466 -0.15011978 0.480975 -0.41555586
0002e0 96 59 7d be ed c4 35 3e 15 0e ac be ff 9a 1f be
       -0.24741206 0.17750902 -0.33604494 -0.1558647
0002f0 98 62 0b 3e 4b a4 c6 3e 4e 8a e0 be 5e 94 98 bd
       0.1361183 0.3879722 -0.43855518 -0.07450174
000300 f1 55 b5 bd 06 66 08 be 88 1e 2c 3d 41 b7 91 bd
       -0.08854283 -0.13320169 0.042021304 -0.07115031
000310 aa 7c 82 3e e2 14 fe 3d 9c 23 a4 be bd 4f 1e be
       0.25485736 0.12406327 -0.32058418 -0.15460105
000320 23 19 b2 bd 88 ad c0 3d 38 b8 e2 3d 6f 67 44 be
       -0.08696201 0.094080985 0.11070293 -0.19180082
000330 37 75 79 3e 03 b9 99 be 48 86 c6 3e 13 38 ea bd
       0.2436112 -0.30023965 0.38774323 -0.114364766
000340 24 58 fd 3e 3f 23 6a be a1 13 4b be 96 60 85 bd
       0.49481308 -0.22865008 -0.19831707 -0.06512563
000350 46 fb 1f 3e cc 21 b7 3e e4 6d 26 3e 0e 17 ba 3e
       0.15623197 0.35767972 0.16252857 0.36345714
000360 32 c8 00 be 2c 47 7b bd 9f 03 02 3e 9d 26 b7 be
       -0.12576368 -0.06134717 0.12696694 -0.35771647
000370 7e 91 bd 3d 9b ed 9c be 57 4c e9 3b c7 b8 10 be
       0.09256266 -0.3065003 0.007119696 -0.14132987
000380 e5 bf e1 be 2c 67 af bd 32 4c 28 be 35 1c 97 3e
       -0.44091716 -0.085646 -0.16435316 0.29513708
000390 10 32 fe 3e a0 08 9a 3e 78 98 74 3e 41 1c c9 be
       0.4964757 0.30084705 0.23886287 -0.3927937
0003a0 cc bf ee bd 86 77 d8 be e9 c2 d6 3e e2 1b f0 be
       -0.11657676 -0.4227869 0.4194558 -0.46896273
0003b0 cf ea 74 be 94 f2 0d 3e 15 ea 75 be 64 42 ee bd
       -0.23917697 0.13862067 -0.24015076 -0.11633757
0003c0 0c f1 06 3e cc 32 d0 3e 7b 9b 5e 3e fa db 0f 3e
       0.1317789 0.40663755 0.21738999 0.14048758
0003d0 47 87 c2 bd 0a 08 b4 be b0 4a 5d 3e c2 db 89 be
       -0.09498458 -0.35162383 0.21610522 -0.26925474
0003e0 6d 1e ea bd 39 fc cb be 46 53 df 3e 8b 28 a5 bd
       -0.114315845 -0.39840868 0.4361822 -0.080643736
0003f0 9c f6 c8 bd 36 db 90 3e f4 2e 91 3e b4 c0 1d bb
       -0.09812662 0.28292245 0.28356135 -0.002407116

actor.layer_1.bias f4 [248]
000000 4d 7b a1 3d 2a e6 8d bb ef 28 fd 3e 35 65 fd be
       0.07884846 -0.004330416 0.49445292 -0.49491277
000010 f1 02 90 be eb db 04 3e 38 60 bd 3e 17 b3 f7 be
       -0.28127244 0.12974517 0.36987472 -0.48378822
000020 ab e6 9c be ac e8 55 be 39 50 66 3e 1c 3c 05 3e
       -0.30644736 -0.20889539 0.2249154 0.13011211
000030 3b e3 e4 bb c8 da fd 3e 54 fd 31 be 76 7c f7 3e
       -0.006985096 0.4958098 -0.17381793 0.48337144
000040 b4 34 95 bd 90 45 9e be 8f 8f be bd a7 1f f9 bd
       -0.07285443 -0.30912447 -0.093047254 -0.1216424
000050 cf 03 66 3c 3c dc 69 be 99 8e be be a3 2f 45 be
       0.014038994 -0.22837919 -0.37218168 -0.19256453
000060 4c 51 8b 3e 8e 2c f5 be fb 44 69 be 88 de c6 3e
       0.27210462 -0.47885555 -0.2278022 0.38841653
000070 3b 41 a9 3e 18 2b 94 be 42 1a 8d 3e 75 65 a7 be
       0.3305758 -0.28939128 0.27559096 -0.32694593
000080 78 c5 88 3e 42 74 76 3e 6c 0c dd 3e 90 61 f2 3e
       0.26713157 0.24067786 0.4317354 0.4734006
000090 05 3f 31 be 87 e7 c2 be 0e 8c 0b bd 56 7b d5 3d
       -0.17309196 -0.38067266 -0.034069113 0.10423915
0000a0 9b 19 8f bd f0 8a 38 bd 9d df c2 3e 84 b0 64 be
       -0.06987306 -0.045054376 0.38061228 -0.2233296
0000b0 cb ea d9 3e 03 ab 0a 3e 8e 3c b9 bd 4c 1a e9 3d
       0.42561945 0.13541798 -0.09044753 0.11381969
0000c0 42 bd 00 3e ad ce 4c 3e 86 d9 f3 be cd d6 7f be
       0.12572196 0.20000716 -0.47626895 -0.24984284
0000d0 c0 95 e3 3d b7 25 f6 3e 20 b7 56 bb 27 4c 9c be
       0.11112547 0.4807565 -0.003276296 -0.3052685
0000e0 08 3a cb be 4f ea 89 be 7e 38 fe be fa 38 c7 be
       -0.39692712 -0.26936576 -0.49652475 -0.38910657
0000f0 6f 1e 87 3d 0c 2e 2c be a9 64 cb 3e 19 45 fa be
       0.065976016 -0.1681444 0.39725235 -0.48880842
000100 9f c2 b6 3e 5e a2 fa be f1 50 4a be 8f a1 81 be
       0.3569536 -0.48952 -0.19757439 -0.25318572
000110 04 92 d0 bd dd 55 88 be 4a dd 93 3e 60 b6 31 3e
       -0.101841 -0.26628008 0.28879768 0.17354727
000120 ea 1e 90 3d f3 88 ba 3e d0 24 c8 bd 9a dd 8c 3d
       0.070371464 0.3643261 -0.097726464 0.06878205
000130 db e5 6d 3d 86 e6 9a be 47 23 ff 3e 6c 3f d7 be
       0.058080535 -0.30254 0.49831602 -0.42040575
000140 43 bc 7d be 23 ba ab 3e 3c b8 9f 3e 05 b3 a1 3e
       -0.24778847 0.3354045 0.31195247 0.31581894
000150 b1 1c e1 be 2a 12 e7 3d 5f 46 46 bd af 02 33 3e
       -0.43967202 0.112827614 -0.048406955 0.17481492
000160 17 80 40 3e 41 4f ec be d6 89 6c 3e ff d5 46 bd
       0.18798862 -0.46154216 0.23099455 -0.048543926
000170 ed b1 e9 3e c4 d1 15 3e 63 1b 74 3e 71 30 e8 be
       0.4564356 0.146308 0.23838572 -0.45349458
000180 57 4a 16 be 73 cc f1 3e 84 8a 5a 3e c6 0e aa 3e
       -0.14676796 0.47226295 0.21341902 0.33214396
000190 80 47 ee bd 3a c2 b3 3e f4 80 ca be 9a 04 9d be
       -0.11634731 0.3510912 -0.39551508 -0.30667573
0001a0 9a 97 e2 3e df 32 b8 be 85 77 c7 3e 8f 6d f2 be
       0.44256288 -0.35976312 0.38958374 -0.47349212
0001b0 1d e8 be be 1c 50 d0 bd 44 22 b2 3e a8 8e 3d 3d
       -0.37286463 -0.1017153 0.34791768 0.046278626
0001c0 60 2a b2 3e 2e 18 fa 3e f4 14 19 3e 60 2e 96 bd
       0.34797955 0.48846573 0.14949399 -0.07333064
0001d0 4e ae 49 be 8d fe d9 3e c1 9f cf 3e 89 7b 6a 3e
       -0.19695398 0.4257702 0.4055157 0.22898687
0001e0 91 9b 28 be 6d 8e 9c 3e 47 ac ab 3c 2e 31 cb be
       -0.16465594 0.30577412 0.020956172 -0.3968596
0001f0 ab 0d ec be 38 70 3b 3e 22 72 9b 3d d0 f0 95 3c
       -0.46104178 0.18304527 0.075901285 0.018303305
000200 d7 57 c1 be ea ad c9 3e 3e 02 6c be 04 b8 96 3e
       -0.3776233 0.39390498 -0.2304773 0.29437268
000210 fb 51 5e be 4a b2 a8 3e 0d 1a 0a bd 4b da a8 3e
       -0.2171096 0.32948524 -0.03371625 0.32979044
000220 63 59 7f 3e 18 75 cb 3e 3c c2 9a 3e 08 0c f6 be
       0.24936442 0.39737773 0.30226314 -0.48056054
000230 15 76 62 3e e6 8d 30 3e b6 a9 28 be 0e a4 f5 be
       0.22115357 0.1724163 -0.1647099 -0.47976726
000240 bc 00 c3 be 8e b0 e1 3d 64 28 9d be 35 c7 b6 be
       -0.38086498 0.11020003 -0.30694878 -0.35698858
000250 64 bb 5e 3e 43 b3 9e be a5 25 a6 bc 50 08 63 be
       0.21751171 -0.3099614 -0.020281622 -0.2217114
000260 36 44 89 3e 8e e3 cd bd 95 42 67 be 12 c9 f9 be
       0.26809853 -0.10053168 -0.22583993 -0.48786217
000270 84 1a f5 be c8 de 5a be d8 b9 e8 bd d6 f7 d1 3d
       -0.47871792 -0.21374047 -0.11363572 0.10252349
000280 36 22 d4 be 58 a9 2c 3e 33 e6 aa bb e6 5e 57 3e
       -0.4143235 0.16861475 -0.00521543 0.21032295
000290 ac f8 78 3b 35 7e 46 be 4b d1 83 be 00 40 ac 3e
       0.0037990017 -0.19384082 -0.25745615 0.33642578
0002a0 0c 5a ed 3e 2e 14 68 3b 54 a0 9b 3e 60 3f 94 3e
       0.46357763 0.0035412419 0.30395758 0.289546
0002b0 56 b8 e1 3d ac a6 0f 3d 3c 25 84 3c a6 43 7c 3e
       0.110214874 0.03507106 0.016131036 0.24635181
0002c0 e3 1e 85 be bd 1f c0 3e d2 01 d7 be 29 62 23 bd
       -0.26000127 0.37524214 -0.41993576 -0.039888535
0002d0 fe 47 6a bd 4e 34 76 3e 9c 38 9f be aa dd 4f be
       -0.057197563 0.2404339 -0.31097877 -0.20299402
0002e0 9b 92 0d 3e c3 f4 a4 3e 14 46 69 3e fe 3c d5 3e
       0.13825457 0.32217988 0.22780639 0.41648096
0002f0 f5 13 39 3e c2 cf cd bd 97 c0 99 be 7a e1 e2 be
       0.18074019 -0.10049392 -0.30029747 -0.4431265
000300 56 40 42 be 14 b6 ea 3e 7a 28 bf 3e 5d 9e 6b be
       -0.18969855 0.4584204 0.3733557 -0.2300963
000310 88 06 e4 be 51 cd e1 bd 45 2c c4 3d 7e a6 58 be
       -0.44536233 -0.11025489 0.09578756 -0.21157262
000320 1d cc c2 be 77 cb 08 bd 96 b4 c0 bd 82 ea 98 3e
       -0.3804635 -0.033397164 -0.09409444 0.29866415
000330 b9 ff c2 3b 12 e2 db 3e 55 68 c8 3e b4 e6 b2 3d
       0.0059508947 0.42945915 0.391421 0.087354094
000340 05 d8 42 be 02 b0 65 be 58 c7 dc be 0a 05 82 3d
       -0.19027717 -0.22430423 -0.43120837 0.063486174
000350 f8 e5 47 be 26 17 ea be a7 66 47 3e 3c 34 b3 3d
       -0.1952132 -0.45720786 0.19472753 0.08750197
000360 1e 54 33 be a9 18 d1 be 9e 25 df be d3 78 d8 3d
       -0.17512557 -0.40839127 -0.43583387 0.105699204
000370 cc 7c cb be 05 d1 dd 3e e3 8a a1 be fe d7 51 3e
       -0.3974365 0.43323532 -0.31551275 0.2049255
000380 61 14 a4 be b2 a8 ea 3e ef 6e b2 3d 2a 18 21 3e
       -0.32046798 0.4583183 0.08712565 0.15731874
000390 2a 86 d3 be 80 bc 96 3e a8 81 d0 be 10 33 87 3c
       -0.41313297 0.2944069 -0.4072392 0.01650384
0003a0 94 20 07 3e 76 d1 88 3e 36 cb 80 be 15 6a fc be
       0.13196021 0.26722306 -0.25155038 -0.49299684
0003b0 26 81 f7 be 2c 9c 81 be 31 28 0b be 5d cc c2 3e
       -0.4834072 -0.25314462 -0.1358955 0.38046542
0003c0 ba 11 e6 bd 70 cb 8f be 5f 27 03 3d 3e bd 1a be
       -0.1123385 -0.28084898 0.03201997 -0.15111253
0003d0 ce 27 dd bd 18 f8 bd 3e 40 4e d5 be 16 a3 ab bd
       -0.10798608 0.37103343 -0.41661263 -0.083807155

actor.layer_out.weight f4 [1, 248]
000000 f1 66 d8 bc bc e3 22 bc 44 d8 9a bc 24 3e 44 bd
       -0.026416274 -0.009941991 -0.018901952 -0.047910824
000010 83 79 f0 38 8e 3a ee bc ed fe 4d bd 99 14 28 3d
       0.00011466725 -0.029080655 -0.050291944 0.04103527
000020 91 5c b7 3b 00 03 33 bb 0f cd 12 3d 6f 5c 0b bc
       0.0055957516 -0.002731502 0.03584009 -0.008505925
000030 be 20 4f bd 0b 6b e4 3c cc b2 17 bc a3 ed 0e 3d
       -0.050568335 0.027883073 -0.009258937 0.034894597
000040 da b7 e7 bc 01 ce 74 bd dd 18 1f bd 2d e3 bb bc
       -0.02828591 -0.059766773 -0.03884207 -0.022935474
000050 0c 36 69 bd 8a d3 13 bd 44 b7 dc 3b 5b c5 d0 bc
       -0.05693631 -0.03609041 0.006735714 -0.025484731
000060 c3 52 83 3a cd c5 b4 bc 75 72 0b 3d dd 45 2c bd
       0.0010019172 -0.022066975 0.0340447 -0.042058814
000070 08 a1 79 3d 9d c9 09 3c 4f 03 ae 3c 52 35 e8 3c
       0.060944587 0.008409885 0.021241812 0.028345738
000080 91 03 5d bd 97 49 52 3d 32 e3 d3 3c 8c 3c e7 bc
       -0.05395848 0.051339712 0.025865171 -0.028227113
000090 6a 37 43 bd 9b 27 39 3d 17 48 ee 3c 2f 58 37 bc
       -0.04766027 0.045203786 0.02908711 -0.011190458
0000a0 a1 3f e4 3c 3b 24 fa 3c b8 de 3f 3d ce ff 62 3c
       0.027862372 0.030534854 0.04684326 0.013854934
0000b0 20 cf 0b b9 04 28 01 3d 53 0d 62 3d 32 5f 31 3d
       -0.00013333233 0.031532302 0.05518849 0.043303676
0000c0 60 f3 30 bd 9b 87 56 3b 2f 95 3c 3d 22 18 7a 3d
       -0.04320085 0.0032734636 0.04604071 0.06105817
0000d0 7a 89 e4 3c 76 10 44 3d a8 1f 75 bc e5 0f 8d 3c
       0.027897585 0.04786726 -0.014961161 0.017219493
0000e0 5a 7a 4d bc 42 b7 50 bd 7d f4 77 bd 21 b9 be ba
       -0.012541378 -0.05095602 -0.060535897 -0.0014551022
0000f0 d7 ab 64 3c d4 ba 9a 3c b5 84 dc bc e5 7c 19 bd
       0.013956985 0.018887915 -0.026918748 -0.037472624
000100 12 84 a5 3c ce fb 98 bc 97 9b 4c 3d 74 54 49 3d
       0.020204578 -0.018674757 0.04995307 0.049152806
000110 61 5e 6b 3d b0 76 f4 bb 7b 02 4a bc fc 5f 6c bd
       0.057463054 -0.0074604377 -0.012329693 -0.057708725
000120 aa 1c 07 bd f3 ef b2 bb c2 b3 52 bd f0 a1 60 3d
       -0.03298632 -0.005460733 -0.05144096 0.054841936
000130 88 15 aa 3c 57 6f c1 bc 66 ed 71 bd 14 1a 3d bd
       0.02076222 -0.023612661 -0.05906429 -0.04616745
000140 59 75 cb 3c f3 84 5c bd 7b 3b 14 3d 16 af 2e bd
       0.02483623 -0.053837728 0.036189537 -0.042647444
000150 01 83 41 3d 32 de 45 bd 27 b0 3d 3d 04 9c a0 3c
       0.047244076 -0.048307605 0.04631057 0.019605644
000160 7e 5f f2 3c 9f db 3c 3c 45 92 70 bd a9 b4 26 bb
       0.02958655 0.011526971 -0.058733243 -0.0025437272
000170 62 db 47 3c ff 66 f8 bc 5a 7e 52 3d bc a5 1a 3d
       0.012198301 -0.03032255 0.05139003 0.037755713
000180 8f d5 5e 3d ba ef 27 3d 89 05 e0 3c 82 e8 87 bc
       0.054402884 0.041000105 0.02734639 -0.01659036
000190 46 ca 5e 3d 40 83 54 bd 49 e9 1a 3d 37 11 0e bd
       0.05439212 -0.051882982 0.037820134 -0.034684386
0001a0 c9 7d 52 3d 6e 48 28 3d cf d1 4a bd ff ab 07 bc
       0.05138949 0.0410847 -0.049516495 -0.008280753
0001b0 e7 33 2d 3d 88 39 6b bd e4 77 ea 3c e2 2c 70 3d
       0.042285826 -0.057427913 0.028621621 0.058636554
0001c0 86 db 2e 3c 7e 1b 98 bc 36 3a 21 bd ac c4 0c 3d
       0.010672456 -0.018567797 -0.039362155 0.03436725
0001d0 97 ea 0f 3c b1 3e f7 bc 20 37 fe 3c 0d a3 55 3d
       0.008783958 -0.03018126 0.031032145 0.05215745
0001e0 ff 95 6b 3d a5 4f ff b9 03 97 cf bb a2 1f 18 bd
       0.057516094 -0.0004869673 -0.0063351407 -0.037139542
0001f0 6a 01 d8 bc 6c 01 25 bd f1 ca c6 3b 4e 47 3d bd
       -0.026367862 -0.04028456 0.006066673 -0.04621058
000200 3b 64 4f 3d 3b c6 47 bc d1 48 c1 ba b8 92 e6 bc
       0.050632697 -0.012193258 -0.0014746432 -0.028146133
000210 e2 53 22 bd 1a f8 6e bb 5c 01 66 3d 92 f2 5f 3d
       -0.039630778 -0.0036463798 0.05615364 0.054674692
000220 cd 34 6c bd 44 74 82 bc ce a5 35 3c 68 4a 07 3d
       -0.057667542 -0.01592458 0.011086894 0.033029944
000230 da b7 83 bd c9 ae 0b 3c ab e3 02 3c 07 6b 0c 3d
       -0.06431551 0.008525559 0.007988851 0.034281757
000240 45 33 4a bd 40 a4 5d 3d af 57 10 bc 8a b4 3b 3d
       -0.0493653 0.05411172 -0.008809968 0.045826472
000250 ed 04 b7 3c 83 f4 1e bd 13 ec 47 bb e1 c7 08 ba
       0.022341216 -0.038807403 -0.0030505701 -0.00052177726
000260 e0 86 38 bd d3 cb 06 bd c5 95 a2 3c 6c d8 bc bb
       -0.0450505 -0.032909226 0.019846806 -0.005763104
000270 dc e8 17 3c 74 ac 05 3c a8 11 de 3a 31 75 0d bd
       0.009271827 0.008158792 0.0016942518 -0.03453559
000280 5c d5 1f 3c 64 fb ac bc ba 03 73 3d 72 a1 6a bd
       0.009755459 -0.021115966 0.059329726 -0.057282872
000290 e2 79 1b bc 22 d2 1d b9 06 66 ef bc 50 ab 24 bd
       -0.009489508 -0.00015050967 -0.029223453 -0.04020244
0002a0 05 5c 62 3c 89 5b 4d bd 69 85 b4 bc 35 90 30 bd
       0.0138158845 -0.050136123 -0.022036271 -0.043106277
0002b0 66 76 16 3d cc 3c e6 3c a5 ff 36 bd 68 27 53 3d
       0.036734007 0.028105162 -0.044677395 0.051551253
0002c0 67 e8 50 3d 69 ca 32 3d fe 64 aa 3b 30 c9 3e bd
       0.051002886 0.043650065 0.0052000275 -0.046578586
0002d0 51 03 59 bd 97 c2 ea 3c fe 7a 01 3b 47 e5 ef bc
       -0.05298168 0.02865724 0.0019757147 -0.029284133
0002e0 53 a3 1e bd bf 5e 03 bd 93 74 d3 bc 0f b8 48 3d
       -0.038729977 -0.03207278 -0.025812423 0.049003657
0002f0 82 0f 28 bd cd dd cb bc a3 79 3a 3c 7e 27 88 bc
       -0.041030414 -0.024886036 0.0113815395 -0.016620394
000300 97 4c ff bc 3d 6b e6 3c e4 70 66 bd ab bb 7a 3d
       -0.03116445 0.028127307 -0.056260005 0.06121413
000310 55 50 bf bc ec 61 3e 3d bf 36 0e bc e9 dd 45 bd
       -0.023353735 0.046480104 -0.008680045 -0.048307333
000320 f7 04 85 3d 01 73 7e 3d 9f 3e 39 bd a8 60 88 bb
       0.064950876 0.062121395 -0.045225736 -0.004161913
000330 e3 04 d2 39 ab 11 4b 3d fc c1 89 3c db 5d 25 3d
       0.00040057962 0.049577396 0.016816132 0.04037271
000340 82 e5 75 bc 7d 1b 86 3c a1 fc b0 3c bb 7c 01 bd
       -0.015008332 0.01637053 0.021604838 -0.031613093
000350 bb bf 0b 3d e3 55 66 bd 98 b9 4f 3d 2d c6 02 bb
       0.034118395 -0.05623425 0.050714105 -0.0019954548
000360 14 df 84 3c e0 08 83 3d 73 4e c2 3c 97 5e b3 3c
       0.016219653 0.06398177 0.023719048 0.02189569
000370 e1 7b 46 3d ae d9 51 bd 99 3d f8 3c 75 33 40 bd
       0.048457984 -0.051232986 0.03030281 -0.046924073
000380 a2 19 2a bd 9b fa 6a bd 99 f7 a0 bc c2 35 6a bd
       -0.04152835 -0.057367902 -0.019649314 -0.057180174
000390 22 96 1c 3d 23 2d 39 3d 62 0b 05 bc 0f 76 8d bc
       0.038229115 0.04520906 -0.00812039 -0.017268209
0003a0 1f c7 53 3d e1 bc 5c bd 4c 1d c5 3c 0b a3 a9 bc
       0.05170357 -0.053891066 0.024061821 -0.020707628
0003b0 a0 1e 17 3b 46 25 ed bc 88 69 15 bd 63 93 37 3d
       0.0023059025 -0.028948437 -0.036477596 0.044818293
0003c0 84 18 1c bd 10 c3 43 3b 20 06 ee bc 0b 63 0b bd
       -0.038109317 0.0029870905 -0.029055655 -0.03403
0003d0 49 41 80 3d ec 7d 3a bd b8 a9 7c bb f5 a6 07 3d
       0.06262452 -0.045530245 -0.0038553309 0.033118207
