code/weights/model.pt (torch, 757699 bytes, 12 tensors)

critic.layer_1.weight f4 [248, 4]
000000 20 52 c4 3e aa 8d ea be 6e e2 b2 be 4e 77 c4 3e
       0.38343906 -0.45811206 -0.34938377 0.38372272
000010 0e 25 85 3e 20 cf d9 bd 60 dc df 3c b0 d7 a8 bd
       0.26004833 -0.10635209 0.027326763 -0.08244264
000020 b8 bf 19 3e 5e ae c5 3e 94 96 b4 be f0 1c 2a bd
       0.15014541 0.38609594 -0.35271132 -0.041531503
000030 00 e4 e6 3d 88 78 3f be e0 a7 20 3e ae 9b f0 be
       0.11273956 -0.18698323 0.15689039 -0.46993774
000040 a8 46 d7 bd f8 de d7 3e c8 c0 2f be b0 0c 50 bd
       -0.105115235 0.421623 -0.17163384 -0.05079335
000050 76 1d be be ce 38 ad 3e 00 a4 aa bd 98 f1 5b be
       -0.37131852 0.338324 -0.08332062 -0.2147888
000060 00 f4 4f bc 00 1f 33 3b ae d4 e5 be 1e fd a6 3e
       -0.0126924515 0.002733171 -0.44888824 0.32614988
000070 f0 d2 4b be 2c 5e 2e be 80 46 12 3d b8 67 f7 be
       -0.19904685 -0.17028111 0.035711765 -0.4832132
000080 80 a1 81 3c 80 b3 24 bd 80 e4 a0 3e e0 14 9e bd
       0.01582408 -0.040210247 0.31424332 -0.07718825
000090 d0 bd 99 bd 84 66 4e 3e 30 18 1f 3e 04 bb 7e 3e
       -0.07506907 0.20156294 0.1553657 0.24876028
0000a0 cc ef 5a be bc 64 29 be 40 f4 b7 bd 84 84 a4 be
       -0.21380538 -0.16542333 -0.08982134 -0.3213235
0000b0 c4 23 70 be 2c 71 63 3e 90 6d f3 3d 70 17 88 3d
       -0.23451144 0.2221114 0.11886132 0.06645095
0000c0 fc 4d ee be da 13 e2 3e d8 33 e1 3e 38 83 f3 bd
       -0.46543872 0.4415577 0.43984866 -0.11890262
0000d0 10 bf 55 3d 40 3b 37 be cc 33 03 3e 1e fb b0 be
       0.052184165 -0.17893696 0.12812728 -0.34566587
0000e0 b4 bc f1 3e 38 6f 9c 3e ce 30 d1 be 38 46 95 bd
       0.47214282 0.30553603 -0.40857548 -0.07288784
0000f0 f2 fd 92 be 68 37 33 be d8 4b a8 be 92 3b 88 be
       -0.2870937 -0.17501605 -0.32870364 -0.2660795
000100 c6 1e d9 3e 64 de 5c be c4 a1 ef be dc 01 23 3e
       0.4240629 -0.2156921 -0.46803105 0.15918678
000110 30 88 35 3e ea 95 88 be a0 ea 80 3d 88 d2 d5 3e
       0.17727733 -0.26676875 0.06294751 0.41762185
000120 78 3c dc 3d b0 d8 8a 3e 8e 56 82 be d6 dd c3 be
       0.10753721 0.27118444 -0.2545666 -0.38255185
000130 d0 2b b6 bd 14 ba 41 3e 86 d2 dd be 84 97 9f 3e
       -0.08895075 0.1891864 -0.4332468 0.31170285
000140 3e 9b c1 3e 58 07 ee bd 50 f1 f6 3d dc 7f fa be
       0.37813753 -0.116224945 0.120577455 -0.48925674
000150 e4 d6 b3 be c4 4b f7 3e f8 e0 71 3e 0a 77 ee 3e
       -0.35124886 0.48299992 0.23620975 0.46575195
000160 8c 4c 2c be f8 73 c5 bd 08 45 34 3e 74 1d 56 3e
       -0.16826075 -0.0964126 0.17604458 0.20909673
000170 ca 48 9f be 40 06 24 3d c2 00 d5 be 3e 7e f9 be
       -0.3111022 0.040045023 -0.4160214 -0.48729128
000180 0c 6b 80 be f8 65 3a be 5a 5d db be 00 86 38 bc
       -0.2508167 -0.1820296 -0.4284466 -0.011262417
000190 88 8b f3 bd 38 8a a0 3e f0 6a 4a be 84 ff 28 3e
       -0.11891848 0.31355453 -0.19767356 0.16503721
0001a0 68 01 e8 be c0 39 0c 3d 90 b3 c8 3d 96 02 c9 be
       -0.45313573 0.034234762 0.09799874 -0.39259785
0001b0 18 63 37 be b4 89 5c 3e b0 5a 87 3e a0 2b 72 bd
       -0.17908895 0.21536905 0.26436377 -0.059123635
0001c0 30 f8 80 be 0a 01 94 3e 70 98 74 be 40 5e 5c bd
       -0.25189352 0.28907043 -0.23886275 -0.05380082
0001d0 40 8d f2 bd e0 d2 56 be fe fc ee 3e a0 4a c1 bc
       -0.118433475 -0.2097888 0.46677393 -0.023595154
0001e0 10 cb bb bd 66 57 e0 3e de 61 ef be 6c 9b 3d 3e
       -0.091695905 0.4381668 -0.46754354 0.1851632
0001f0 64 70 a2 be 9c ff 6d be 94 25 6c be e8 e5 1a be
       -0.31726372 -0.23242038 -0.2306121 -0.15126765
000200 18 e6 b9 be 68 e0 97 3e ac f7 db 3e 74 24 62 3e
       -0.3630836 0.29663396 0.42962396 0.22084218
000210 94 56 65 3e 36 ca b4 3e e8 f8 c7 3d 70 b6 48 3d
       0.22396308 0.35310525 0.09764272 0.04900211
000220 32 29 b2 be d6 ff f6 3e 48 29 80 bd 12 cf c8 be
       -0.34797055 0.48242062 -0.06257874 -0.39220482
000230 00 b6 1e 3d fa 22 a6 be da a9 fa 3e b0 e6 b3 3e
       0.038747787 -0.3244856 0.4895771 0.35136938
000240 40 9b 2d 3d 20 c9 49 bd 70 cc bf be f0 9d 9b be
       0.042384386 -0.049264073 -0.3746066 -0.30393934
000250 58 f4 f6 3e 76 7d ff 3e e0 c5 ca be 0e a7 98 3e
       0.48233294 0.49900407 -0.39604092 0.29814953
000260 a4 b5 f4 3e 48 ed 59 be c0 f6 b7 3d 40 7c ef 3e
       0.4779483 -0.21281922 0.08982611 0.46774483
000270 a0 7d 6b 3d e0 5a b7 bd ec 2a c2 be a0 bf 01 bd
       0.057492852 -0.0895288 -0.37923372 -0.03167689
000280 58 a2 18 3e b0 a4 92 be d4 c1 f1 be fa f9 a0 3e
       0.14905679 -0.28641272 -0.47218192 0.31440717
000290 ec 54 c9 3e 40 02 12 bc 18 d4 3b be 18 a8 df 3d
       0.39322603 -0.008911669 -0.18342626 0.10920733
0002a0 3a 87 d5 be 42 66 9d 3e a0 94 96 be b0 47 38 be
       -0.41704732 0.3074208 -0.29410267 -0.17996097
0002b0 a4 a5 b4 be f0 cd cf bd 4c fe 53 be f8 08 04 be
       -0.35282624 -0.10146701 -0.20702475 -0.12894046
0002c0 00 c6 b3 bc 04 87 9b 3e 40 e2 28 be c8 94 ab 3e
       -0.021945 0.30376446 -0.16492558 0.3351195
0002d0 1c b6 55 3e 2a 45 b7 3e b4 1a da 3e 44 a0 9d 3e
       0.2087025 0.35794955 0.42598498 0.30786335
0002e0 3c d3 b3 3e 38 77 0f 3e 8e 67 8c 3e 8c 7b bf 3e
       0.35122097 0.14010322 0.27422756 0.37398946
0002f0 f0 f3 39 bd 50 82 b4 3e 0e 3b d4 be 84 92 98 be
       -0.045398653 0.3525567 -0.41451305 -0.29799283
000300 22 dc c1 be 6c 0e 26 be 78 74 ba be 80 be 81 3c
       -0.3786326 -0.16216439 -0.36416984 0.015837908
000310 fc a0 2b be 00 d4 22 3b e0 8e d4 be 38 6a d8 bd
       -0.1676063 0.00248456 -0.41515255 -0.105671346
000320 78 c0 10 be 20 48 31 bd 88 df a3 bd ae ce be be
       -0.14135921 -0.043281674 -0.080016196 -0.3726706
000330 f0 6a 1a bd f0 98 1d be fc 01 db be 50 81 ad 3d
       -0.03769964 -0.15390372 -0.4277495 0.0847193
000340 a4 92 a7 be 68 74 00 be 40 2b 67 be c4 86 42 3e
       -0.32729065 -0.12544405 -0.22575092 0.18996722
000350 30 5d 54 bd f4 1c a8 3e 00 bf 23 be c8 0e a1 3d
       -0.051846683 0.3283459 -0.1599083 0.078641474
000360 fe 71 f4 be 20 a2 c5 be 28 25 09 3e 84 6c 95 3e
       -0.4774322 -0.38600254 0.1339308 0.29184353
000370 ac 0d 76 be 74 40 65 be de bc f5 be 9c 8d c2 be
       -0.24028653 -0.22387868 -0.47995657 -0.37998664
000380 dc c4 88 be d8 16 25 3e 38 e5 bb bd c0 97 f5 3d
       -0.26712692 0.16121995 -0.091745794 0.11991835
000390 28 60 83 3e 14 0e 43 3e c0 3a 86 3d b0 69 c9 bd
       0.256593 0.19048339 0.065541744 -0.098346114
0003a0 0e 9f 86 be 90 5b b7 be 60 e6 01 3d bc 70 9b 3e
       -0.26293224 -0.35812044 0.031713843 0.30359447
0003b0 50 aa e4 be b0 aa 5d 3e 50 49 25 bd ec 54 2a 3e
       -0.44661188 0.21647143 -0.04035312 0.16633958
0003c0 bc 67 06 be 1c 84 e9 be be 92 d4 3e 60 45 f4 be
       -0.13125509 -0.45608604 0.41518205 -0.4770918
0003d0 4e f9 b4 be 98 e7 9a be 48 d3 dc bd 9e 75 9d be
       -0.35346454 -0.30254817 -0.10782486 -0.30753797
0003e0 e0 1f 96 be 5c 24 17 3e 60 5d 71 bd 30 d5 8e be
       -0.29321194 0.14759964 -0.05892694 -0.27897024
0003f0 00 da 9c 3e 50 ec 94 3e f0 ac d3 3d 8c 42 81 3e
       0.3063507 0.29086542 0.103357196 0.25246084

critic.layer_1.bias f4 [248]
000000 7a f8 dd be 74 a8 dd 3e 7e 89 a5 3e 00 7d 65 bd
       -0.43353635 0.43292582 0.3233146 -0.056027412
000010 00 d4 31 3c d4 94 38 3e 44 40 41 be ee d8 b5 3e
       0.010853767 0.18025523 -0.18872172 0.35517067
000020 58 bf e3 be 28 dc 2f be e4 98 3c be 30 f3 4c 3e
       -0.4448192 -0.17173827 -0.18417698 0.20014644
000030 80 2c 9e bc 04 9c 3a 3e 58 88 e3 bd ba 99 9c 3e
       -0.019308329 0.18223578 -0.1110999 0.30586034
000040 5e a9 ca be 94 7b 27 3e 9a a9 f4 3e 18 82 c9 3e
       -0.39582342 0.16355735 0.47785646 0.39357066
000050 00 10 8b b9 3a 8e a6 3e a4 11 fb 3e e4 a1 b9 3e
       -0.00026524067 0.32530385 0.49036896 0.36256325
000060 b0 a4 d4 bd 8e fe fe be 68 dd 37 3e 28 1a 89 bd
       -0.10382974 -0.49803585 0.17955554 -0.06694442
000070 40 d1 4f 3c 4c f1 e0 be a0 c6 e5 be 66 62 fe 3e
       0.012684166 -0.43934095 -0.448781 0.49684447
000080 30 96 af bd bc 9b 40 be 92 90 93 3e ee c9 a0 3e
       -0.08573568 -0.18809408 0.28821236 0.3140406
000090 e4 de 46 be 6c ce 67 be 90 59 1a 3e 7c ab 99 3e
       -0.19420964 -0.22637337 0.15073228 0.30013645
0000a0 f4 8e 3a 3e c6 f9 87 3e 50 a9 bd bd 08 49 c0 bd
       0.18218595 0.2655775 -0.092608094 -0.093889296
0000b0 60 3f 94 3c 92 85 87 be ca 5c bf 3e 00 99 c9 3d
       0.018096626 -0.26469094 0.3737548 0.098436356
0000c0 bc 4b 49 3e 9c 92 6d be b8 09 f5 be cc 2f ea be
       0.19657797 -0.23200458 -0.47858977 -0.4573959
0000d0 c0 10 24 3e 30 09 3e bd c0 09 7a bd 3c d5 0f 3e
       0.16022015 -0.04639548 -0.061044455 0.14046186
0000e0 90 26 49 bd 98 b5 f5 3d 1a 49 c4 3e 7a d6 b0 be
       -0.04910904 0.11997527 0.38337022 -0.34538633
0000f0 e8 df 6c be 5e dd 81 3e 82 b8 c7 3e 96 f8 d4 be
       -0.23132288 0.25364202 0.39007956 -0.41595906
000100 1c a0 21 3e 36 f3 fc be d0 e3 e4 3e 08 db da bd
       0.15783733 -0.49404305 0.44705057 -0.10686308
000110 40 d6 7a 3c 74 da b1 be bc be 62 be 90 d4 28 be
       0.01530987 -0.3473698 -0.22143072 -0.16487336
000120 d8 21 91 be 3e 36 ef be de f1 dd 3e f0 e2 61 bd
       -0.28346133 -0.4672107 0.43348593 -0.055148065
000130 28 16 8e 3e aa cc 82 3e 8c eb 98 3e d8 bd 17 3e
       0.2775128 0.2554677 0.29867208 0.14818513
000140 84 a2 2d be a8 bd ea 3d 16 ec ef be 82 b2 8c be
       -0.16956526 0.11461955 -0.46859807 -0.2747994
000150 c8 57 d9 3d 5e ce d1 be b0 e9 ac bd 1a 00 f4 3e
       0.10612446 -0.40977758 -0.0844301 0.47656327
000160 30 dc db 3e 1e 77 9c 3e 10 a1 f2 3d c0 9c 51 3e
       0.42941427 0.3055963 0.118471265 0.20469952
000170 5e 40 b9 3e e4 51 db 3e bc 51 4c be 88 46 e1 bd
       0.3618192 0.42835915 -0.19953054 -0.10999781
000180 2e ac d1 3e b0 c2 e3 be 1c a9 17 3e 4c bc 9c be
       0.40951675 -0.44484472 0.14810604 -0.3061241
000190 e4 89 4f 3e c0 11 8f 3c 58 a7 c8 3e 2c b7 77 be
       0.20267445 0.017464519 0.39190173 -0.24190968
0001a0 a0 89 56 be 8e fc cf be 80 fa 01 3e 98 62 8d be
       -0.20950937 -0.4062237 0.12693214 -0.27614284
0001b0 68 fc c7 be e8 9d cd bd ec 64 11 3e d0 39 8a be
       -0.39059758 -0.10039884 0.14198655 -0.26997232
0001c0 04 29 d8 3e 34 8a ea 3e 14 95 5a 3e e8 81 1f 3e
       0.42218792 0.45808566 0.21345931 0.15576899
0001d0 4a 13 be be e0 ba 1d be 34 5a 5b be 18 d7 fa bd
       -0.3712409 -0.15403318 -0.21421129 -0.12248057
0001e0 c0 e4 57 be f8 f5 f1 3d 1c fe 54 3e 86 a3 d5 3e
       -0.21083355 0.11814493 0.2080006 0.4172632
0001f0 50 e1 2d 3e c6 c8 f3 be e2 15 ac 3e 40 02 06 3c
       0.16980481 -0.47614115 0.33610445 0.008179247
000200 d4 95 9a be 40 72 68 be 78 50 ed 3d c8 f2 23 be
       -0.30192435 -0.22699833 0.11587614 -0.16010582
000210 20 8c 02 bd dc 87 14 3e 26 fb c4 be 20 c2 0a bd
       -0.031871915 0.14504951 -0.3847286 -0.03387654
000220 38 f3 c6 3e 56 b8 87 be 16 94 87 3e f0 a2 28 be
       0.38857436 -0.26507825 0.26480168 -0.16468406
000230 80 90 51 3e 28 7a 11 be a8 fe 1e 3e 70 4a 11 3e
       0.20465279 -0.14206755 0.15526831 0.14188552
000240 26 b3 da 3e 10 a4 c3 3e 16 50 f1 3e 10 69 58 3d
       0.42714804 0.38211107 0.47131413 0.05283457
000250 0a a9 f3 3e e8 db 8b 3d 1c 4e 1e be 0e 37 82 3e
       0.47589904 0.06829053 -0.15459484 0.25432628
000260 dc 89 f3 be 36 a5 db be f2 c2 96 3e b0 56 40 3d
       -0.47566116 -0.42899483 0.29445606 0.04695767
000270 e8 a6 6b 3e f0 b9 77 3e 80 6a 8c bc 30 ee af 3d
       0.23012888 0.24192023 -0.017140627 0.085903525
000280 c0 c2 23 bd 20 a2 fb bd 36 bf c9 be 44 8d 1e 3e
       -0.03998065 -0.12286782 -0.39403695 0.15483576
000290 c0 c8 75 3d 28 a4 e0 be b0 6f 1b bd 10 bb 0e 3d
       0.060005903 -0.4387524 -0.03794831 0.034846365
0002a0 9c e9 e7 3e ee c9 85 be e0 13 fd be a0 46 b7 3c
       0.45295417 -0.26130623 -0.49429226 0.022372544
0002b0 08 42 99 be 38 80 8f bd 10 40 59 bd c0 f1 4f be
       -0.2993319 -0.07006878 -0.05303961 -0.20307064
0002c0 80 f0 0d be 8c e9 87 3e 90 d0 bc be 6c ad 91 3e
       -0.13861275 0.2654537 -0.3687787 0.28452623
0002d0 5c 8f 83 3e e4 fb be be fa d1 c6 3e e0 67 14 bd
       0.25695312 -0.37301552 0.38832074 -0.036231875
0002e0 04 8e 3a 3e ec 92 b6 be 70 e9 23 be a0 d2 84 bd
       0.18218237 -0.35658967 -0.16007018 -0.06485486
0002f0 80 38 86 bb e8 af de be 70 4c cb 3d 8c 83 7f be
       -0.004096091 -0.4349358 0.09926689 -0.24952525
000300 30 79 2f be 44 9d aa be 60 19 c3 bc 06 43 cd be
       -0.17136073 -0.3332311 -0.02381581 -0.40090197
000310 c2 db f2 be e0 8b a0 3c d0 8b 82 bd dc ea e3 be
       -0.47433287 0.019597948 -0.06374323 -0.4451512
000320 2c c3 5d 3e 02 5d eb 3e a0 35 0a be 74 ac 7d 3e
       0.21656483 0.45969397 -0.13497019 0.24772817
000330 94 7d 1f 3e e2 37 83 3e f8 e2 1b 3e a0 05 8a 3c
       0.15575248 0.25628573 0.152233 0.016848385
000340 00 9f e4 3d 80 99 96 bd 2c 7e 59 3e 4c 6b 5b be
       0.11163139 -0.073534966 0.21239537 -0.2142765
000350 82 63 d6 3e e0 b8 e5 3e 24 d6 6c be 60 a8 e2 bc
       0.41872793 0.4486761 -0.23128563 -0.027668178
000360 d8 49 d9 bd 06 78 90 be e0 8a 62 3d 08 80 c3 3d
       -0.10609788 -0.2821657 0.055308223 0.095459044
000370 30 84 82 3d a4 41 77 3e 26 1d be be 74 0c 46 3e
       0.06372869 0.24146134 -0.37131613 0.19340688
000380 4c 20 b8 3e 20 6c 7e 3e 84 5c 10 3e 32 7a a7 3e
       0.3596214 0.24845934 0.14097792 0.32710415
000390 dc 44 c7 3e 00 84 03 3a 00 b2 20 3c 78 7d a7 3e
       0.38919723 0.0005016923 0.0098080635 0.32712913
0003a0 1c 7d c0 be bc 49 af be 44 a9 2a 3e 14 b8 70 3e
       -0.3759545 -0.34235942 0.16666132 0.2350772
0003b0 14 b8 ff be b0 74 f4 bd 6c dc cf 3e 30 1b 20 3d
       -0.49945128 -0.11936319 0.40597856 0.039088428
0003c0 32 f7 9d 3e fe 79 f0 3e c8 f5 e5 3d d8 c9 0f 3e
       0.30852658 0.46968073 0.1122852 0.14041841
0003d0 d8 d0 d0 3d 8e d0 c1 3e d6 01 96 be a4 7e b4 be
       0.10196084 0.37854427 -0.29298276 -0.3525287

critic.layer_out.weight f4 [1, 248]
000000 70 86 24 bb 1a 4d 26 3d 6c 63 e7 3c 50 0d 57 bc
       -0.0025104545 0.040600874 0.02824565 -0.013125733
000010 c2 cc 00 3d 2c 53 a1 3c a0 90 04 bc 4e 0e 5e 3d
       0.031445272 0.01969298 -0.008091122 0.05421286
000020 c3 01 3d bd 78 18 04 3d 40 ff b6 ba d0 8a 31 bd
       -0.04614426 0.032249898 -0.0013961568 -0.043345273
000030 dc 18 72 3d 33 70 64 bd 0c 3a cb bc ac c1 73 bc
       0.05910574 -0.055771064 -0.024807952 -0.014877718
000040 f8 1f 1e 3d 88 ee 57 3d 5a 80 a4 bc a8 a3 fd bb
       0.038604707 0.052717716 -0.020080734 -0.0077404566
000050 94 34 bf bc 92 6f 05 bd 10 52 2b 3d b8 4e 54 bc
       -0.0233405 -0.032577105 0.041826308 -0.012958221
000060 ec 65 1b bd 4c e3 e0 bc 48 44 72 bc 43 50 59 bd
       -0.037938997 -0.027452134 -0.014786787 -0.05305506
000070 54 89 44 bc 2b 80 5f bd ca f0 65 bd 90 b7 aa 3b
       -0.011995632 -0.05456559 -0.056137837 0.0052098706
000080 62 e2 e6 bc 12 7b 1a 3d 76 dd c9 bc 6c f7 7b bc
       -0.02818412 0.037715025 -0.024641734 -0.015378814
000090 96 c7 a8 bc 14 88 9f 3c 28 ba 70 3d 62 9e 99 bc
       -0.020602982 0.019474067 0.058771282 -0.01875228
0000a0 20 d7 61 bd e8 ea c9 bc e0 52 44 bb 1c c6 fc 3c
       -0.0551368 -0.024648145 -0.0029956624 0.030856185
0000b0 92 fa 70 3d 10 f5 3c 3d 00 cf 73 3c 86 f3 fa bc
       0.058832712 0.046132147 0.014880896 -0.0306337
0000c0 1f 27 69 bd b8 7f f9 bb 6c 57 ea 3c 5c a3 f1 3c
       -0.056922074 -0.007614102 0.02860614 0.029496841
0000d0 00 94 46 39 c8 b6 07 3c 10 5d 09 bb 3c 6a b5 3c
       0.00018937886 0.008283325 -0.002096001 0.022145383
0000e0 80 2b a7 bc b8 35 fd 3c b7 63 37 bd 00 35 8a 3a
       -0.020406485 0.030909404 -0.04477283 0.001054436
0000f0 78 e1 e6 bb c8 1c 67 bc 88 57 1b 3d 4e 0d 21 bd
       -0.007045921 -0.014105983 0.037925273 -0.03931933
000100 a0 bc 50 3b 24 82 15 bd 88 22 b7 bb ca 96 3f bd
       0.003185071 -0.036501065 -0.0055888332 -0.046774663
000110 58 da 69 3c b6 b7 7a bd 4a 2f 59 bd 50 08 c9 3c
       0.014273249 -0.061210357 -0.053023614 0.024540097
000120 10 5f 14 3c 28 34 41 bd 18 70 5a 3c a0 9f f6 bb
       0.009055868 -0.04716888 0.013332389 -0.007526353
000130 7e 5b 64 3d f8 d2 a9 3c 60 a6 1f 3b b0 73 ed 3b
       0.055751316 0.02073048 0.0024360642 0.007246457
000140 e8 25 38 bc 6c c5 e2 bc 7a ac 93 bc 80 1f 00 3b
       -0.011239506 -0.027682029 -0.01802658 0.0019550025
000150 d0 7a 9b 3c bc 57 ad bc 20 49 29 3d 40 d1 52 bd
       0.01897946 -0.02116 0.041329503 -0.051469088
000160 20 e6 85 bc d2 f2 92 bc 08 ad 3d bd 00 4b 6a 3a
       -0.016345084 -0.017938051 -0.046307594 0.00089375675
000170 d2 1f 1f bd 6a 4f c6 bc 78 5b 27 bd a4 b4 fa bc
       -0.038848706 -0.02420779 -0.040858716 -0.030603714
000180 d8 41 57 bd e6 80 25 bd 46 1d 50 3d c0 76 d6 3c
       -0.052553028 -0.04040613 0.050809167 0.026179671
000190 13 c4 65 bd 96 7f 56 3d d2 9f 4b bd 44 91 2d 3d
       -0.056095194 0.05236777 -0.049712963 0.042374864
0001a0 40 13 47 3d 78 2a c8 bb b8 73 b2 3c 5c f5 18 bd
       0.048602343 -0.0061085783 0.021783695 -0.037343368
0001b0 f8 f7 2a 3d 42 22 69 3d 5e 0c 9d bc 1c 71 d9 3c
       0.041740388 0.056917436 -0.019170936 0.026543193
0001c0 80 cb dc bc 1e dc 08 bd a0 cc 76 3c e8 5a 1e 3c
       -0.026952505 -0.033413045 0.015063435 0.009665228
0001d0 a2 90 49 bd 20 5c 17 3d 68 ca f7 bb 4e 9e 08 3d
       -0.0492102 0.03695309 -0.0075619705 0.033354096
0001e0 50 72 b1 3c 76 21 08 bd 0c 81 a6 3c 35 b4 61 bd
       0.021660954 -0.033235036 0.020325206 -0.0551035
0001f0 aa 40 23 3d 74 ac 9f 3c e0 1b 56 bb 48 1c ca bb
       0.03985659 0.019491412 -0.0032670423 -0.006167922
000200 2a 3f 37 bd b8 08 67 bd 00 9e 81 3c 6c 34 22 bd
       -0.044737972 -0.0564048 0.01582241 -0.039600775
000210 be 88 16 bd b0 96 a7 3c 37 11 3a bd 68 3a 7c 3d
       -0.0367515 0.020457596 -0.045426574 0.061579138
000220 50 47 75 3c 4a 11 5b 3d 1e 70 63 3d 00 5d 0e 3a
       0.0149706155 0.053483285 0.055526845 0.0005430728
000230 78 1f 36 3c b5 38 31 bd 20 39 ba 3c d2 b6 22 3d
       0.011115901 -0.04326697 0.022732317 0.039725132
000240 7d e2 5f bd 50 7c f8 3c c1 91 6a bd 36 58 36 3d
       -0.054659355 0.030332714 -0.057267908 0.04451772
000250 c2 87 62 3d d0 3e b1 3c 9a 45 4e 3d 44 31 f1 3c
       0.05530525 0.021636397 0.050359346 0.029442437
000260 b4 07 57 bc a8 a6 d0 bb 42 b8 07 3d b8 d8 67 3c
       -0.013124395 -0.006367523 0.033134706 0.014150791
000270 8e 55 06 3d 60 d8 60 3b a2 06 b9 bc 9e 8b 81 bd
       0.032796435 0.0034308657 -0.02258617 -0.06325458
000280 1c ce 0d 3d ac 24 d5 3c 45 f8 40 bd c4 17 2d bc
       0.03462039 0.026018463 -0.04711177 -0.010564748
000290 c0 db 17 3d a2 d4 10 bd 78 d1 72 3d 74 af 46 bc
       0.037074804 -0.035359032 0.059281796 -0.012126792
0002a0 64 6b 19 bd 00 ed 35 ba 18 1c 48 bd bd f6 60 bd
       -0.03745593 -0.0006939918 -0.048854917 -0.054922808
0002b0 74 60 94 3c 0e 5d 28 bd d8 5e 9a 3c 02 1a 13 3d
       0.018112399 -0.04110437 0.018844053 0.035913475
0002c0 c4 49 46 3d 85 42 04 bd 04 45 21 bd 20 e5 69 bc
       0.048410192 -0.03229 -0.03937246 -0.014275819
0002d0 62 4a af bc ce 23 22 3d e4 95 3b bd 5c b4 04 3d
       -0.021397773 0.039584927 -0.045797244 0.032398567
0002e0 40 81 3c 3d ec 2d 1d bc 04 5f f8 3c 5c 07 9a 3c
       0.0460217 -0.009593468 0.030318744 0.018802337
0002f0 ac f1 80 3c 02 f1 92 bc 70 c4 cb 3b 80 29 81 bc
       0.015740238 -0.017937187 0.0062184855 -0.015766859
000300 70 f6 dd 3c 40 a7 88 3a 5c c8 dc bc 8a f0 5b 3d
       0.02709505 0.0010425821 -0.026951008 0.053696193
000310 12 52 29 3d 00 2d 00 3d 08 e8 80 3d 28 b7 89 bb
       0.041338034 0.031292915 0.062942564 -0.004202742
000320 98 1b 05 bd cf 93 36 bd b8 1e 02 3d de 94 6c bd
       -0.03249702 -0.044574555 0.031767577 -0.05775916
000330 10 07 37 bd e8 5c 84 bc 10 83 5c bd ae 45 77 bd
       -0.04468447 -0.016157582 -0.05383593 -0.060369186
000340 64 a7 0a bd 38 2d 62 3d 5e dd 81 bd 98 07 26 3d
       -0.033851042 0.055218905 -0.063410506 0.040534586
000350 fa 5b 24 3d c9 84 4c bd 82 87 1a bd b0 de 88 3c
       0.04012678 -0.04993132 -0.037726887 0.016707748
000360 b4 82 ee bc 60 ca 7e 3d 0e 39 c1 bc 2f 3a 21 bd
       -0.029115058 0.06220472 -0.023586776 -0.03936213
000370 07 8b 74 bd 2e c6 bd bc 4e 22 58 3d 84 f6 12 bc
       -0.0597029 -0.023165789 0.05276709 -0.008969907
000380 b8 bf 30 3d 56 f5 58 bd 80 8d 6d 3d 20 32 90 bc
       0.043151587 -0.052968346 0.057996273 -0.017602026
000390 50 66 4d 3d 5c b1 5d 3d 50 98 32 3c da 21 92 bc
       0.0501464 0.05412422 0.010900572 -0.017838407
0003a0 00 64 90 3b 20 6f 77 bc cf 12 56 bd 40 af 57 3c
       0.004406452 -0.015102178 -0.05226403 0.013164341
0003b0 e8 13 e1 bc e0 ed 83 bc 38 00 7c 3d a2 de 23 3d
       -0.027475312 -0.016104639 0.061523646 0.04000724
0003c0 0a 85 4e bd bc 85 73 3d e4 b6 d5 bc 94 20 fb 3c
       -0.050419845 0.05945371 -0.026088186 0.030655183
0003d0 c6 af 59 bd b0 ee 8f bc 62 8a 70 bd 28 27 aa bc
       -0.053146146 -0.01756987 -0.058725722 -0.020770624

actor.layer_1.weight f4 [248, 4]
000000 fa a5 85 3e d6 97 72 be c4 05 bb 3e 75 fd 80 3e
       0.26103193 -0.23690733 0.36527836 0.25193372
000010 2b 25 a6 3e cd 81 cb 3c bf ef 93 3e 0f a9 2d 3e
       0.32450232 0.024842167 0.2889385 0.16959022
000020 87 8e 0a 3e fc 1e ee 3e 2d db be be 68 42 aa be
       0.13530932 0.46508014 -0.37276593 -0.3325379
000030 f1 b4 35 3d f6 f7 f5 3e 2f 22 39 3e a7 f8 d9 be
       0.044362012 0.48040742 0.18079446 -0.4257252
000040 20 51 1f 3d 63 7f b4 3e 38 a9 c8 3e 7f 85 17 3e
       0.038895726 0.35253438 0.39191604 0.14797018
000050 1b 1a 05 be cf b3 fa be 48 d3 66 3e e2 4a 8b 3e
       -0.1299824 -0.48965308 0.22541535 0.2720557
000060 a3 64 f0 be 1c 78 a6 3e 39 ab a5 be b3 d8 01 be
       -0.4695178 0.3251351 -0.32357195 -0.1268032
000070 47 3b d4 bd cd 9e fc be f3 3e a3 3e b2 a3 b3 bd
       -0.10362869 -0.49339905 0.31883964 -0.08771457
000080 05 86 f8 be 92 f9 d0 3e ac 66 92 be f0 dd 0f be
       -0.4853975 0.40815407 -0.28593957 -0.14049506
000090 f0 ff 80 3d 8f 0e c2 be 46 a4 cb 3e e4 40 41 3e
       0.06298816 -0.37901732 0.39773768 0.1887241
0000a0 e4 d4 a6 be 8f 2e 9e be 81 3f 2b 3e a3 8f 7f bd
       -0.32584298 -0.30894896 0.16723444 -0.062392842
0000b0 d3 91 56 bd 36 79 cb be 39 dd 92 3e 14 02 0a be
       -0.052385163 -0.39740914 0.28684404 -0.13477355
0000c0 62 8c 4c be 0a a7 eb be ec cd 7d 3e 32 e5 91 3e
       -0.19975427 -0.46025878 0.24785584 0.28495175
0000d0 c3 2b 0c 3e 36 75 8b be 55 00 98 be bb d3 53 3e
       0.13688569 -0.27237862 -0.29687753 0.20686238
0000e0 6d 9f d1 3e b4 35 f4 be 63 10 9b 3e 2d e8 3e be
       0.40941945 -0.47697222 0.3028594 -0.18643256
0000f0 75 d9 43 bd af 29 a4 be 80 bc e0 bc 59 0b ae bb
       -0.047814805 -0.32063052 -0.027433634 -0.0053114113
000100 79 ec f9 bc 9e 0a 56 be ab f5 e2 be 1c 4b c8 3d
       -0.030508267 -0.20902488 -0.44328055 0.09779951
000110 7f bf 90 bd 4d ff 6a 3e e2 4f d1 be b9 9b f7 be
       -0.07067775 0.22948952 -0.40881258 -0.48360994
000120 0e 58 90 be 5e f6 ab 3e a4 79 38 3e e1 fa 70 bd
       -0.2819218 0.335864 0.18015152 -0.058833007
000130 39 de fc be d1 86 79 3c aa a9 5b bd a7 9f eb 3e
       -0.49388292 0.015229897 -0.0536286 0.46020243
000140 f4 a7 c6 be ae 12 a8 be 1b df 99 be 45 df b7 be
       -0.38800013 -0.3282675 -0.30053028 -0.3591253
000150 3f 32 a5 3e 76 24 0f 3e ef 1e 8e 3d 69 cf d3 3e
       0.32264897 0.13978752 0.06939494 0.4136918
000160 9f 90 89 be 90 cb 6f 3e f3 54 fb be 8a 98 d8 be
       -0.2686815 0.23417497 -0.4908825 -0.42303878
000170 0b 49 16 3e 55 e8 94 3e fc 68 6e be 4f 43 56 3e
       0.14676301 0.29083505 -0.23282236 0.20924114
000180 5e ce 79 3e a8 54 9a 3d 42 47 fa be 23 57 26 be
       0.24395129 0.07535678 -0.4888249 -0.16244178
000190 0e 82 e0 3e b3 7b e5 3e 13 70 2b bd 87 9b e9 bc
       0.43849224 0.44820938 -0.04185493 -0.028516544
0001a0 ca 3d d1 bd 47 f8 f4 bd e8 53 6b 3e a2 ba c7 be
       -0.102168635 -0.11961418 0.22981226 -0.39009577
0001b0 ce 0e 74 bd 8a a6 80 be be a0 58 3e aa 87 98 3e
       -0.05958443 -0.2512706 0.21155068 0.29791003
0001c0 65 af 81 3d 1e 05 87 be a5 de da 3e 17 75 3d 3e
       0.06332282 -0.26371092 0.4274799 0.18501697
0001d0 b2 17 8e 3c f8 c2 92 3c 21 19 d4 be 09 24 b8 3e
       0.017345283 0.017915234 -0.41425422 0.35964993
0001e0 22 68 52 3e ac 54 c1 be 4a f2 89 3e 69 87 f1 be
       0.20547536 -0.37759912 0.26942664 -0.47173622
0001f0 30 2c 00 3e 8b 2d ea be 29 27 54 3e 9c d6 8d 3e
       0.12516856 -0.45737872 0.20718063 0.27702796
000200 82 bc 96 3e 35 a7 94 be dc e2 7d 3e cb ac 31 be
       0.29440695 -0.2903382 0.24793571 -0.17351072
000210 ce 65 76 be 6e a5 c7 3e fc bc f7 3c 3a 80 e9 3e
       -0.24062273 0.389934 0.030241482 0.45605642
000220 d8 89 11 3e d4 68 1a bd c3 54 3f 3e 28 1d 66 3e
       0.1421274 -0.03769763 0.18684678 0.2247206
000230 86 85 67 3d 7e bc 51 be 82 ff c0 be 56 1e d5 3d
       0.056523822 -0.2048206 -0.37694937 0.10406177
000240 a3 86 47 be bd 9c c1 be 9c dd b8 be c2 3b 17 3c
       -0.19484954 -0.37814894 -0.36106575 0.009230556
000250 21 be eb 3e 32 6b bc 3e 0f 73 d0 3e a7 b4 6b 3d
       0.46043494 0.36800534 0.40712783 0.05754533
000260 68 e3 aa 3e ce 11 1e be e0 8a c6 be bc b7 e1 be
       0.33376622 -0.1543648 -0.38777828 -0.4408549
000270 9b 20 d1 3e 13 54 62 3e aa c6 38 be ac a6 00 3e
       0.40845188 0.22102384 -0.18044534 0.1256358
000280 46 29 2e 3e 6c 69 b5 bd c7 0d d8 bc ed 33 91 3e
       0.17007932 -0.08857998 -0.026373757 0.2835993
000290 82 0f 55 bd 87 78 b1 3e 47 92 fb be 3b 08 52 be
       -0.052016743 0.34662268 -0.49135038 -0.20510952
0002a0 fc e5 93 be b6 cc 53 3e 47 2c cf be ff 3a 80 3d
       -0.28886402 0.2068356 -0.40463468 0.062612526
0002b0 06 55 82 bd a6 95 e8 3e 86 83 27 be 4a 8f 57 3d
       -0.06363873 0.45426673 -0.16358766 0.052626885
0002c0 e7 e0 99 3e 65 62 b4 bd eb 64 fd be be 74 77 3e
       0.300544 -0.0880783 -0.49491057 0.24165627
0002d0 ca 2d 87 bc b9 a5 44 3e b4 cd d0 bd 40 54 d6 3d
       -0.016501326 0.19203843 -0.10195485 0.10465288
0002e0 62 42 0f bd 13 2d 37 be 5f df 8c 3e 27 c6 9f 3e
       -0.034975417 -0.17888288 0.2751417 0.31205866
0002f0 f5 a1 f4 3e 9f 0c 9a 3e 0f 8e 55 3e ae ce be be
       0.47779813 0.30087754 0.20854972 -0.3726706
000300 60 4e f5 3e 57 cd 6f bd bc 8d 90 be 1b a5 00 3e
       0.47911358 -0.058545437 -0.28233135 0.12562983
000310 cd a3 e7 3e 75 37 8c be 0f 60 56 3e eb 65 fb 3d
       0.45242158 -0.2738606 0.20935081 0.12275299
000320 dd 60 f5 be 27 f6 8b 3e 12 e6 af 3d 71 22 f6 bd
       -0.47925463 0.27336237 0.08588804 -0.12018288
000330 ed 6c 61 3e b5 56 44 be 92 5e 43 3e ea 10 b1 3e
       0.22014208 -0.19173701 0.19079044 0.34583217
000340 11 d5 c2 3e 5f 4e 4d be 7c 32 cb be 58 ad 52 bd
       0.38053182 -0.20049427 -0.39686954 -0.051434845
000350 88 1c cf 3d ea 48 17 3e f1 1e d8 3e 38 64 f4 be
       0.10112864 0.14773908 0.42211106 -0.4773271
000360 74 ed 9f be c4 58 bb be d0 e9 36 be 95 d5 a6 be
       -0.3123585 -0.3659116 -0.1786263 -0.32584825
000370 4f 41 ea be a4 12 b7 3e 1d 1b ce bd a2 11 3a 3e
       -0.45752952 0.3575641 -0.10063765 0.18170789
000380 97 4a df be 4a 92 d0 3d 96 ed c5 3e ce 98 e0 3e
       -0.43611595 0.101841524 0.38657826 0.4386658
000390 73 4c d5 3c 25 4e cb 3e de f5 f4 be dc 8c b0 be
       0.02603743 0.39708057 -0.47843832 -0.34482467
0003a0 b6 98 8c 3e b2 94 ea be b5 42 6b be 41 5c be bd
       0.2746026 -0.4581657 -0.22974665 -0.0929494
0003b0 39 d0 22 be 3e a8 5c be 5b 3e 2a be 3a 7f b5 be
       -0.15899743 -0.21548554 -0.16625349 -0.3544863
0003c0 3f a0 fc be c8 fa 97 be 9f 80 d9 bc 5a b3 95 3e
       -0.49341008 -0.29683518 -0.02655059 0.29238397
0003d0 07 93 87 bd ba 64 53 be ef bc f1 3e 34 34 9b be
       -0.0661984 -0.20643893 0.47214457 -0.30313265
0003e0 f3 87 b2 3c c9 53 99 3e 9f 2d 2f bb 2a 7a 6e 3e
       0.021793341 0.29946736 -0.0026730073 0.2328879
0003f0 6d 2f d6 be 90 91 19 be ed 0f ab be ff bd 5e bd
       -0.41833058 -0.14996934 -0.33410588 -0.054380413

actor.layer_1.bias f4 [248]
000000 84 04 b0 3e 71 a4 08 3e 92 fc f5 be 28 94 f6 be
       0.34378445 0.1334398 -0.48044258 -0.4815991
000010 5c 65 8b bd 9f ff be 3e da 4e dc be 52 65 64 be
       -0.06806442 0.37304398 -0.4302891 -0.22304276
000020 7c 08 c3 3d 57 ad 88 3e 1d dd c1 be 3c f6 be 3e
       0.09523103 0.26694748 -0.3786401 0.37297237
000030 de 25 29 3e 1e 0b b2 3e ab e2 28 be 43 99 1f be
       0.16518351 0.34774107 -0.16492717 -0.15585808
000040 06 56 35 be 3b 31 ab be fb 9a c6 bd 50 40 e3 be
       -0.17708597 -0.33435997 -0.09697529 -0.44385004
000050 18 a6 ff be c0 48 ad bd a0 aa 69 3e df 6e 4b 3d
       -0.49931407 -0.084611416 0.22818995 0.04966628
000060 cd f0 c9 be d4 44 ea bd f4 a6 d3 3e c6 32 cd bd
       -0.3944153 -0.11438909 0.41338313 -0.1001945
000070 d2 ca e4 3e e5 d6 75 be 35 81 b4 bc 99 33 80 3e
       0.4468599 -0.24007757 -0.022034267 0.25039366
000080 61 40 d5 3e 2a ca 1b be 61 33 49 3e 75 b8 7c bd
       0.4165068 -0.15213838 0.19648506 -0.06169935
000090 f2 5b 36 3e 84 c3 c3 3e 0d b8 81 3e 41 c3 8f bd
       0.17808512 0.38235104 0.25335732 -0.070196636
0000a0 9c be c7 bd e1 50 d2 be 26 d1 96 3e f8 c7 cb be
       -0.09753153 -0.4107733 0.29456443 -0.39801002
0000b0 af 17 f2 be 6e ec ed be 4a 36 be 3e dd 5d 8e be
       -0.47283694 -0.46469444 0.37150794 -0.27805987
0000c0 5b a9 bc bd bc 3b 02 be dc d8 f9 bd 05 28 e6 3e
       -0.092119895 -0.127181 -0.12199566 0.44952407
0000d0 87 e7 76 be bb 48 b4 3e 26 74 69 3e 8a 28 f4 3e
       -0.24111758 0.3521174 0.22798213 0.4768718
0000e0 3e a2 bf be bb a8 30 be 73 8c 6c 3e ba 8f 0f 3e
       -0.37428468 -0.17251866 0.23100452 0.14019671
0000f0 92 5c b1 be 32 f6 44 3e 1d fe cb 3e 24 26 f8 3d
       -0.34640938 0.19234541 0.3984231 0.1211665
000100 21 4d 9e 3e 0c d4 9d be c0 87 a3 be 97 9c 59 3e
       0.3091822 -0.3082584 -0.31939507 0.2125114
000110 fb 1a 1c be 11 0c 4a 3d 7b 4e ad bd c1 30 74 be
       -0.15244667 0.049327914 -0.084622346 -0.23846723
000120 50 28 4c be f5 6e f2 3e 2d ac f7 bd ae 22 0a be
       -0.19937253 0.47350278 -0.12093387 -0.13489792
000130 b1 65 9a be a4 73 dc 3d 2b f8 30 be 39 5b b1 3e
       -0.3015571 0.10764244 -0.17282169 0.3463991
000140 cf 88 0e 3d 87 9f e1 be 08 2e e7 bd e7 6f a9 3e
       0.03479844 -0.44067022 -0.11288077 0.33093187
000150 c8 7b d8 be 1c dd b7 3d 61 79 c4 be 97 2b bb be
       -0.42281938 0.0897772 -0.38373855 -0.36556694
000160 a0 6b 29 be b7 3d 52 3e 5e 62 bd be 9e 8d ee 3e
       -0.16544962 0.20531355 -0.3698911 0.4659242
000170 ac b8 5d bd f0 26 56 3e cb 0f 51 be b3 46 d1 be
       -0.054131195 0.20913291 -0.20416181 -0.40874252
000180 5a 74 f9 3e d9 fd 3e bd 09 0e 53 3e f6 7a 39 3e
       0.48721582 -0.046628807 0.20610823 0.18113312
000190 ed 8d 9e be ee 4b 98 be 38 a3 45 3d c7 a3 a6 3d
       -0.30967656 -0.2974543 0.04825136 0.08136707
0001a0 0a e6 ea bd 0c e0 f7 3e e0 88 e1 3e 95 a0 b5 3e
       -0.11469658 0.48413122 0.4404974 0.35474077
0001b0 b7 4a 53 be 4a ed 69 3e cf 20 9d bd 44 0a ff 3c
       -0.2063397 0.22844425 -0.07672273 0.031132825
0001c0 c8 d1 fe bd 96 66 9a be af 2e e2 bc 0d 60 3c 3e
       -0.12442356 -0.30156392 -0.027610151 0.18396015
0001d0 3a 03 d6 3e 40 e9 d3 bd db 4f 5d 3e 5c 8f ef 3e
       0.41799337 -0.10347223 0.21612494 0.46789062
0001e0 5c 28 0c bc d2 b3 e5 be a5 42 88 3e ef 9b eb be
       -0.008554544 -0.44863755 0.26613346 -0.46017405
0001f0 73 54 b1 be f7 18 95 be da 65 91 3e e6 77 87 3e
       -0.34634742 -0.2912061 0.2839802 0.26458663
000200 51 d7 1c 3d ba 61 5d 3e 1a 31 04 3e 1f 46 fb 3d
       0.03829128 0.21619311 0.12909356 0.12269234
000210 2c d3 67 be da a9 c4 bd 8f 75 c3 3e 5f 0a cb be
       -0.2263915 -0.09602709 0.38175628 -0.3965635
000220 bd 82 ce 3d 3a 36 a6 3e 66 79 da 3e 46 bd 39 3e
       0.1008353 0.32463247 0.42670745 0.18138608
000230 c7 ab 95 3d be e8 9f bd b4 2f cf 3e 7f 1b 4d 3e
       0.073081546 -0.07808064 0.40466082 0.2003002
000240 97 70 b0 3e 15 b7 e3 3d d7 cf 15 be 38 7f 88 3e
       0.344609 0.111189045 -0.14630066 0.2665956
000250 8f 08 bb be 83 e3 96 3d 6c 09 4f be 3b 34 48 be
       -0.36529967 0.07367613 -0.20218438 -0.19551174
000260 04 ef 4f be f1 f9 78 be 6d 9e 49 3e 20 1b 0f be
       -0.20306021 -0.24314095 0.19689341 -0.13975191
000270 da bf 8b be 53 13 d5 be 1e 96 09 be 34 c1 8e 3e
       -0.2729481 -0.41616306 -0.13436171 0.27881777
000280 19 bc 99 bd 04 f1 e1 3e 8d 8d 06 3e fc 87 cd 3e
       -0.0750658 0.44129193 0.13139935 0.4014281
000290 89 47 ae 3b f1 b8 f6 be 39 e4 97 be ae f9 cd 3e
       0.0053185862 -0.48187974 -0.29666308 0.40229553
0002a0 f5 24 c9 3e 8f dd bc be 6a ae b1 3e 57 e3 2f be
       0.39286008 -0.36887786 0.3470338 -0.17176567
0002b0 c1 5b 9f 3e 8e 1a 8d 3e 82 24 54 3e c0 4d 9f 3e
       0.3112469 0.27559322 0.20717052 0.31114006
0002c0 8c 8f 31 be ba a0 ff 3d 74 b6 33 3e 9e c4 ef bd
       -0.17339915 0.12481828 0.17550069 -0.117074236
0002d0 67 9a de be 78 2c db be 71 b8 a3 39 98 40 fa be
       -0.43477175 -0.42807364 0.00031227202 -0.48877406
0002e0 9a 39 70 3e f3 7b cd 3d 5c 94 4a 3e 53 e4 ec be
       0.23459473 0.10033407 0.19783157 -0.46267948
0002f0 c3 a1 57 be a9 db 85 3e 49 6b e5 3e 15 0d 80 be
       -0.21057801 0.2614415 0.44808415 -0.2500998
000300 10 1d cd bc 2c 3c eb 3e f0 4d 8e be 98 ee 85 3e
       -0.025038272 0.45944345 -0.27793837 0.26158595
000310 1b dd fd 3e 43 36 ff 3e 17 dd f4 3e f1 38 c8 3e
       0.49582753 0.49846086 0.47824928 0.39105943
000320 f3 6b 90 be 1b dd 3f be e3 30 8b be d4 93 8b 3e
       -0.2820736 -0.18736689 -0.27185735 0.2726122
000330 ee 9a a5 be ab 54 71 be d3 fb 8f 3e e3 66 3f 3d
       -0.32344764 -0.23567455 0.28121814 0.04672898
000340 59 12 43 3d e7 13 e3 be ab 4b df 3e 7a c8 b9 3e
       0.04762492 -0.44351122 0.43612418 0.36285764
000350 bd 14 04 3e a8 f9 aa 3e fc 38 c2 3e c7 d1 0b 3d
       0.12898536 0.33393598 0.379341 0.034135606
000360 10 fd d6 be 53 bf 6e bd 84 df 78 3e 50 1c 74 3e
       -0.41989946 -0.05828793 0.24304014 0.23838925
000370 8e 98 86 3e 91 0d f0 be 58 af 67 3e d2 d2 c4 bd
       0.26288265 -0.4688535 0.22625482 -0.09610523
000380 c1 15 5b 3e 91 2d 8e 3e 2d 8e 96 3c f2 c5 ba bd
       0.21395017 0.2776914 0.018378342 -0.09119786
000390 ad 5a af 3e 07 51 49 be 21 a0 e8 be bb 2c 7a bc
       0.34248868 -0.19659816 -0.4543467 -0.015269454
0003a0 1a c6 3b 3e 51 c0 9f 3e 72 e9 73 be 85 5a e0 be
       0.18337288 0.31201413 -0.23819521 -0.4381906
0003b0 a7 de 28 3e 9a 9a d3 be 57 85 ff be 43 11 79 be
       0.16491185 -0.4132889 -0.49906418 -0.24322991
0003c0 b3 0d 00 bf 4e 7b ca 3e 15 e8 ce be f6 38 fa 3e
       -0.50020903 0.395472 -0.4041144 0.48871583
0003d0 23 cc eb 3e 13 c9 8e be 73 55 7c be 77 90 ea be
       0.4605418 -0.27887782 -0.24641971 -0.45813343

actor.kp.weight f4 [248, 248]
000000 34 ad 68 3c 36 8c 2f bc 8b 04 11 bc aa 24 0f 3d
       0.014201451 -0.010714581 -0.008851181 0.034947075
000010 a0 dc 63 3d d5 c4 7f bd 97 0a 1b 3c 25 29 2d 3d
       0.055630326 -0.062443573 0.009462974 0.042275567
000020 ea 96 46 3d 54 8d 50 3c bd 5a 45 bc 8b 47 02 3d
       0.048483767 0.012729008 -0.0120455595 0.03180651
000030 86 88 6d bd 47 90 8f 3c ad 21 d9 bc e9 d6 32 bd
       -0.057991527 0.017524851 -0.026505316 -0.043661986
000040 5d 3c 53 38 2e c2 50 bd b2 95 30 bd 5c e0 76 3d
       5.0362538e-05 -0.050966434 -0.04311151 0.06027256
000050 f2 5a f6 3c 31 60 53 3c 0e 6e 4d 3c ce 14 bd 3c
       0.030072663 0.012901352 0.012538446 0.02308121
000060 d8 4d 47 bd a6 32 7a 3d 63 98 34 3d ed 6d f6 3c
       -0.048658222 0.06108346 0.04409064 0.030081714
000070 ba 5b 1f 3d e8 73 c5 3c 59 9f 47 3d 37 a0 77 39
       0.038905837 0.02410312 0.04873595 0.0002361544
000080 ca 0b 71 3d 7b 09 c0 bb 6e d2 06 bd 6e 4f 75 3d
       0.058849134 -0.005860505 -0.032915525 0.059890203
000090 ea 19 82 3d 11 1e 1a bd 03 4f 37 bd 6e 7d 4c bd
       0.06352599 -0.03762633 -0.044753086 -0.049924307
0000a0 9f ad 16 3b 5b 38 81 3d a7 3f 86 3c 30 a1 2d ba
       0.002299167 0.06309577 0.016387774 -0.0006623445
0000b0 d3 c6 ab 3c e0 d8 d6 3c 91 18 e2 bc cd 12 6f bd
       0.02096883 0.026226461 -0.027599605 -0.05836754
0000c0 35 65 f4 3b a3 08 33 3d 4f 64 37 bd f9 89 0c bd
       0.007458354 0.04370941 -0.044773396 -0.03431127
0000d0 67 ec f2 bc 51 14 97 bb 27 22 6d 3c 0b 02 75 3d
       -0.029653741 -0.004610576 0.014473475 0.0598164
0000e0 a9 89 6a 3d ee bd 73 bd 5d 3c 0d bd ce ef a0 3c
       0.05726019 -0.059507303 -0.034481395 0.019645598
0000f0 77 13 47 bc e8 a2 98 bc 12 ba 60 bd d4 a2 79 bc
       -0.012150637 -0.018632367 -0.05486495 -0.015236575
000100 bf c1 ce bc 1f a6 f4 bb c6 c1 44 bd b8 00 0d bd
       -0.02523887 -0.0074660922 -0.04803636 -0.034424514
000110 61 2d 83 bd ad b9 53 3b 0a e7 a3 3c cb 25 04 3d
       -0.0640514 0.0032306716 0.020007629 0.032262605
000120 50 97 6e 3d c9 73 a6 bc 8f 2a cb 3c 19 0f 68 3b
       0.05824977 -0.020318883 0.024800567 0.003540939
000130 f7 c9 49 3d b6 e4 1c bd c6 e6 82 3d ef 27 53 3c
       0.049264874 -0.038304053 0.06391673 0.012887939
000140 80 59 c9 bc 9a 72 89 3c d1 d9 0f bc a8 d5 56 3b
       -0.02457881 0.01677828 -0.008779959 0.0032781158
000150 60 fd 48 bd 87 f1 a4 3c f1 40 6b 3d d9 25 33 bd
       -0.049069762 0.0201347 0.05743498 -0.043737266
000160 9a 5a 54 bd 31 3b 80 3d 0a ea 84 bc 6d 57 3e bd
       -0.051844217 0.0626129 -0.01622488 -0.046470094
000170 11 e6 da bc e1 24 1d 3d af ae 13 bd 83 c1 5d bd
       -0.026721032 0.03836525 -0.036055263 -0.054139625
000180 40 99 71 3d bb c3 62 bd d9 91 88 bc a1 c5 d2 3c
       0.05898404 -0.055362444 -0.016671108 0.025729002
000190 80 e2 8a bb ed f0 a9 bb b8 37 01 bc c4 65 08 bd
       -0.0042384267 -0.0051861913 -0.00788682 -0.033300176
0001a0 f6 e4 fc bb f7 1e 67 3d 61 b8 12 bb 8a 77 43 3d
       -0.007717724 0.056426015 -0.002238773 0.047721423
0001b0 78 87 35 bd a0 a5 f3 bc 82 5d 2b 3b f8 f3 74 3c
       -0.044318646 -0.029742062 0.0026148264 0.014950745
0001c0 2e 17 0d 3d d2 98 56 3c 23 a2 7d 3d ba 0f 38 bd
       0.034445934 0.013097959 0.061922204 -0.044936873
0001d0 1e dc 44 bd 48 fb 53 bd ce 3b 98 3c 83 2f 01 bc
       -0.048061483 -0.051753312 0.018583205 -0.007884863
0001e0 28 78 51 bd 18 59 d4 bc 28 73 ac bc 6f c4 f1 bc
       -0.05113998 -0.02592139 -0.021051005 -0.029512612
0001f0 9a 61 69 bd 15 a3 48 bd 35 b2 4e 3d de 69 bf ba
       -0.056977846 -0.048983652 0.05046292 -0.0014603694
000200 3e 64 f0 bc af ee 06 3d 13 c9 63 3d 86 b5 1e 3d
       -0.029344674 0.03294247 0.05561168 0.038747333
000210 f3 54 7b 3d 40 51 45 3d 33 c7 04 bd 46 c7 99 bc
       0.06136031 0.04817319 -0.032416534 -0.018771779
000220 2c 7c cf 3b f2 02 38 3d 39 12 6f 3c 0b 4e 27 bb
       0.006331941 0.044924684 0.014591747 -0.0025528695
000230 d8 13 72 bd d3 af f6 bc 0a 62 2f 3d f9 81 7c bd
       -0.059100956 -0.030113136 0.042818107 -0.06164739
000240 fd 21 5e 3d ff 2d a3 3c 1d 5b 2d bd ff 03 de 3c
       0.054231633 0.019919394 -0.04232322 0.027101515
000250 fc 22 3c bc ec 3e e0 bc bf 4f 25 bc 3a e5 b5 bb
       -0.01148295 -0.027373753 -0.010089814 -0.0055510076
000260 c8 cd b8 3b 12 3e 72 bd f0 bd 06 3d 5d 50 c0 3b
       0.0056397654 -0.059141226 0.032895982 0.005868955
000270 33 bc 1e bd 17 c2 2e 3d 3c 2d 5e bd 2e 1a 80 3d
       -0.0387537 0.042665567 -0.054242358 0.062549934
000280 8b 1d 79 3d a2 41 1d bd b9 10 d4 3c e1 d0 38 3b
       0.06081919 -0.03839267 0.02588688 0.0028200673
000290 a0 71 14 bd 75 b2 fb 3c 37 1d 13 bd 54 84 c6 3c
       -0.036241174 0.030724743 -0.035916533 0.02423302
0002a0 9f 47 ea 3b 88 5f 3b bc a8 55 82 bd 88 5f 29 3d
       0.007149651 -0.011436351 -0.06363994 0.04135087
0002b0 8b 4e f8 3c 98 78 97 bb 56 dc 2a 3d a9 24 de bc
       0.03031089 -0.00462253 0.041714035 -0.02711709
0002c0 dd 32 33 3d 5e 1b 28 bd 19 ef d6 bc 32 f6 2c 3d
       0.04374968 -0.041041724 -0.026237058 0.042226978
0002d0 df fd 36 bd ae 71 13 bd a6 b8 92 bc 04 f4 ee 3c
       -0.044675704 -0.035997085 -0.017910313 0.02916909
0002e0 7b 2a 02 bc 27 5a f0 3c 50 4e 9b bb cb 31 65 bd
       -0.007944698 0.029339863 -0.00473956 -0.05595569
0002f0 1b 1e 54 bc e4 aa 14 bd 43 b1 cd 3c 1d a0 4f 3c
       -0.012946631 -0.036295786 0.025108939 0.012672451
000300 c8 e5 18 3b 8f e7 04 3c 70 3a 0a 3b de da c0 bc
       0.002333032 0.0081118485 0.002109196 -0.023541864
000310 b6 53 b2 bc 2a b9 2a 3c 14 b4 14 bc 75 90 6e 3d
       -0.021768432 0.010420123 -0.009076137 0.058243234
000320 67 67 05 bd 3d 88 af 3b 90 bd 1d 3c b2 4a 7f bd
       -0.032569315 0.005356817 0.009627715 -0.062327094
000330 eb 03 4c bd 8f f1 1a bb cf d0 e1 3c 26 b0 59 bd
       -0.049808424 -0.0023642515 0.027565388 -0.053146504
000340 a0 8d 3d bd 17 73 ad bc 49 c8 9a bb 25 af f5 bb
       -0.046277642 -0.021173043 -0.004723583 -0.0074976855
000350 b8 03 dd bb f9 3b b9 3c d5 8b 0c bd aa 0b 69 bc
       -0.006744828 0.022611605 -0.03431304 -0.014223972
000360 37 82 4e bd ef e4 59 bc f8 b6 1c 3d dc 55 7f bd
       -0.05041715 -0.013299211 0.03826043 -0.06233774
000370 e0 00 07 bd e8 56 7b 3c ac 73 b9 3c 78 45 f6 3a
       -0.03295982 0.015340544 0.022638164 0.0018789014
000380 02 d2 11 bd 31 1e 7e 3c a6 b5 46 bb 50 72 38 bd
       -0.03560067 0.015510128 -0.0030320673 -0.045030892
000390 2a a4 63 bd e1 9f 66 bc 33 a7 2f 3b ee 77 5a bd
       -0.05557648 -0.014076204 0.002680254 -0.05333703
0003a0 68 d6 fc bb 90 ac d4 bc dc af 7b bc 83 2b 39 bd
       -0.007715989 -0.02596119 -0.015361752 -0.04520751
0003b0 87 b5 6a bd a6 e5 7a bd d0 18 57 bd be 4a 64 bd
       -0.057302024 -0.061254166 -0.052513897 -0.055735342
0003c0 3e 0f 8b 3c 7a 10 61 bc 5d 8e 45 bd d2 11 fb bb
       0.016975041 -0.0137368385 -0.04823147 -0.0076620365
0003d0 a1 fa 2e 3d f8 66 5c bd 90 c7 a6 bc 64 b1 07 bc
       0.042719487 -0.053809136 -0.02035883 -0.008282039
0003e0 79 05 42 3d b8 f5 9b 3b 59 36 ce bc c4 64 06 bd
       0.0473685 0.0047595166 -0.0251724 -0.03281094
0003f0 7e 1f db bc ac 40 a7 bc 0d b1 6a 3d 56 6d 13 3d
       -0.026748415 -0.02041658 0.057297755 0.035992943

actor.kp.bias f4 [248]
000000 55 b8 49 bd 07 ca 05 bd 50 d6 87 3c d5 6d a3 bc
       -0.04924806 -0.03266337 0.016581684 -0.019949833
000010 f8 32 4e bd c6 ac 75 3d ce d3 5e 3d f8 08 73 3d
       -0.050341576 0.059979223 0.05440121 0.059334725
000020 8d 55 46 3c 02 5f 92 3c 2c 1f 6a 3d 74 3a 16 3d
       0.012105358 0.017867569 0.057158634 0.03667684
000030 39 b6 4f bd 6e 8f 5a 3d d0 b2 6d 3d a0 23 c9 bc
       -0.05071089 0.05335944 0.058031857 -0.02455312
000040 00 58 3f b8 02 f4 4e ba 1e ee 10 3c 9b 9b 01 bd
       -4.5619905e-05 -0.00078946364 0.008845834 -0.031642538
000050 50 30 64 3c ab 96 18 3d a9 f4 05 bd 14 a6 3c 3d
       0.013927534 0.037253063 -0.03270403 0.046056822
000060 1c c7 0f 3d ad 19 92 bc 5d 9b b5 3c d0 7c 61 3c
       0.035101995 -0.017834509 0.02216881 0.013762668
000070 db 6d 44 3d 20 fe 02 bd 84 1a ee bc 58 a6 4b bd
       0.04795633 -0.031980634 -0.029065378 -0.049719185
000080 03 6d df bc 81 91 02 3d 9d ae b3 bb ec b3 3f bc
       -0.02727366 0.031877045 -0.005483462 -0.011700612
000090 64 b0 ab bc 98 57 63 3b 7b 8d 1c 3c 9f 85 40 3d
       -0.020958133 0.003468966 0.009555216 0.04700243
0000a0 90 24 c8 3c 8d 76 45 bd 40 cd 26 bd 03 9d dd bc
       0.024431497 -0.048208762 -0.040723085 -0.027052408
0000b0 14 02 1f bd f9 cd 87 ba f5 78 69 3d be 43 8d 3c
       -0.03882034 -0.0010361067 0.05700012 0.017244216
0000c0 02 13 c9 bc 93 54 1c 3d d7 ad d7 3c b6 ae 30 bd
       -0.024545196 0.038166594 0.02632801 -0.043135367
0000d0 24 75 26 3d 45 9e 58 3c 4f 29 14 bd ba 49 27 bc
       0.040639058 0.013221328 -0.036172207 -0.010210449
0000e0 4e da c6 3b a9 c1 16 bc 04 4a 10 3d 73 27 13 3d
       0.0060685044 -0.009201446 0.035226837 0.035926294
0000f0 65 6f 21 3d 49 c6 c9 3c 9a 52 f2 bc 88 f5 58 bc
       0.039412875 0.024630683 -0.029580403 -0.013242133
000100 98 6b 53 3d 84 4b 6a bd 44 13 32 3d 3e bf db bb
       0.05161628 -0.057200924 0.043475404 -0.0067061475
000110 8c 76 bb bc ee ce 7a 3d fa 3b 71 3c 36 d1 7b bd
       -0.022883676 0.0612325 0.014723772 -0.061478816
000120 56 34 75 bd d5 36 4e bd 80 e3 c7 bb fc c3 f1 3c
       -0.059864365 -0.05034526 -0.006100118 0.029512398
000130 9f 59 6a bd 26 9a b7 bc 20 5e dc bb 4e 17 71 bb
       -0.057214376 -0.02241237 -0.0067250878 -0.0036787572
000140 d0 27 96 bc b3 a2 54 bd 06 bb 4d bd 29 48 26 3d
       -0.018329531 -0.051912975 -0.050227188 0.04059616
000150 71 97 24 bd af 11 4e bd 5c 26 df 3c d0 dc 7b 3c
       -0.04018349 -0.050309833 0.02723997 0.01537247
000160 c0 ae 36 bb c6 1b 83 3a 79 6b b5 bc 35 ab 4b 3d
       -0.0027875155 0.0010002784 -0.022145974 0.049723823
000170 79 77 04 3d be 1a 30 bd bb 94 58 bd ab 83 47 3d
       0.0323405 -0.042994253 -0.052876215 0.048709553
000180 ab 6c 74 39 2c d6 68 3d ad 0f ff 3c 88 5b 72 3c
       0.00023310135 0.056844875 0.031135404 0.014792331
000190 68 19 ef 3b 9d 50 6e bd 3f 0f 88 bc 5a 22 61 3d
       0.00729673 -0.058182348 -0.016608832 0.0549644
0001a0 b2 97 22 3d 31 0b 9a bc 7b f1 a5 b9 b6 cf b6 3b
       0.03969545 -0.018804165 -0.0003165117 0.0055789603
0001b0 04 8c 73 3d 18 e3 38 3d 59 10 7b bd 0d c9 0d 3d
       0.0594597 0.04513845 -0.061294887 0.034615565
0001c0 97 a0 2b bd 40 a3 86 bc 59 30 10 3d a4 3f 61 bd
       -0.041901197 -0.016435266 0.035202358 -0.054992333
0001d0 52 49 0f bc ac d3 d7 3c ab 1a 98 3c be a1 25 3d
       -0.008745508 0.02634605 0.018567404 0.040437452
0001e0 65 dc 4c bd ae e3 f4 bc e4 84 38 bd 30 df 6e bd
       -0.050014872 -0.029893722 -0.04504861 -0.058318317
0001f0 de 40 76 bd 8d fb 77 bd 60 c3 7e 3d 24 53 6a 3d
       -0.060120456 -0.060542632 0.062198043 0.057208195
000200 8f 20 95 bb 33 1a 64 3d cf 25 45 bd 8e c0 00 3d
       -0.0045510004 0.055689048 -0.04813176 0.031433634
000210 ae 07 56 bd b2 df 48 3c 15 d0 bb 3c f2 d2 3c bd
       -0.052253418 0.012260364 0.02292637 -0.04609961
000220 f0 8f 09 3d c4 c7 34 bd 46 d3 c4 3b 58 ea 3b bd
       0.033584535 -0.044135824 0.006006631 -0.045877784
000230 24 8c 04 bd 10 18 3a bd f7 f7 31 3c 96 be 99 bb
       -0.03236021 -0.045433104 0.010862342 -0.004691909
000240 bf d3 11 3d 32 b1 24 bd b3 5b 4a bd c4 55 91 3c
       0.035602327 -0.04020805 -0.049403857 0.017741092
000250 51 03 c8 bc 90 9a cc bc dd 3f 21 3d 6f af 80 bc
       -0.024415644 -0.024976045 0.039367545 -0.015708653
000260 5c a5 dc bc a2 e9 f4 bc 67 3f 42 bd f0 d7 da 3b
       -0.026934318 -0.029896561 -0.047423746 0.006678574
000270 40 0d 0c 3b da 18 61 bd 2a 63 98 bc 4a 38 ff 3b
       0.0021370202 -0.05495534 -0.018601973 0.0077886926
000280 e0 8f c2 bb 3c 64 5f bd 21 9a 31 bd 9e 1f 7c 3c
       -0.0059375614 -0.05453895 -0.04335988 0.0153883975
000290 de 49 b0 3a 3a 14 de bc dd c2 d7 3c 83 09 1a 3d
       0.0013449749 -0.027109254 0.026338035 0.037606727
0002a0 92 24 e5 bc 4e 41 01 bd dd c8 93 3b 91 52 25 3d
       -0.02797154 -0.03155642 0.0045100288 0.040361945
0002b0 67 79 37 3d 2b 93 cb 3c b5 da 67 bc 59 15 02 3b
       0.044793513 0.024850449 -0.014151265 0.001984915
0002c0 3a 1a 5c 3d 00 df b5 39 d1 16 7b bd 0e 3f 1a 3c
       0.05373595 0.00034689158 -0.061301056 0.0094144475
0002d0 6e b3 17 bd 2e 1e ae bc 9d bd a7 3c 08 02 b1 3c
       -0.03703635 -0.021254625 0.020476157 0.021607414
0002e0 6d 68 6d bd 10 f5 1d 3c 4d d0 06 3d a1 e8 6b bd
       -0.057960916 0.009640947 0.032913495 -0.0575949
0002f0 43 9d 2f 3d 27 82 3a bd 53 0f e4 bc 48 02 66 3c
       0.042874586 -0.04553428 -0.027839338 0.01403863
000300 a5 66 02 3d db 0e 8e 3c 46 fb 25 3d 38 84 e9 3c
       0.03183617 0.017341068 0.040522836 0.02850543
000310 dc 12 78 3c 22 40 7d bd 89 2a 6b 3c 22 02 ac bc
       0.015141215 -0.06182874 0.014353403 -0.02099711
000320 a6 74 29 bd f8 49 e3 3c 36 4c 2f bd f5 cc 0b 3d
       -0.04137101 0.027745232 -0.04279729 0.03413101
000330 88 37 e6 bc 52 26 4c bd c0 1d 81 bd dd 59 d3 bc
       -0.028102651 -0.049841233 -0.063045025 -0.025799686
000340 94 5e 79 bc 9c 6d a8 3c c1 7b c6 bc d5 59 aa 3c
       -0.015220303 0.020560078 -0.024228932 0.020794788
000350 a3 13 8f ba c3 72 7b bd 24 1a 24 bd 49 00 41 3c
       -0.0010915886 -0.061388742 -0.040063992 0.011779853
000360 b3 bd c3 bc 12 29 7b 3d 00 77 2b 3d 5d de 3b 3c
       -0.023894167 0.061318465 0.041861534 0.01146659
000370 e8 44 25 b9 84 90 e9 3c 55 00 d9 bc ff be 13 3c
       -0.00015761296 0.028511293 -0.026489416 0.009017705
000380 02 73 52 3d 81 bd 81 bd 38 41 61 3d 6a 80 47 3d
       0.05137921 -0.06334973 0.054993838 0.04870645
000390 e4 8d 8c 3c a8 66 ed bc 36 2c 42 bd 50 4d 52 39
       0.017157502 -0.028979614 -0.047405444 0.00020055962
0003a0 42 b6 1b bd 2d 28 33 3d fe 42 4f 3d b8 03 46 bd
       -0.03801561 0.043739486 0.050600998 -0.04834339
0003b0 74 b9 b6 bc 1e 19 17 bd 8e d1 43 bd 10 2b 2f bd
       -0.022305228 -0.036889188 -0.04780727 -0.042765677
0003c0 e7 90 40 3c 4d dc 4e 3d dd 16 50 bc 54 f4 96 bc
       0.011753297 0.050503064 -0.0127007635 -0.018427052
0003d0 c4 1d 48 bd 2d 0d c9 bc 5c be 6b 3c 88 a1 c9 bc
       -0.04885651 -0.024542416 0.014388647 -0.024613157
