code/weights/model.pt (torch, 3874 bytes, 6 tensors)

critic.layer_1.weight f4 [10, 4]
000000 a4 fd b1 be 0e bd d8 be fc c5 b7 3e 62 55 b5 be
       -0.34763825 -0.42331737 0.35893238 -0.35416704
000010 6a c8 94 3e 64 5e 57 be f4 4a e9 3e fc a9 49 3e
       0.29059154 -0.21032101 0.45564997 0.1969375
000020 96 d5 bf bd ba 2b 1d 3d 91 0d 29 bd 9d 1d da 3e
       -0.0936691 0.03837178 -0.041272704 0.42600718
000030 84 d3 f7 be f3 43 30 3e 2a 39 e2 bd 2f be 64 3e
       -0.4840356 0.1721342 -0.110460594 0.22338174
000040 e2 c4 f4 be 94 95 8d 3e fb 77 f3 be 88 b9 b4 be
       -0.4780646 0.27653182 -0.47552475 -0.352978
000050 5c 13 36 be 9a 0f ef be 08 a3 88 3e 40 06 53 be
       -0.17780823 -0.4669159 0.26686883 -0.20607853
000060 b9 71 5c 3e ff e4 e2 3e 73 5e f8 be f6 80 a5 3e
       0.21527757 0.44315335 -0.4850956 0.32324952
000070 73 c5 37 3e cd b1 17 3e f0 76 98 3e 70 2a fb 3e
       0.17946415 0.1481392 0.29778242 0.49055815
000080 aa 6a ea be 20 06 1f be 32 78 f3 be c0 ef f3 be
       -0.45784503 -0.1552968 -0.4755264 -0.47643852
000090 a5 99 d6 be da bd d1 3e 84 f2 8b 3e 9f 26 ca be
       -0.41914096 0.40965158 0.27333462 -0.3948259

critic.layer_1.bias f4 [10]
000000 88 fc 7e be 48 2c 65 be 2d 70 a9 3e 94 7d 7a bd
       -0.2490102 -0.22380173 0.33093396 -0.061154917
000010 92 68 f3 be 78 33 4b be 4f 7a 9f be bb 45 8e bc
       -0.47540718 -0.19843853 -0.31148002 -0.017367234
000020 8a 45 b4 3e 46 a8 ca 3e
       0.35209304 0.39581507

critic.layer_2.weight f4 [1, 10]
000000 84 ac 81 bd 28 ab 82 be 57 6b 6d 3e b8 10 15 3e
       -0.06331733 -0.25521207 0.23185478 0.14557159
000010 79 b4 69 3c 6c 62 8a 3d 92 d8 0a be 62 67 83 3d
       0.014264219 0.06757054 -0.13559178 0.06416203
000020 77 50 81 3e 1e 8d 5d 3e
       0.25256702 0.21635863

actor.layer_1.weight f4 [10, 4]
000000 d8 d1 53 be 96 fe b1 be 58 48 62 3e f8 a8 95 bd
       -0.20685518 -0.34764546 0.2209791 -0.07307619
000010 10 97 ed be ac 36 18 be ac b9 8b be 68 56 1b 3e
       -0.46404314 -0.14864606 -0.27290094 0.1516968
000020 44 a8 39 3e f8 ba 38 3e a0 25 d4 3c 38 21 fe 3e
       0.18130594 0.18040073 0.025896847 0.4963472
000030 82 94 c8 be c0 4a de 3c 90 05 7c bd 2c bb 8c be
       -0.39175802 0.027135253 -0.061528742 -0.2748655
000040 7a e7 fa be 78 a2 98 3e b6 91 cf 3e c2 d9 82 be
       -0.49004728 0.29811454 0.40540856 -0.2555676
000050 e0 88 d9 be dc c6 e2 3e a0 ab 1f be 70 43 7b bd
       -0.4248724 0.44292343 -0.15592813 -0.06134361
000060 e8 ac 88 bd 58 d5 51 be f6 2a 98 be 80 cf e5 3b
       -0.06673604 -0.2049154 -0.29720277 0.0070132613
000070 68 53 5c 3e da a9 bd be aa 6f 9c 3e c4 af 8f be
       0.21516192 -0.3704365 0.30553943 -0.28063786
000080 58 2a 61 3e 7a 61 df 3e 8c d0 41 be 58 cb b3 be
       0.21988809 0.43629056 -0.1892721 -0.35116076
000090 f8 dd 65 3e 7c a7 81 3e d8 ad 65 be 52 36 e4 be
       0.22447956 0.25323093 -0.22429597 -0.44572693

actor.layer_1.bias f4 [10]
000000 0a 3b b0 be b0 61 c0 be dc 67 22 be 68 aa 82 3e
       -0.34420043 -0.3757453 -0.15859932 0.25520635
000010 b0 68 83 3e 88 94 9b 3d 40 90 f8 bd 40 1a e7 bd
       0.25665808 0.075966895 -0.121368885 -0.11284304
000020 a8 d6 a9 be d0 49 d1 be
       -0.33171582 -0.40876627

actor.layer_2.weight f4 [1, 10]
000000 90 a6 d3 3c 13 40 8a be 2a 14 47 be 6e 75 04 be
       0.02583626 -0.2700201 -0.19441286 -0.12935421
000010 4c 10 0c be 11 d1 88 be 38 5b 20 3d 34 67 0d be
       -0.13678092 -0.26722005 0.039149493 -0.138089
000020 58 57 e3 3d ac 0f cf 3d
       0.11100644 0.10110411
