code/weights/model.pt (torch, 3200 bytes, 4 tensors)

network.layer_1.weight f4 [10, 3]
000000 ca 68 d7 be 3a 52 09 bf ea 18 9f 3e c6 7e 5a be
       -0.42072135 -0.5364109 0.31073695 -0.21337423
000010 4e 91 00 3f a2 58 11 be f0 e8 07 3f 40 bd 2f bd
       0.5022172 -0.14193967 0.5308981 -0.042905092
000020 10 52 30 3e 64 f1 c6 3e 78 65 91 bd 87 f8 e9 be
       0.17218804 0.3885604 -0.07099432 -0.45697424
000030 38 19 9e be f0 0d 08 3e 7c 68 4e 3e f8 47 04 3f
       -0.30878615 0.13286567 0.20157045 0.51672316
000040 a0 17 b2 3e 54 20 d5 bd 7b 32 ae be 54 14 cf be
       0.3478365 -0.10406557 -0.3402289 -0.40445197
000050 e4 08 f2 3e 59 c5 04 bf d4 07 d1 3e a4 c6 f0 3e
       0.47272408 -0.5186363 0.40826285 0.4702655
000060 a8 21 26 3e c0 45 e0 3e 74 ab 16 3e c8 a8 18 3e
       0.16223776 0.43803215 0.14713842 0.14908135
000070 5e f2 02 3f 68 be 05 be
       0.5115107 -0.13060915

network.layer_2.weight f4 [10, 10]
000000 40 49 da 3b d9 6b 40 be 70 30 d2 3c 20 f2 3f 3c
       0.006661564 -0.1879114 0.025657862 0.011715442
000010 42 66 42 3e d0 45 3a bd 34 9e c7 3d f8 ec 65 3d
       0.18984321 -0.045476735 0.09746972 0.056134194
000020 86 f7 81 be 9a f4 0e 3e 94 05 89 3d 30 25 03 bd
       -0.25384158 0.13960496 0.06690517 -0.032017887
000030 98 63 90 3d 1f ea 20 be 6e 84 4d 3e f2 ba 6a be
       0.07050246 -0.1571431 0.20070049 -0.22922876
000040 fc c5 7e be 64 77 d4 bd 70 e1 c8 3d 64 3e 7f be
       -0.24880213 -0.103743345 0.09808624 -0.24926144
000050 07 1a 80 3e a8 ca 00 3d 34 e1 b9 bd 5a 2e 9c be
       0.25019857 0.031443268 -0.09076157 -0.30504113
000060 80 b9 cb 3b 76 7f 6a be 70 7a 75 3d d0 17 86 3d
       0.0062171817 -0.22900185 0.05993122 0.065475106
000070 f0 57 8a bc 59 23 9b 3e 50 c9 05 3e 66 4b 27 be
       -0.016887635 0.30300406 0.13065076 -0.16337356
000080 0c 78 f4 3d 38 1e 8b 3d ea 29 23 3e 91 da 8e be
       0.119369596 0.06792873 0.15933958 -0.27901128
000090 88 7c dd bd 88 94 ab 3d 3c 03 29 3e 0e 7d 54 be
       -0.10814768 0.083779395 0.1650514 -0.2075083
0000a0 d1 e1 93 3e 44 d4 37 3e 1e b2 5b be 4a e7 77 3e
       0.28883222 0.17952067 -0.21454665 0.24209324
0000b0 50 6d d0 3d de 3d d9 bd 06 77 f5 bd d2 cf 6d 3e
       0.101771 -0.10607503 -0.119855925 0.23223808
0000c0 d8 b3 3a 3e 58 bc 05 3d 94 be b9 3d a0 22 dd bc
       0.18232667 0.03265032 0.09069553 -0.02699405
0000d0 68 38 e5 3d 00 56 ff bc b4 ef ae 3d e0 1d 0e bc
       0.11192399 -0.031168938 0.085418135 -0.008674115
0000e0 51 d2 81 3e 00 58 26 b9 e5 da 6c be 60 f8 50 bd
       0.2535577 -0.00015863776 -0.23130377 -0.05101812
0000f0 7d 4f a0 3e a8 a4 9e 3d 32 6a 41 3e 62 40 70 3e
       0.31310645 0.077462494 0.18888167 0.2346206
000100 98 9d 19 3e 70 ce 01 be 36 bb db bd e7 e6 96 3e
       0.15001523 -0.12676406 -0.10729067 0.2947304
000110 4c 1e b4 3d 7d 57 85 3e 36 a6 94 be 05 97 81 3e
       0.08794841 0.2604331 -0.2903306 0.2531053
000120 c2 93 61 be 74 d9 6f be c6 6a 43 3e 80 c4 b5 3c
       -0.22029021 -0.23422796 0.190837 0.022188425
000130 3c b2 90 3d f2 2b 60 3e 2c ff c7 3d 30 ee 60 be
       0.070652455 0.21891764 0.09765467 -0.21965861
000140 f0 c5 d7 3d 3a 8b 46 3e ea 6f 70 be 70 ba 39 3e
       0.105358005 0.19389048 -0.23480192 0.18137527
000150 86 cd 37 be f4 cf a3 3d 15 a7 99 be ef 3a 8c 3e
       -0.17949495 0.07998648 -0.30010286 0.27388713
000160 a4 14 ce 3d ea e2 6c 3e 68 a3 e1 3d 66 c0 99 be
       0.10062531 0.23133436 0.110174954 -0.300296
000170 12 a4 12 3e 42 d0 73 3e a1 ab 82 3e b8 09 b1 3d
       0.143204 0.23809913 0.25521567 0.08644432
000180 20 c8 18 3c a6 13 58 3e 50 15 10 3e a2 13 91 be
       0.009325057 0.21101245 0.1407063 -0.2833529

network.layer_3.weight f4 [10, 10]
000000 50 cb 1b bd 73 79 49 be aa c5 24 3e d5 c8 8b 3e
       -0.03803569 -0.19675235 0.16091028 0.2730166
000010 5f de 45 be 08 f2 34 be 00 15 fc 3d fe 06 5d 3e
       -0.19323109 -0.17670453 0.12308693 0.21584699
000020 30 fe 09 bd 32 fa 8c be 2b 5f 83 3e 5a ee 91 be
       -0.033689678 -0.27534634 0.25658545 -0.2850216
000030 c0 0b bc 3c 80 b9 2e 3d eb 05 89 3e 0a 96 58 3e
       0.022954822 0.042657375 0.26762328 0.21150985
000040 e0 b5 6d bd a0 25 84 bc 20 73 0d bc b9 28 8e be
       -0.058034778 -0.016131222 -0.008633405 -0.27765444
000050 a3 98 8a 3e e6 de 1f be 8d 07 9a be 10 46 f7 3c
       0.27069578 -0.15612373 -0.30083886 0.030184776
000060 58 16 71 bd e0 f9 34 bc 08 9a 3e bd bc 57 11 be
       -0.0588592 -0.011045903 -0.046533614 -0.14193624
000070 f6 01 23 be b3 96 86 be 79 9f 8f 3e 5a 72 08 be
       -0.15918717 -0.2628685 0.28051355 -0.13324872
000080 fb 05 9d 3e 78 38 15 bd 92 86 18 be a6 f2 50 3e
       0.30668625 -0.036430806 -0.14895085 0.20405063
000090 0a 1d 72 be de 9b 8f bd c6 60 43 3e 1a 6e 34 3e
       -0.2364389 -0.07012151 0.19079885 0.17620125
0000a0 a0 35 27 3e 64 34 ac 3d 00 6c bd bb 50 da 07 be
       0.1632905 0.0840843 -0.005780697 -0.13266873
0000b0 d8 d7 b7 bd 85 2d 55 be a6 2a 59 be 00 f0 65 3a
       -0.08976716 -0.20818146 -0.21207675 0.00087714195
0000c0 79 64 87 3e 96 e7 12 3e 39 3d 94 be c2 3e 37 3e
       0.26443842 0.14346156 -0.2895296 0.17895034
0000d0 60 25 4f 3d 98 6c 5b be c2 6b a8 bd 5d 3b 85 3e
       0.050572753 -0.21428144 -0.08223678 0.26021853
0000e0 7a 0b 13 3e c6 48 97 bd a1 99 53 be ba 14 28 be
       0.14359847 -0.07386927 -0.20664074 -0.16414157
0000f0 dc e4 99 be 7e 47 6a 3e 35 d3 9b 3e 34 a0 86 bd
       -0.30057418 0.22878835 0.30434576 -0.06573525
000100 80 8b 8c 3d c8 c4 4d bd a7 31 95 3e c1 09 98 be
       0.06862545 -0.050236493 0.29139444 -0.29694942
000110 26 cd 9d bd a8 42 5b bd 10 67 50 bd 7b 73 37 be
       -0.077051446 -0.053530365 -0.050879538 -0.17915146
000120 20 4a b4 bc ba bd 5c 3e cb d8 80 3e 16 46 4c 3e
       -0.022008002 0.2155675 0.251654 0.1994861
000130 5c 9a 16 3e 8c d5 80 bd a8 cf 3b 3d 28 9e 6b 3d
       0.14707321 -0.06290731 0.045852333 0.057523876
000140 61 56 a1 be e0 16 74 bd 9e 58 4a 3e 8a e9 5e 3e
       -0.31511214 -0.059592128 0.19760367 0.21768776
000150 8e 87 25 3e d8 54 fb 3d 06 0c b9 bd 0e 62 77 3e
       0.16164991 0.12272042 -0.090354964 0.24158499
000160 ea 0b 4e 3e b8 27 72 bd 72 74 7a be 9d c0 88 be
       0.20121732 -0.05911991 -0.24458483 -0.26709452
000170 10 ad ec bc ef 5a 39 be 9e ad 74 be e0 7f 5c bc
       -0.028891116 -0.18101095 -0.23894355 -0.013458222
000180 54 fe 3b be ec fe ae bd 5e 93 48 3e d8 da 57 be
       -0.18358737 -0.08544716 0.19587466 -0.21079576

network.layer_4.weight f4 [3, 10]
000000 4d f8 7a be 1e 6e 28 3e c8 5e 0a 3d b6 a9 5b 3e
       -0.24508782 0.16448256 0.033781797 0.21451458
000010 4d ad 0c be 9f bb 2e be 74 16 14 3e 46 0e 4c 3e
       -0.13737984 -0.1706376 0.1446169 0.1992732
000020 da cb 9b bd ab e6 a1 3e 40 76 cb bb 0a 44 7c 3e
       -0.07607241 0.31621298 -0.006209165 0.2463533
000030 ce c9 5e be a4 84 f8 bd 82 f0 b1 bd a6 36 34 3e
       -0.2175667 -0.12134674 -0.08688451 0.17598972
000040 68 63 62 bd 98 68 60 bd 25 dc 9b 3e af c4 91 be
       -0.055270582 -0.05478725 0.30441394 -0.2847037
000050 95 32 a0 3e a5 42 86 3e 30 13 13 3e 03 07 97 3e
       0.3128859 0.2622272 0.14362788 0.29497537
000060 f2 58 64 3e 80 ac 4e bd b4 eb 1d 3e 20 13 23 3e
       0.22299555 -0.050457478 0.15421945 0.15925264
000070 e8 d6 0e 3e 62 d0 a0 be
       0.13949168 -0.31408983
