code/weights/model.pt (torch, 8539 bytes, 20 tensors)

network.layer_1.weight f4 [10, 4]
0	0xb469eef9	-2.1786754e-07
1	0x1287a95b	8.561447e-28
2	0xb290edcb	-1.6871942e-08
3	0x819905a7	-5.6211434e-38
4	0x38742a88	5.8213744e-05
5	0x3294edb7	1.7337568e-08
6	0x0c0f8578	1.1056484e-31
7	0x3184ed19	3.8686605e-09
8	0x9045c0f6	-3.900005e-29
9	0x80046cbb	-4.06347e-40
10	0x30a62fa4	1.209163e-09
11	0x19d36ec0	2.186162e-23
12	0x388947b3	6.546024e-05
13	0x99c85f70	-2.0718062e-23
14	0x804dc9df	-7.143751e-39
15	0x8009d27d	-9.02028e-40
16	0xb6c2f56e	-5.8102223e-06
17	0x80001cad	-1.0287e-41
18	0xb70c20f4	-8.352323e-06
19	0xb645e4cb	-2.9488463e-06
20	0x11b5c29b	2.86767e-28
21	0x370e538b	8.483311e-06
22	0x8bcf763f	-7.9911417e-32
23	0xad5e7b84	-1.2646665e-11
24	0xb130a622	-2.5705806e-09
25	0x0008cf8c	8.09138e-40
26	0x3868b3f2	5.5480697e-05
27	0x8a2f4301	-8.4385455e-33
28	0x32d91fa6	2.5276517e-08
29	0x378119b7	1.5389973e-05
30	0x8ed053a6	-5.135651e-30
31	0xade1ed58	-2.568494e-11
32	0x00037d5f	3.20481e-40
33	0x04a35d70	3.8406925e-36
34	0x91295d9a	-1.3360593e-28
35	0x8b7ca130	-4.86547e-32
36	0x2106049e	4.5407077e-19
37	0x36aa3390	5.0723975e-06
38	0x2e97af78	6.8978545e-11
39	0xac2a8829	-2.4234037e-12

network.layer_1.bias f4 [10]
0	0xb4379973	-1.7099028e-07
1	0xb65926fe	-3.2358216e-06
2	0x34243de5	1.5296207e-07
3	0x00216565	3.066945e-39
4	0x00103260	1.487439e-39
5	0x80002b91	-1.5629e-41
6	0xb1644b69	-3.3221232e-09
7	0x36670dad	3.4429643e-06
8	0x313f90d8	2.7876492e-09
9	0x00090d01	8.31184e-40

network.batch_norm_1.weight f4 [10]
0	0x3d500550	0.050786316
1	0x3d500550	0.050786316
2	0x3d500550	0.050786316
3	0x3d500550	0.050786316
4	0x3d500550	0.050786316
5	0x3d500550	0.050786316
6	0x3d500550	0.050786316
7	0x3d500550	0.050786316
8	0x3d500550	0.050786316
9	0x3d500550	0.050786316

network.batch_norm_1.bias f4 [10]
0	0x00000000	0.0
1	0x00000000	0.0
2	0x00000000	0.0
3	0x00000000	0.0
4	0x00000000	0.0
5	0x00000000	0.0
6	0x00000000	0.0
7	0x00000000	0.0
8	0x00000000	0.0
9	0x00000000	0.0

network.batch_norm_1.running_mean f4 [10]
0	0x00000000	0.0
1	0x00000000	0.0
2	0x00000000	0.0
3	0x00000000	0.0
4	0x00000000	0.0
5	0x00000000	0.0
6	0x00000000	0.0
7	0x00000000	0.0
8	0x00000000	0.0
9	0x00000000	0.0

network.batch_norm_1.running_var f4 [10]
0	0x3f800000	1.0
1	0x3f800000	1.0
2	0x3f800000	1.0
3	0x3f800000	1.0
4	0x3f800000	1.0
5	0x3f800000	1.0
6	0x3f800000	1.0
7	0x3f800000	1.0
8	0x3f800000	1.0
9	0x3f800000	1.0

network.layer_2.weight f4 [10, 10]
0	0x03788158	7.302913e-37
1	0xab13c8c6	-5.250352e-13
2	0x80020b38	-1.87696e-40
3	0xac01d50d	-1.845027e-12
4	0x00029ce4	2.39953e-40
5	0x005b5981	8.389138e-39
6	0x0001632d	1.27413e-40
7	0x1a3ad56b	3.8636296e-23
8	0x00033f44	2.98202e-40
9	0x02bc86ff	2.7701601e-37
10	0x15a81621	6.788957e-26
11	0x97c3f18d	-1.2662556e-24
12	0x80003598	-1.9226e-41
13	0x873cfcd7	-1.4217851e-34
14	0x8266d96c	-1.6960128e-37
15	0x05c36f49	1.8378592e-35
16	0x0be0f3ce	8.66485e-32
17	0x1a8e0580	5.873871e-23
18	0x00007577	4.2138e-41
19	0x0875b199	7.393577e-34
20	0x2f360021	1.655285e-10
21	0x8d23df7c	-5.0497262e-31
22	0x2dac912a	1.9618602e-11
23	0x2dffa3b7	2.9062848e-11
24	0xac887df4	-3.879336e-12
25	0x121594d5	4.719956e-28
26	0x80005e7c	-3.3895e-41
27	0x08424923	5.8465723e-34
28	0xa61bbaac	-5.4029415e-16
29	0x84f1cefe	-5.684892e-36
30	0xadbf2749	-2.1731632e-11
31	0x849ced8a	-3.689357e-36
32	0x800e5660	-1.316682e-39
33	0xab8aea21	-9.870474e-13
34	0x80086ef2	-7.74484e-40
35	0x8b01ce6a	-2.4999785e-32
36	0x003d97f5	5.656477e-39
37	0x800882e9	-7.81646e-40
38	0xad933d6d	-1.6739244e-11
39	0x001813e7	2.211192e-39
40	0xae416f36	-4.3981895e-11
41	0x8000b554	-6.5048e-41
42	0x8382899a	-7.672305e-37
43	0x20286805	1.4264571e-19
44	0x01cc29a2	7.4997505e-38
45	0x8000a803	-6.0271e-41
46	0x07fd5473	3.8116844e-34
47	0x1a8c6d7c	5.8079524e-23
48	0x87c01587	-2.8901602e-34
49	0x0002de91	2.63513e-40
50	0x8fb386ba	-1.7702658e-29
51	0x80012c16	-1.0765e-40
52	0x2f8310e9	2.3840777e-10
53	0x8000b825	-6.6059e-41
54	0x1a62f1a0	4.6930888e-23
55	0x22db91d5	5.9514475e-18
56	0x00024747	2.0924e-40
57	0xad79f478	-1.4208294e-11
58	0x0917ecc1	1.8287285e-33
59	0x1c145818	4.908295e-22
60	0x000093db	5.304e-41
61	0xaefeb480	-1.1582646e-10
62	0xae5efc7a	-5.07012e-11
63	0x100154dc	2.5506137e-29
64	0x05a06c46	1.5086101e-35
65	0xafec8b00	-4.3026915e-10
66	0x8ec7f6f5	-4.92951e-30
67	0xaeaf4d80	-7.9718454e-11
68	0x064e4709	3.8796482e-35
69	0x1f248c3a	3.4844344e-20
70	0x961dcc40	-1.2746809e-25
71	0x13d275f1	5.3127752e-27
72	0x97ddf4ca	-1.4343584e-24
73	0x94182a44	-7.682374e-27
74	0x2bd6194b	1.5212635e-12
75	0x9385090a	-3.3582833e-27
76	0x001d9289	2.715796e-39
77	0x00003b8f	2.1366e-41
78	0xa0b3db6b	-3.0468978e-19
79	0x0021ec0d	3.11525e-39
80	0xa5a18dd8	-2.8025165e-16
81	0x90da6b66	-8.615131e-29
82	0x0001c422	1.62195e-40
83	0xaa00c072	-1.1435452e-13
84	0xaa06e6da	-1.1981684e-13
85	0x00022261	1.96004e-40
86	0x808343c9	-1.2054767e-38
87	0x80034c0e	-3.0279e-40
88	0x83ee3fb7	-1.4003011e-36
89	0x0002e36b	2.65253e-40
90	0x06cdc7a5	7.740578e-35
91	0x8432c456	-2.1013952e-36
92	0x0001cd69	1.65523e-40
93	0x10734382	4.7975306e-29
94	0x0b20cf05	3.0970623e-32
95	0x30288a28	6.1314376e-10
96	0x800198fb	-1.46715e-40
97	0x0001a2ab	1.5019e-40
98	0x0000b912	6.6391e-41
99	0xac206f4e	-2.2799154e-12

network.layer_2.bias f4 [10]
0	0x2336183f	9.871374e-18
1	0x00055567	4.89814e-40
2	0x0002e981	2.67436e-40
3	0x0e0242a7	1.605583e-30
4	0x8b28b72e	-3.2493432e-32
5	0x8001471f	-1.17349e-40
6	0x2ecfa1ff	9.4420465e-11
7	0x007ff901	1.1752434e-38
8	0x19a0c49d	1.6623024e-23
9	0x1a0685c2	2.78186e-23

network.batch_norm_2.weight f4 [10]
0	0x3d500550	0.050786316
1	0x3d500550	0.050786316
2	0x3d500550	0.050786316
3	0x3d500550	0.050786316
4	0x3d500550	0.050786316
5	0x3d500550	0.050786316
6	0x3d500550	0.050786316
7	0x3d500550	0.050786316
8	0x3d500550	0.050786316
9	0x3d500550	0.050786316

network.batch_norm_2.bias f4 [10]
0	0x00000000	0.0
1	0x00000000	0.0
2	0x00000000	0.0
3	0x00000000	0.0
4	0x00000000	0.0
5	0x00000000	0.0
6	0x00000000	0.0
7	0x00000000	0.0
8	0x00000000	0.0
9	0x00000000	0.0

network.batch_norm_2.running_mean f4 [10]
0	0x00000000	0.0
1	0x00000000	0.0
2	0x00000000	0.0
3	0x00000000	0.0
4	0x00000000	0.0
5	0x00000000	0.0
6	0x00000000	0.0
7	0x00000000	0.0
8	0x00000000	0.0
9	0x00000000	0.0

network.batch_norm_2.running_var f4 [10]
0	0x3f800000	1.0
1	0x3f800000	1.0
2	0x3f800000	1.0
3	0x3f800000	1.0
4	0x3f800000	1.0
5	0x3f800000	1.0
6	0x3f800000	1.0
7	0x3f800000	1.0
8	0x3f800000	1.0
9	0x3f800000	1.0

network.layer_3.weight f4 [10, 10]
0	0x033f8e1c	5.629299e-37
1	0x0019cb84	2.368895e-39
2	0x8000ccf1	-7.3519e-41
3	0x8655b4c1	-4.0193644e-35
4	0x91e6f6aa	-3.643962e-28
5	0x01976bd8	5.562339e-38
6	0xae40a4d9	-4.380216e-11
7	0x9e480c99	-1.0590517e-20
8	0x8b8e8184	-5.4891284e-32
9	0x30207849	5.8378596e-10
10	0x2562fe40	1.9688519e-16
11	0x000053f1	3.0113e-41
12	0x247fc7cd	5.546355e-17
13	0xaf94dd3e	-2.7078245e-10
14	0x8b298795	-3.2650217e-32
15	0x1c2e613e	5.7697453e-22
16	0x0003fdbb	3.66528e-40
17	0x0005aed7	5.21898e-40
18	0x09594bea	2.615612e-33
19	0x99bb0960	-1.9339133e-23
20	0x0bb25381	6.868875e-32
21	0x9f982845	-6.4441124e-20
22	0x2a16820d	1.3367797e-13
23	0x8f975179	-1.4921132e-29
24	0x2c0170d1	1.8394628e-12
25	0x2d032c83	7.4563715e-12
26	0x00211aa0	3.040123e-39
27	0x8000200d	-1.1498e-41
28	0x2692201e	1.013949e-15
29	0xa7eeb5e7	-6.625549e-15
30	0x8002148d	-1.91043e-40
31	0x0003dc9a	3.54643e-40
32	0x1337afb4	2.3184476e-27
33	0x8e488d5c	-2.4719965e-30
34	0x00020ef2	1.89032e-40
35	0x00021bd0	1.93648e-40
36	0xac311c3f	-2.5168893e-12
37	0x0cb0c187	2.7233569e-31
38	0xab72fa83	-8.6323326e-13
39	0x000347e0	3.0129e-40
40	0x0e2df926	2.1443857e-30
41	0x000d5ba7	1.22674e-39
42	0x9c7f3935	-8.444636e-22
43	0x0d278cc1	5.1630274e-31
44	0x8002b946	-2.50135e-40
45	0x001b4359	2.503718e-39
46	0x88c3527a	-1.1755526e-33
47	0x800209b7	-1.87156e-40
48	0x80006d0a	-3.9116e-41
49	0x8000d47f	-7.6229e-41
50	0x2dd7eb31	2.4547116e-11
51	0x000037da	2.0036e-41
52	0x0000cab9	7.2723e-41
53	0x0003d4f2	3.51897e-40
54	0x2d0623c2	7.624958e-12
55	0x0b844d68	5.096102e-32
56	0x0a3666aa	8.78229e-33
57	0x2b877ef5	9.627565e-13
58	0x0b18d8af	2.943715e-32
59	0x8000b944	-6.6461e-41
60	0x80065593	-5.81711e-40
61	0x8add2c08	-2.1298089e-32
62	0x821a19e4	-1.1321563e-37
63	0x80024ca1	-2.1116e-40
64	0x00034575	3.00423e-40
65	0x8000bd04	-6.7806e-41
66	0x3078b21a	9.047497e-10
67	0x00017589	1.33999e-40
68	0x00030e94	2.80736e-40
69	0x193c2c89	9.728366e-24
70	0x9116c5d2	-1.1893872e-28
71	0x240f7570	3.1107656e-17
72	0xaa9c48e5	-2.7761747e-13
73	0xb7ab71df	-2.0437814e-05
74	0x30815173	9.409135e-10
75	0xa8b1a9f0	-1.9724646e-14
76	0x1296b9a5	9.512096e-28
77	0x806a9f10	-9.791623e-39
78	0xb04a7959	-7.365962e-10
79	0x12817dcf	8.172059e-28
80	0x1811110d	1.874942e-24
81	0x27b797be	5.0957223e-15
82	0x8292b2b0	-2.1555333e-37
83	0x842cbb5f	-2.030454e-36
84	0x000081fb	4.6628e-41
85	0x997ac8bc	-1.2965235e-23
86	0x2eec493a	1.0745045e-10
87	0x0e772af3	3.046578e-30
88	0x2aa7d5bb	2.9813465e-13
89	0xa6225d9a	-5.6331894e-16
90	0x8002dbf5	-2.62577e-40
91	0xa0f915f8	-4.2196778e-19
92	0x0ecfd0c3	5.123047e-30
93	0xafa82f50	-3.059264e-10
94	0x80259259	-3.450413e-39
95	0x800114c0	-9.9279e-41
96	0x159ca843	6.327337e-26
97	0x8000711b	-4.0575e-41
98	0xafdfea1c	-4.0729808e-10
99	0x89569c64	-2.5832848e-33

network.layer_3.bias f4 [10]
0	0x0ab31ff2	1.724909e-32
1	0x80026b46	-2.22153e-40
2	0x91383ec4	-1.4534382e-28
3	0x80378594	-5.098871e-39
4	0x2c4d2880	2.9154734e-12
5	0x25a018eb	2.777246e-16
6	0xa10294e3	-4.4242763e-19
7	0xa2348f88	-2.4470534e-18
8	0xac4908d5	-2.856872e-12
9	0x80026b73	-2.22217e-40

network.batch_norm_3.weight f4 [10]
0	0x3d500550	0.050786316
1	0x3d500550	0.050786316
2	0x3d500550	0.050786316
3	0x3d500550	0.050786316
4	0x3d500550	0.050786316
5	0x3d500550	0.050786316
6	0x3d500550	0.050786316
7	0x3d500550	0.050786316
8	0x3d500550	0.050786316
9	0x3d500550	0.050786316

network.batch_norm_3.bias f4 [10]
0	0x00000000	0.0
1	0x00000000	0.0
2	0x00000000	0.0
3	0x00000000	0.0
4	0x00000000	0.0
5	0x00000000	0.0
6	0x00000000	0.0
7	0x00000000	0.0
8	0x00000000	0.0
9	0x00000000	0.0

network.batch_norm_3.running_mean f4 [10]
0	0x00000000	0.0
1	0x00000000	0.0
2	0x00000000	0.0
3	0x00000000	0.0
4	0x00000000	0.0
5	0x00000000	0.0
6	0x00000000	0.0
7	0x00000000	0.0
8	0x00000000	0.0
9	0x00000000	0.0

network.batch_norm_3.running_var f4 [10]
0	0x3f800000	1.0
1	0x3f800000	1.0
2	0x3f800000	1.0
3	0x3f800000	1.0
4	0x3f800000	1.0
5	0x3f800000	1.0
6	0x3f800000	1.0
7	0x3f800000	1.0
8	0x3f800000	1.0
9	0x3f800000	1.0

network.layer_4.weight f4 [3, 10]
0	0x00004a40	2.6636e-41
1	0x8d41e870	-5.9752503e-31
2	0x24a31856	7.073121e-17
3	0x20f41cfa	4.1354383e-19
4	0x2f914580	2.642473e-10
5	0x0f9876de	1.5034143e-29
6	0xabb7a309	-1.3048183e-12
7	0xa78cfb25	-3.9130097e-15
8	0xad9705a5	-1.716922e-11
9	0x8d2851de	-5.186754e-31
10	0x8001882f	-1.40689e-40
11	0x0bbceb96	7.2769436e-32
12	0x0041e1d5	6.05032e-39
13	0xace0bfbb	-6.3877493e-12
14	0x8a2d201d	-8.335687e-33
15	0x80000985	-3.415e-42
16	0x8e6a1552	-2.8852992e-30
17	0x8000b248	-6.3955e-41
18	0x865645fe	-4.030035e-35
19	0x0a2b7688	8.255644e-33
20	0x2e1c3f74	3.552665e-11
21	0x80027af0	-2.27773e-40
22	0xb000129e	-4.6592585e-10
23	0x000226c1	1.97573e-40
24	0x000192d7	1.44512e-40
25	0xab89a8a5	-9.781244e-13
26	0x071a53b3	1.1610269e-34
27	0x8e15508f	-1.8404456e-30
28	0x2dbf5c25	2.1755106e-11
29	0x00000037	7.7e-44

network.layer_4.bias f4 [3]
0	0xad999fb2	-1.7465005e-11
1	0x00008a98	4.9718e-41
2	0xab015524	-4.5948163e-13
