code/weights/model.pt (torch, 16000 bytes, 4 tensors)

network.layer_1.weight f4 [40, 4]
00000000: 6873 b7be 207a debd 6c4a 233e 1012 f33d
00000010: dc6f 8fbe 9014 41bd c08a c83d b4c9 cebe
00000020: 60b3 abbc 74ab 393e 22e8 bb3e 26c6 e63e
00000030: 5051 55bd 6c2d 79be fe84 adbe 8017 9fbd
00000040: 0003 023b fc89 9dbe ecae 8dbe 60ec cbbd
00000050: 1cd1 abbe 5013 da3d 4847 30be 3041 133d
00000060: 689b 20be b8c6 c73d 8084 24bd b8eb a8be
00000070: 4841 f43e 44e6 59be 40da 9b3e 240b 45be
00000080: d2eb c33e e03f 38bd e202 b3be 0c1a b73e
00000090: f417 a43e 7c26 f63e 2e55 8fbe c2fc a23e
000000a0: 68ae db3e 4078 99bc 342a 023e ec8e 4bbe
000000b0: d281 d23e 70e4 a93e 681c 823e b084 e73e
000000c0: 284f eebd fe62 9f3e 7e24 a9be 54ab 093e
000000d0: 3825 823e 1851 bc3e dee7 993e 706d 993e
000000e0: 7843 613e bea7 c3be 8ecf 9abe 3c50 ad3e
000000f0: 2600 953e 6c73 f03e 18ac d23d 44fb d3be
00000100: 5448 6d3e 848c 623e 1441 d33e 4838 2fbe
00000110: 08b8 f6be 5692 eb3e cee9 fcbe f42a 843e
00000120: 6240 dabe ea1e a63e 3c48 cbbe da54 a23e
00000130: a68c d23e a0fa a9be 5a10 d83e 9028 d03e
00000140: d0e6 fbbe 5c9d c83e 0e73 cbbe 809c 9e3d
00000150: 0a9e dd3e c20d 85be 6860 24be 7c60 623e
00000160: aabd af3e b43d 803e 12f1 e1be 54d9 f9be
00000170: 2eea cc3e 32ae cdbe b046 143d 54b1 433e
00000180: a478 76be 8032 e83e 58b9 e8bd d064 94bd
00000190: 566c ba3e 5009 72bd a869 81bd e0f9 f5bc
000001a0: 5c57 13be feca 933e 003c 0abb 3809 e3bd
000001b0: 7465 24be 94fa ca3e ee5c ac3e 1879 b73e
000001c0: 601c 19bd 2cec 9c3e 32e9 943e 9896 fcbe
000001d0: 4e60 e5be 925b f53e 7070 58bd 80a8 d53e
000001e0: 5898 eb3d 881a 74be 6827 923d 088d babd
000001f0: c0fa 573d 40aa 2fbe c088 003e 563a 9dbe
00000200: 942b d2be 103e 9e3d 6818 bf3e ac06 cbbe
00000210: ce68 8e3e 280a f43d a8ce eebe 28fd 97bd
00000220: c401 1a3e 7602 cebe d06b c83d 2cb4 273e
00000230: 3406 3ebe aae0 e2be e2df ef3e 5007 803e
00000240: 9880 f23e 10e0 7abe 70f1 57bd b0b3 43be
00000250: d0da 28be e08a bf3d cc7c c93e 44c8 b53e
00000260: 2c15 613e b886 a83e 8408 cabe aa87 8a3e
00000270: 9053 bd3e e2cb a83e 2a92 e53e 3425 d23e
-0.35830235 -0.10863137 0.15946358 0.118686795 -0.2801503 -0.04713875 0.097920895 -0.40388262
-0.020959556 0.1813181 0.3670054 0.4507305 -0.0520795 -0.24333733 -0.33890527 -0.07768154
0.0019838214 -0.30769336 -0.27672517 -0.09957194 -0.33557975 0.10648215 -0.17214692 0.03595084
-0.15684283 0.097546995 -0.040165424 -0.3299234 0.47706056 -0.21279246 0.3043995 -0.19242531
0.38265854 -0.04498279 -0.34963137 0.3576206 0.32049525 0.48076236 -0.27994674 0.31833464
0.429065 -0.018734097 0.12711412 -0.19878739 0.4111467 0.33182096 0.25412297 0.4521842
-0.116361916 0.31130213 -0.33035654 0.13444263 0.2541902 0.3678062 0.30059713 0.29966307
0.21998394 -0.38213915 -0.30236477 0.33850276 0.29101676 0.4696306 0.102867305 -0.41402638
0.23172122 0.22123915 0.41260588 -0.17111313 -0.4818728 0.46010083 -0.4939713 0.2581402
-0.42627245 0.3244546 -0.39703548 0.31705362 0.4112293 -0.33199024 0.42199975 0.40655947
-0.49199533 0.39182556 -0.39736217 0.07744694 0.43284637 -0.2598706 -0.16052401 0.22107118
0.3432439 0.25047076 -0.44129235 -0.4879862 0.40022415 -0.40171963 0.036200225 0.19110614
-0.24069458 0.45351028 -0.113634765 -0.07245791 0.3641078 -0.059090912 -0.063189805 -0.030026376
-0.14388794 0.28865808 -0.0021092892 -0.11085743 -0.16054326 0.396443 0.3366465 0.35834575
-0.037380576 0.30648935 0.29084164 -0.49333644 -0.44800037 0.47921425 -0.052841604 0.41730118
0.11503667 -0.23838246 0.071364224 -0.09108931 0.05272937 -0.17154789 0.12552166 -0.3070857
-0.41048872 0.07726681 0.37323308 -0.39653528 0.27814335 0.11916 -0.4664204 -0.074213326
0.15039736 -0.40236253 0.097861886 0.16377324 -0.18557054 -0.4431203 0.46850497 0.2500558
0.47363734 -0.24499536 -0.052720487 -0.19111514 -0.1648972 0.0935266 0.39353025 0.35504353
0.21980733 0.32915282 -0.39459622 0.27056628 0.36977816 0.3296805 0.44838077 0.4104401

network.layer_2.weight f4 [40, 40]
00000000: b0fb 16bd e671 05be 96bb 5bbd 82bf dd3d
00000010: 680a 1fbd 186e 913d 5088 5b3d 54a9 ebbd
00000020: c03f fa3b a638 e33d 0be1 0e3e 4e9d e0bd
00000030: e85d 263d 80d4 c33c be42 e03d 38de 2b3d
00000040: c3c0 01be 2447 083d 84a1 07bd aa2e dd3d
00000050: 8577 b7bd 0007 14ba 6071 6d3d f615 03be
00000060: 2fc6 053e f0e1 6abd 52c7 fd3d 1daf 17be
00000070: 7d08 bcbd 5e34 b03d 467c 17bd f088 003c
00000080: e7a2 0a3e 20ec b43d f0b3 333c 0800 f2bd
00000090: 6cf3 0bbe 5145 1fbe a81d 843c 78cf 81bc
000000a0: e61d dabd 4652 ae3d a653 ed3d 0bd8 153e
000000b0: fd75 20be 69a0 033e 10ab 79bc e8e7 a9bc
000000c0: 700f 9dbc c8d3 ecbd bc1e a93d 8e0b 843d
000000d0: 6a81 db3d 9cd5 683d 91fb 0c3e 73d2 84bd
000000e0: 1619 93bd a46a 8e3d 4027 6dbb 21cd dfbd
000000f0: a022 d1bc ca82 f43d 680e 17be 9034 ffbc
00000100: ea6d c23d 147f 4dbd 406b 7abc 46bb 45bd
00000110: 4f65 0b3e 34a8 f6bd b144 14be 7df9 133e
00000120: f4a4 6bbd cb42 203e 68d9 94bc acce a93d
00000130: 2c56 44bd 884d bc3c f88f 0dbe 88a6 a3bc
00000140: f8fa aabc 705b cebd 80f7 2c3b 00f7 ba3d
00000150: 9a4b 32bd 8e9e 7cbd 64ae 91bd be9b 99bd
00000160: 92f0 bf3d c23a 8c3d 9ef3 df3d 588c 513d
00000170: e4d8 1dbd 8a55 b83d 5555 0a3e 3805 173d
00000180: 80f2 c5bb 81fb c0bd c037 263c ae9b 77bd
00000190: 1eac df3d eac7 cbbd 27df 00be c27c c93d
000001a0: 1b50 1a3e 00ec c7bd c2b4 d03d 708c 5abc
000001b0: 8ca1 cdbd c476 21bd 7658 e03d 4695 803d
000001c0: 38ab 13be 80f5 983b 00c6 dabc 80bc ab3d
000001d0: 00b7 a6bc b893 b13d 884d aa3d 1ced 923d
000001e0: e879 5c3d 4a78 ec3d c095 cdbb 8000 fb3c
000001f0: e67a b33d 46b9 bb3d e8fb af3c e2ce a3bd
00000200: 8bb5 053e 1044 af3d c07a ab3d 58c4 903d
00000210: 50a2 c83c e153 0cbe e67d d73d ac45 4bbd
00000220: c0a9 103d 9618 2bbd 31f9 123e 9c9d 7f3d
00000230: 0ccf 0b3d 6488 713d 98e5 f5bd 1af9 ed3d
00000240: e623 d43d ec51 573d 209f 6bbc 93bd 203e
00000250: 24bf 323d 70f8 c7bc 7a63 cc3d e874 b3bd
00000260: 5e8b 5dbd 63b6 1d3e fc45 13be 208e 37bc
00000270: 7cc5 61bd 2e24 c8bd bcbb 03be 445b 143d
00000280: 14de 723d 9002 f23c 9aa3 fd3d e010 67bd
00000290: 63ea 96bd a6e4 d4bd c4e0 1bbd a084 973b
000002a0: 00eb a33d 4e3b b63d d097 083c fa45 903d
000002b0: cd0e 033e 3649 dfbd 16d8 803d 303d 87bd
000002c0: 5bae 1e3e 0fac 01be 38f5 11be c35f 023e
000002d0: 0a40 ed3d c935 afbd 6e5e d1bd 7b21 0c3e
000002e0: b072 5f3c f0fe 92bd 6c1a d9bd 60dd a4bc
000002f0: 3c2b a13d 5095 623c f4b4 03bd 4076 4dbb
00000300: 9478 173d 2416 5e3d beda e13d 3cdc 763d
00000310: 844a 3bbd 6257 cb3d 4207 db3d a86a 1d3d
00000320: aacf e2bd 5a85 e2bd fc56 b43d c05a a4bc
00000330: d483 813d 6d66 02be 0060 db3b c074 a33d
00000340: c078 663b 8dc6 99bd 689e 9abd 0084 a23d
00000350: 8034 3e3d f329 0cbe e043 a6bc ec74 e9bd
00000360: f86e 12be 8c98 b23d 9fc2 1c3e 4b0c 153e
00000370: e98b 153e ae9d 10be 94d1 07be 1256 ffbd
00000380: f8b0 3f3d 1f47 1f3e 5b15 08be 558f 143e
00000390: c06c a03d 00d3 2a3d 4265 ca3d d2f9 e43d
000003a0: 8c13 4c3d 7b68 97bd dc2b 573d 1888 083d
000003b0: eee0 be3d d6a7 1dbd e0ef f33b 04cf 863d
000003c0: c275 d73d 4646 dc3d 2165 213e ff7a 023e
000003d0: f255 9e3d 0fd4 b9bd 5222 863d 00f2 ad39
000003e0: e0df ebbc 76f4 dc3d b689 83bd 1485 703d
000003f0: a502 21be 668b d93d 2438 0b3d a8e8 b23c
-0.03686112 -0.1303173 -0.053645693 0.10827543 -0.038828284 0.07101077 0.053596795 -0.11506906
0.007636994 0.11094789 0.13953035 -0.109675035 0.0406169 0.023905039 0.1095023 0.04195997
-0.12671189 0.03327097 -0.033113018 0.10799916 -0.089583434 -0.0005646795 0.05796945 -0.12801346
0.13063882 -0.057344377 0.12391533 -0.14812894 -0.091813065 0.08603738 -0.03698375 0.007845148
0.13538705 0.088341 0.010968193 -0.11816412 -0.13667077 -0.15553786 0.016127422 -0.015846
-0.10650234 0.08511786 0.1158822 0.14633195 -0.15670009 0.1285416 -0.015238538 -0.020740464
-0.0191724 -0.115638316 0.08257815 0.064475164 0.10718043 0.05684434 0.1376784 -0.064854525
-0.07182519 0.06953934 -0.0036186725 -0.10927797 -0.025529206 0.119390085 -0.1475159 -0.031152993
0.09493621 -0.05017002 -0.015284359 -0.0482743 0.13612865 -0.12043801 -0.14479329 0.14450641
-0.05753036 0.1565048 -0.018170074 0.08291373 -0.047933742 0.022986189 -0.13824451 -0.01997687
-0.020871624 -0.10076034 0.0026392639 0.09129143 -0.04352913 -0.061674647 -0.071133405 -0.075004086
0.09372057 0.06847145 0.10935138 0.051159233 -0.03853692 0.0900069 0.13509114 0.03687021
-0.006040871 -0.094229706 0.010145128 -0.060451202 0.109215006 -0.0995024 -0.12585126 0.09838249
0.1506962 -0.0976181 0.10190727 -0.013339147 -0.10040578 -0.039419904 0.109543726 0.06278472
-0.14420784 0.0046679378 -0.026705742 0.08385563 -0.020350933 0.08670753 0.08315569 0.07174131
0.053827196 0.11546381 -0.006273955 0.030639887 0.087636754 0.091661975 0.021482423 -0.07998444
0.13057534 0.08557904 0.08373022 0.070686996 0.02449146 -0.13703872 0.1052206 -0.04962699
0.035318136 -0.041771494 0.14352871 0.062406167 0.034133002 0.058967963 -0.12006682 0.11619778
0.103584096 0.05256836 -0.0143812 0.15697317 0.043639317 -0.024410456 0.09979911 -0.087625325
-0.05408799 0.15401606 -0.14382166 -0.011203319 -0.055119976 -0.09772526 -0.12864584 0.03621985
0.05929382 0.029542238 0.1238472 -0.056412578 -0.073689245 -0.10395174 -0.03805615 0.0046239644
0.08003807 0.0889803 0.008336976 0.07044597 0.12798615 -0.10902636 0.06291215 -0.066034675
0.15496199 -0.12663291 -0.142537 0.12731843 0.1158448 -0.085551806 -0.10223089 0.13684647
0.0136381835 -0.07177532 -0.10600743 -0.020125091 0.078695744 0.013829544 -0.032154992 -0.0031351
0.036980227 0.054220334 0.1102805 0.060268626 -0.04572536 0.09928776 0.10694744 0.038431793
-0.11074765 -0.11060591 0.088056535 -0.020062804 0.06323972 -0.12734385 0.0066947937 0.07981253
0.0035167187 -0.07508574 -0.07549745 0.07935333 0.046436787 -0.13687877 -0.020296037 -0.11399254
-0.14300144 0.08720502 0.15308617 0.1455547 0.14604153 -0.1412265 -0.13263541 -0.124675885
0.04679963 0.15554474 -0.13289396 0.14507802 0.078332424 0.04170513 0.09882595 0.11180462
0.04982333 -0.07392975 0.052532062 0.033332914 0.09320246 -0.03849014 0.007444367 0.06582454
0.105205074 0.10755591 0.15761234 0.12742232 0.077312365 -0.0907365 0.06549515 0.00033177435
-0.028793275 0.10788815 -0.06422751 0.058720663 -0.15723665 0.10622291 0.033989087 0.021839455

network.layer_3.weight f4 [40, 40]
00000000: 40cb 183c 6617 1abd 403d f13b 807c 943a
00000010: 7609 f93d d117 a9bd 7ebb b4bd 6ab5 943d
00000020: cfbc 06be 2233 f83d 4077 1ebc 6707 163e
00000030: 4c09 02bd cc62 7a3d ca9a 47bd fce6 ebbd
00000040: 690d c1bd 05bc 1fbe eba4 f4bd 8e1e 1bbd
00000050: 7a4f e13d aef4 20be 20df 203d 3c61 903d
00000060: 4777 08be 0258 e23d 8a3f 20be 00e3 60ba
00000070: 9ae8 fd3d 8c47 ac3d 92d2 e13d 0727 b3bd
00000080: c0cb d5bb c8e6 983c 08d8 8a3d f84d 7c3d
00000090: 4a03 09be 30bf 1bbc 4ae5 e13d 093a b7bd
000000a0: a08d 7b3d 101b f4bc 281d 213d 6bbb d5bd
000000b0: 70ce d6bc 216c 1e3e 512e d1bd 21cd 1b3e
000000c0: aa92 ddbd 23f9 093e cb0b 08be 46dc 12be
000000d0: aa96 e63d 3c5d 483d 26de f73d c074 7b3d
000000e0: f0b7 293c 7eda 973d 4cb0 4bbd fbd3 07be
000000f0: c09b 92bb d6d0 f4bd a0f7 253c f733 babd
00000100: 3cee 31bd f81f e8bc 3b15 10be 7804 373d
00000110: 2062 bcbb 7c56 4a3d 1022 353d 78c9 9a3c
00000120: 8011 f1bc 888b 03bd 6078 ee3c 97c6 083e
00000130: 006c 1fb9 5a7e f9bd 5f32 133e e82a 873d
00000140: 0ec2 ca3d 08a9 03bd 1e71 8abd 68a8 17bd
00000150: 6463 a2bd da16 f4bd 8e3e d63d 01ab c5bd
00000160: 2056 c13c 2cb5 0a3d 62a5 0abe ff85 19be
00000170: 16f2 d23d d29d d0bd e6fa ea3d 3e55 cc3d
00000180: 5c18 b93d 34b3 943d 9038 953c f0e4 b23d
00000190: b8b8 893c 60ff 4fbc 1a11 e83d 00e4 16ba
000001a0: 031c dfbd f5e4 0c3e a610 1fbd 40d6 1bbd
000001b0: ebeb 0a3e a4d8 543d 0896 3f3d 0e0a e03d
000001c0: ac09 6fbd 0944 023e 3357 10be 8076 d9bc
000001d0: 325a e23d 3f38 003e 7cb0 17be 6db6 0abe
000001e0: 1009 2abc 1651 4abd ea40 04be 2cf8 953d
000001f0: a2bd 12be a0f9 9ebd 9d50 083e 2895 903c
00000200: 7cfb 953d ba2e 0bbe 5c78 6b3d a570 0ebe
00000210: 5cd9 a0bd 9942 20be 0d41 003e 4819 003d
00000220: 4070 3dbb ee67 923d a2b6 f0bd b689 813d
00000230: 8f61 023e 8801 193d a56f 9dbd bf94 0e3e
00000240: 207f 353c 488e a63d 978c 183e 666f f03d
00000250: 6687 c8bd 250e c2bd a874 08be 08b8 223d
00000260: 002b 87ba c942 f0bd 4efb e3bd c398 113e
00000270: b81b 7dbd d479 8f3d 2d14 d4bd 8232 9b3d
00000280: e056 92bb 6a5c dabd 204e 943d 589e a63d
00000290: bc71 fbbd 9c42 19be 3493 dcbd 4564 1f3e
000002a0: e272 f13d 923c ca3d 009b a0bb 75b3 14be
000002b0: bf0b 06be 6c2f 603d b61e 883d e017 e03c
000002c0: 9b96 103e 5805 f43c 1c1f a73d b10f fbbd
000002d0: f079 d73c 6229 5dbd 1e57 8f3d 6e82 cb3d
000002e0: 666f 3fbd f068 a23d a086 183c f0a4 2f3d
000002f0: be1d c73d 0660 e0bd 4b67 093e c098 563d
00000300: b8e4 70bd 649b 04bd a8c7 d5bc 46d4 49bd
00000310: ba2a f1bd 4e02 ffbd 8f4b 133e 32c4 85bd
00000320: cf44 123e 1f6e 133e fc88 4b3d 62bf db3d
00000330: aa65 21bd d0a9 e03c 689a 00bd d7b7 093e
00000340: 0471 b0bd b8bd 9ebc a239 c1bd 703f 203c
00000350: 044f 673d 0cf5 05bd 4ba7 b7bd 65de 103e
00000360: d631 40bd 8de4 213e f07b adbd 7853 debc
00000370: b063 ec3c 6baf 14be bcee bebd 9282 09bd
00000380: c05e 483b d82a 1f3d f060 21be 99ba 18be
00000390: 1123 0e3e 243e 243d 5fb1 e9bd b428 473d
000003a0: dc9a 6d3d 7df3 d8bd 03a4 87bd 66b9 c1bd
000003b0: 7349 0cbe fb08 073e 0294 983d 2895 af3c
000003c0: 4a2b 79bd 8294 ac3d 68ac a03c f0ec 22bd
000003d0: f07e ffbd 7a23 e33d 0eb9 f3bd 6638 df3d
000003e0: b4d7 1e3d 4654 bd3d 50b9 32bc 3551 133e
000003f0: f016 463d 6012 9f3c 9060 2c3c 434c 12be
0.009325802 -0.03761997 0.007362038 0.0011328608 0.12160008 -0.08256496 -0.08824824 0.072611645
-0.13157962 0.12119128 -0.009671986 0.14651261 -0.031747147 0.061129376 -0.048731603 -0.11518666
-0.09426386 -0.15599068 -0.11945518 -0.037870936 0.11001487 -0.15718338 0.03927529 0.07049796
-0.1332675 0.110519424 -0.15649238 -0.00085787475 0.12397881 0.08412084 0.11026491 -0.08747678
-0.006524533 0.018664733 0.06779486 0.061597794 -0.13380161 -0.009506032 0.110300615 -0.08946616
0.06141436 -0.02979806 0.039334446 -0.10436138 -0.026221484 0.15470935 -0.10213912 0.15214969
-0.108189896 0.13473944 -0.13285749 -0.1434184 0.11259206 0.04891704 0.12102918 0.06139064
0.0103587955 0.07414721 -0.049728677 -0.13264458 -0.0044741333 -0.11953895 0.010129839 -0.09091943
-0.04344009 -0.028335556 -0.14070599 0.044681996 -0.005749002 0.049398884 0.044221938 0.018894896
-0.02942729 -0.03211549 0.029110134 0.13357006 -0.00015203655 -0.12182303 0.14374684 0.065999806
0.09900294 -0.032143623 -0.06759857 -0.03702584 -0.079291135 -0.11918421 0.1046115 -0.09651757
0.023600638 0.033864185 -0.13539651 -0.14992522 0.103000805 -0.10186352 0.11473636 0.09977196
0.09037849 0.07260743 0.018215448 0.087350726 0.016811714 -0.0126951635 0.11331387 -0.00057560205
-0.10894015 0.13759215 -0.038834237 -0.03804612 0.13566558 0.051964417 0.04677394 0.10939418
-0.058358833 0.12721266 -0.14095764 -0.026545763 0.1105236 0.12521456 -0.14813417 -0.13546152
-0.010378137 -0.049393736 -0.12915388 0.07322726 -0.14330152 -0.07762456 0.13312002 0.017649248
0.073233575 -0.13592044 0.05748783 -0.13910158 -0.07853958 -0.15650405 0.12524815 0.03127411
-0.0028906018 0.07148729 -0.117535844 0.063250944 0.12732528 0.037354976 -0.0768731 0.1392393
0.011077672 0.08132607 0.14897381 0.117399976 -0.0979145 -0.09475354 -0.13325751 0.039726287
-0.0010312498 -0.11731488 -0.11131917 0.1421843 -0.061794013 0.07005659 -0.10355411 0.07577993
-0.0044659227 -0.10662158 0.07241464 0.081356704 -0.122775525 -0.14966816 -0.10770264 0.15565594
0.1178949 0.09874834 -0.00490129 -0.14521582 -0.13090418 0.054732725 0.06646483 0.027355134
0.14119951 0.029787704 0.081602305 -0.12258852 0.026303262 -0.053994544 0.06999038 0.09936987
-0.046737097 0.079301715 0.009309441 0.042881906 0.0972247 -0.10955815 0.1341831 0.052391768
-0.058811873 -0.032374755 -0.02609618 -0.049274705 -0.117757276 -0.124516115 0.14384292 -0.06531562
0.14284061 0.14397477 0.049691185 0.10729863 -0.039403595 0.027424723 -0.031397253 0.13449036
-0.08615306 -0.019377574 -0.09434821 0.00978075 0.05647184 -0.032704398 -0.089674555 0.14147337
-0.046922527 0.15809841 -0.08470905 -0.02713941 0.028856128 -0.14520042 -0.09322879 -0.033571787
0.0030574054 0.03885922 -0.15759635 -0.14914931 0.13880564 0.040098324 -0.11410784 0.048622802
0.058009014 -0.10593317 -0.0662308 -0.0945919 -0.13699894 0.1318702 0.07450105 0.021433428
-0.0608323 0.08426763 0.01961346 -0.039776742 -0.12475383 0.11090751 -0.11900531 0.10899429
0.03877993 0.092445895 -0.01090844 0.14386447 0.04836172 0.019417942 0.010521069 -0.14286904

network.layer_4.weight f4 [3, 40]
00000000: f687 e73d 1121 0ebe 5032 0d3d e86b ecbc
00000010: 54d4 6a3d 205e c1bb 606e 2a3d ac02 0abe
00000020: c85f c83c f0fa 2c3c c61c 5bbd a353 0fbe
00000030: 0be9 c0bd 1c9b 7e3d 51c7 20be 00b9 1f3d
00000040: 00fc 523a a4af 853d a82a 83bc b875 3f3d
00000050: 2041 18bc 8041 c43a 1860 11bd 1238 c13d
00000060: 101d 58bc 04f1 973d 107a 013c c07d 5a3b
00000070: 35c4 0c3e 5056 1a3c b4af 13be 2044 7c3c
00000080: a47b babd 768d e33d d020 80bc 549f 22bd
00000090: 6a58 82bd 56a1 ca3d 00fa 95bb 5038 95bc
000000a0: 7d68 093e 0094 5ab9 e8f5 1cbe 70cd 923d
000000b0: 3872 3f3d f8ee 09be 7001 973d 0588 083e
000000c0: c7b2 9cbd e4ce 223d 8d06 a4bd 5629 d13d
000000d0: 8a6b e73d 165c b33d 1dc8 043e c4f1 b1bd
000000e0: 55f4 88bd 4e25 8fbd e8e9 8a3c 9cde b33d
000000f0: 88ba b3bc 5867 93bc 84f2 a1bd bf3d 9ebd
00000100: 8c50 a2bd 8014 833b b2d9 ad3d 1fd4 023e
00000110: ca6c fb3d 1b80 86bd 5a6f 893d 16a4 e13d
00000120: a836 cebc 0020 9c3c 180b 29bd d6d8 ebbd
00000130: 60c7 7d3d 54fb adbd 376a 06be 880f 99bc
00000140: 1c93 b5bd d439 04be 3d89 08be 3fda 033e
00000150: 10a7 c4bc 51de 163e fc9a 6dbd a46a 2abd
00000160: 784e f73c 2f88 14be d095 13bc cd9a c1bd
00000170: 72f2 7ebd 203d 1dbd 1b95 213e 1efc e63d
00000180: ceb3 13bd 2501 8fbd 52df 22bd 6a79 d2bd
00000190: 4036 20bd 667f 14be 40cd 94bb 616a 8dbd
000001a0: 647d b7bd 4486 663d b076 b5bd c2f6 18bd
000001b0: 4b82 1f3e 924e f73d a9d1 dbbd 4d49 173e
000001c0: c178 053e a8ee a0bd 266d cbbd b0e1 883c
000001d0: 3675 f93d 4eef af3d dd50 1a3e a26f 8f3d
0.11305229 -0.13879801 0.03447181 -0.028860047 0.057331398 -0.005901113 0.041609168 -0.13477582
0.024459735 0.010557875 -0.053494237 -0.13996749 -0.094194494 0.062159643 -0.15701033 0.03899479
0.0008048415 0.065276414 -0.016011551 0.046743125 -0.009292871 0.0014973134 -0.035492033 0.09434523
-0.013190523 0.07419017 0.007902637 0.0033339113 0.13746722 0.009419993 -0.14422494 0.015397102
-0.09105614 0.11110966 -0.015640646 -0.03970273 -0.0636452 0.09894054 -0.0045769215 -0.018215328
0.13418765 -0.00020845234 -0.15328181 0.0716809 0.046739787 -0.13470066 0.07373321 0.13333137
-0.076512866 0.039748088 -0.08009062 0.10212962 0.11299808 0.087577984 0.12966962 -0.08688691
-0.06687228 -0.06989537 0.016957238 0.08782694 -0.021939531 -0.017993614 -0.07907584 -0.07726621
-0.07925519 0.0040002465 0.08488788 0.1277623 0.12276609 -0.06567403 0.06710692 0.11017625
-0.025172547 0.019058228 -0.041270345 -0.115159675 0.061957717 -0.08495203 -0.13126455 -0.018684164
-0.088659495 -0.12912685 -0.13333602 0.12876223 -0.024005443 0.14733244 -0.058009133 -0.041605607
0.030188784 -0.14505075 -0.009007886 -0.09453354 -0.062242933 -0.03838837 0.15779535 0.11278556
-0.036060147 -0.0698264 -0.039763756 -0.10277064 -0.039114237 -0.14501724 -0.0045410693 -0.06905056
-0.08959463 0.05628039 -0.088605285 -0.0373447 0.15577047 0.12075533 -0.10733349 0.14774056
0.13034345 -0.0785802 -0.09932928 0.016709179 0.12180559 0.085905656 0.1506991 0.07003714
