code/weights/model.pt (torch, 16000 bytes, 4 tensors)

network.layer_1.weight f4 [40, 4]
-0.1586873 -0.24740851 0.3291207 -0.4155749 -0.17697752 0.456486 0.22775155 -0.45808125
-0.4546575 0.21391559 0.1951204 -0.036337793 0.36882168 0.1465959 -0.067616284 -0.0033519864
0.26026964 -0.31378043 -0.45185602 -0.021232426 0.27453065 0.2637596 -0.4990986 0.48404062
-0.49857783 -0.38793433 -0.24275339 0.38836873 0.4823594 0.18562108 -0.34731835 0.47521544
0.058825374 0.34942997 -0.06843692 0.10585016 -0.33749986 0.4755746 -0.080675304 0.17032683
-0.102673054 0.28819376 0.19437063 0.12224358 -0.48873472 -0.42849183 0.3751439 0.044813335
0.31921393 0.0883472 0.30176002 -0.4812268 0.25563115 -0.19243795 -0.26333278 0.009863675
0.24939913 -0.21357429 0.057935596 -0.15111578 -0.22546613 -0.11876732 -0.31379765 0.1611824
0.31967765 -0.17980814 0.24639422 -0.032126665 0.06700802 0.08835918 0.44356954 0.49379832
-0.3865533 0.08712602 -0.32854873 0.19302332 0.3346557 -0.24685979 0.47457474 -0.3159023
-0.0064862967 -0.49979007 0.4454859 -0.43935257 -0.0056182146 -0.4697705 -0.11357081 -0.032359958
-0.2406196 0.2588957 0.48470032 0.32748133 0.33370304 -0.09428263 0.47474527 0.24122185
-0.16199416 -0.17338884 0.035352886 0.044645548 0.30644286 -0.12103045 -0.0807997 -0.17447877
-0.38857955 -0.24183768 0.28306073 -0.42862552 -0.28692573 -0.0609017 0.14569181 0.1798091
0.24012363 -0.25945097 0.07991463 0.4875453 -0.4963454 0.4736985 -0.18267018 -0.05558145
-0.36859012 0.25017846 0.12855393 0.07986444 0.35813653 0.18234617 0.22078466 -0.17971557
-0.40019923 -0.36093402 0.053801835 -0.023320854 0.26388806 -0.45291197 0.079791486 0.11228609
-0.10312384 0.21817392 0.086168766 0.18445688 -0.25836247 0.09036493 0.40398878 0.029294133
-0.04526794 -0.48926473 0.27403682 -0.085282564 0.3905328 -0.46680844 0.44083375 0.06243062
-0.49206722 -0.460483 -0.34919113 0.47046208 -0.49629682 0.4300204 -0.027527869 -0.11483884
00000000: ec7e 22be a858 7dbe 8282 a83e 3cc6 d4be
00000010: 9839 35be 88b8 e93e b437 693e a089 eabe
00000020: dec8 e8be b00c 5b3e a4cd 473e f0d6 14bd
00000030: 32d6 bc3e 3c1d 163e 687a 8abd 00ad 5bbb
00000040: 1042 853e d4a7 a0be ac59 e7be a0ef adbc
00000050: 488f 8c3e 800b 873e da89 ffbe 2cd4 f73e
00000060: 9845 ffbe 549f c6be 5894 78be 44d8 c63e
00000070: d0f7 f63e 7413 3e3e b6d3 b1be 704f f33e
00000080: e0f2 703d 7ce8 b23e a828 8cbd f8c7 d83d
00000090: c8cc acbe 847e f33e 1839 a5bd 286a 2e3e
000000a0: 4046 d2bd 228e 933e 1809 473e d85a fa3d
000000b0: 703b fabe 4863 dbbe dc12 c03e 308e 373d
000000c0: 0270 a33e 60ef b43d 4a80 9a3e 5c63 f6be
000000d0: 16e2 823e 740e 45be 8ed3 86be 409b 213c
000000e0: 7c62 7f3e 38b3 5abe e04d 6d3d 18be 1abe
000000f0: 98e0 66be 483c f3bd 16aa a0be 000d 253e
00000100: caac a33e a01f 38be c44e 7c3e 4097 03bd
00000110: 803b 893d a8f5 b43d 8c1b e33e 22d3 fc3e
00000120: 50ea c5be 206f b23d 8a37 a8be e8a7 453e
00000130: fe57 ab3e d0c8 7cbe 76fb f23e f2bd a1be
00000140: 008b d4bb 7ce4 ffbe ba16 e43e d2f2 e0be
00000150: 0019 b8bb c285 f0be d097 e8bd e08b 04bd
00000160: fc64 76be fa8d 843e a42a f83e a2ab a73e
00000170: 20db aa3e 4017 c1bd d011 f33e dc02 773e
00000180: cce1 25be d88c 31be 30ce 103d 40de 363d
00000190: 14e6 9c3e d0de f7bd 507a a5bd 90aa 32be
000001a0: e6f3 c6be 4ca4 77be 56ed 903e ce74 dbbe
000001b0: eee7 92be 1074 79bd 3c30 153e e01f 383e
000001c0: f8e2 753e c2d6 84be 48aa a33d 8a9f f93e
000001d0: fc20 febe 9c88 f23e e40d 3bbe 60a9 63bd
000001e0: d8b7 bcbe 6417 803e a4a3 033e f88f a33d
000001f0: ac5d b73e f4b8 3a3e 6015 623e 5c07 38be
00000200: eae6 ccbe 58cc b8be 505f 5c3d 600b bfbc
00000210: 561c 873e 14e4 e7be b869 a33d 40f6 e53d
00000220: 9832 d3bd fc68 5f3e 4079 b03d 44e2 3c3e
00000230: 1648 84be 4011 b93d 9ed7 ce3e 40fa ef3c
00000240: e06a 39bd e880 fabe 8e4e 8c3e a0a8 aebd
00000250: eaf3 c73e 8401 efbe f6b4 e13e 40b7 7f3d
00000260: 3cf0 fbbe 6ec4 ebbe 2ec9 b2be 68e0 f03e
00000270: 9e1a febe a22b dc3e 2082 e1bc a030 ebbd

network.layer_2.weight f4 [40, 40]
0.019499749 -0.14215338 -0.11052075 -0.031384945 -0.15096384 -0.044026136 -0.08795248 -0.09220764
0.009799257 -0.106210805 -0.091120735 0.12076299 0.099641815 -0.05213307 -0.11281186 -0.03941977
-0.11399248 -0.08421606 0.07955946 0.041758493 0.0024856776 -0.04446923 0.12314539 0.13966335
-0.056791566 0.09562917 0.119647786 0.12756474 -0.082244776 0.049434274 0.15699373 0.016194284
0.13582353 -0.00030522048 0.011565089 0.005711943 -0.0027687848 -0.07805547 0.070818365 -0.047348566
0.010073915 -0.033691086 -0.10651165 -0.051407225 0.113166615 -0.033954874 0.14737071 0.05216305
0.009576678 -0.015302002 -0.156984 0.15007304 -0.040440477 -0.09521377 0.107437 0.05911036
-0.096966445 -0.0874171 0.115191445 0.15558027 0.055319905 0.10019322 -0.153282 0.080414385
-0.15533279 0.14247005 -0.14496022 0.050214395 -0.042571224 0.11369194 -0.07174395 0.041084975
-0.12275617 0.012783527 -0.10748982 0.13605903 -0.078623496 0.15622427 -0.10071999 0.060716167
0.15648644 -0.063407555 -0.031003863 -0.113932565 0.05085565 0.09399457 -0.019709349 0.11246206
-0.1421965 -0.03598223 0.074592814 0.14141752 0.023828924 -0.07053784 -0.06433008 0.09676708
-0.03110899 -0.03908515 -0.044219047 0.1196108 0.11313529 -0.016162813 -0.1093633 0.05938603
0.108984604 0.03555365 0.14937012 0.06271151 -0.09796126 -0.029604033 -0.0835563 0.045359567
0.13510837 0.10204022 -0.122804604 0.10253815 -0.09593874 0.08221051 0.13839133 -0.02493465
0.0043028444 0.069753855 0.038285956 0.113339975 -0.09612578 -0.05559402 0.100113556 0.038153917
0.059882775 0.05034828 -0.0060925633 0.100531384 0.14342935 0.12961881 0.10677852 0.08690579
0.1233709 0.09631877 0.049775943 0.095666334 0.07944019 -0.06787325 0.024230748 0.07143752
-0.11178635 0.1571201 0.05532609 -0.020407408 0.12636043 0.014135942 -0.06489873 0.13514386
0.04192333 -0.03395406 -0.13700047 0.10304876 0.061437517 -0.06733544 -0.065663755 0.01650244
0.0015759766 -0.08946493 -0.10592565 -0.052311696 0.12246628 -0.044316344 0.023555547 0.0029295832
-0.12882362 0.0033043772 0.11105873 -0.065141305 0.05500914 0.021259487 0.00882861 -0.014853612
-0.07584398 0.06309621 0.03550525 -0.15538712 0.093663916 0.12179844 0.097672686 -0.08125825
-0.09284762 0.15529518 0.114852116 -0.09835486 0.15619092 0.048053116 0.021051228 -0.110615
0.045009106 0.10248841 -0.030239403 -0.044308163 0.011356935 0.06325184 -0.15261579 -0.09886462
-0.021377265 -0.03768579 0.07691169 0.07934578 0.035216197 0.019066304 -0.065667994 0.1273344
-0.15228783 0.056526497 -0.13125755 -0.14206754 0.09668432 0.0020625293 -0.045836657 0.1147023
0.10176675 0.026240617 0.049610585 -0.08392701 -0.0028544217 0.14770128 -0.00010357797 0.13845618
-0.07798491 0.032283396 0.038191423 -0.03558418 -0.1370822 -0.14192936 0.09207912 -0.04614289
0.03606473 0.07693532 -0.031923547 0.02867423 -0.12954943 0.047465906 -0.042173445 0.032085136
-0.11123316 0.121211484 -0.105311796 0.10405691 -0.031860635 0.12236123 -0.00985907 0.064948976
0.03783858 -0.08686188 -0.0321922 0.093657896 -0.10861504 -0.023733512 -0.1471936 0.08970387
00000000: f0bd 9f3c a890 11be b458 e2bd 808d 00bd
00000010: 4496 1abe c054 34bd 6e20 b4bd 5cd7 bcbd
00000020: 108d 203c 0d85 d9bd 829d babd 9652 f73d
00000030: 0211 cc3d 7c89 55bd e809 e7bd a076 21bd
00000040: e474 e9bd 7879 acbd 12f0 a23d f40a 2b3d
00000050: c0e6 223b 5e25 36bd a633 fc3d e903 0f3e
00000060: 469e 68bd 3ad9 c33d e609 f53d 55a0 023e
00000070: f36f a8bd 987b 4a3d f7c2 203e e0a9 843c
00000080: 5315 0b3e 0006 a0b9 807b 3d3c 402b bb3b
00000090: 8074 35bb 8cdb 9fbd 3809 913d 92f0 41bd
000000a0: 100d 253c aaff 09bd c822 dabd 6290 52bd
000000b0: e6c3 e73d 4414 0bbd 59e8 163e eca8 553d
000000c0: 80e7 1c3c 40b5 7abc 6ac0 20be bfac 193e
000000d0: eaa4 25bd 70ff c2bd ee07 dc3d b41d 723d
000000e0: 5896 c6bd bd07 b3bd 7ee9 eb3d 6f50 1f3e
000000f0: 2097 623d 1a32 cd3d f5f5 1cbe 4cb0 a43d
00000100: 8f0f 1fbe abe3 113e 7470 14be 9cad 4d3d
00000110: 2a5f 2ebd 52d7 e83d 7eee 92bd b848 283d
00000120: 9667 fbbd 0072 513c 9f23 dcbd 0f53 0b3e
00000130: 5b05 a1bd 41f9 1f3e 4846 cebd 84b1 783d
00000140: fb3d 203e d2db 81bd d0fb fdbc 7a55 e9bd
00000150: 044e 503d 3a80 c03d 8075 a1bc 8252 e63d
00000160: f69b 11be 1a62 13bd 1ec4 983d c1cf 103e
00000170: e034 c33c 2576 90bd 7dbf 83bd d22d c63d
00000180: 48d8 febc c017 20bd 081f 35bd 82f6 f43d
00000190: 7ab3 e73d e067 84bc def9 dfbd c43e 733d
000001a0: 5233 df3d b4a0 113d 7bf4 183e e46e 803d
000001b0: ea9f c8bd 2884 f2bc 911f abbd f4ca 393d
000001c0: d959 0a3e 76fa d03d fb80 fbbd 86ff d13d
000001d0: 887b c4bd fc5d a83d 75b6 0d3e c043 ccbc
000001e0: e0fe 8c3b 1cdb 8e3d bcd1 1c3d ca1e e83d
000001f0: 98dd c4bd 8eb6 63bd 5608 cd3d 4847 1c3d
00000200: a447 753d 003a 4e3d 20a4 c7bb 66e3 cd3d
00000210: 25df 123e cbba 043e b2ae da3d aafb b13d
00000220: e2a9 fc3d c642 c53d dce1 4b3d b6ec c33d
00000230: 8ab1 a23d 2101 8bbd 907f c63c d64d 923d
00000240: 3ef0 e4bd 17e4 203e 9c9d 623d 702d a7bc
00000250: a164 013e 709a 673c a0e9 84bd 2763 0a3e
00000260: ccb7 2b3d 6a13 0bbd da49 0cbe 3a0b d33d
00000270: e8a5 7b3d 2ae7 89bd b87a 86bd 2030 873c
00000280: 0091 ce3a 6439 b7bd 8cef d8bd ca44 56bd
00000290: 9acf fa3d 0e85 35bd 90f7 c03c 40fe 3f3b
000002a0: 57ea 03be 408e 583b c272 e33d ce68 85bd
000002b0: 4451 613d 6028 ae3c e0a5 103c 905c 73bc
000002c0: 1754 9bbd 9638 813d f46d 113d cd1d 1fbe
000002d0: ded2 bf3d 7671 f93d 9e08 c83d ba6a a6bd
000002e0: e526 bebd b305 1f3e 9637 eb3d 466e c9bd
000002f0: 83f0 1f3e 58d3 443d a073 ac3c 1e8a e2bd
00000300: 785b 383d 72e5 d13d a0b8 f7bc 7a7c 35bd
00000310: 7012 3a3c 2e8a 813d 5047 1cbe 8979 cabd
00000320: 601f afbc 6a5c 1abd e083 9d3d 0a80 a23d
00000330: dc3e 103d f030 9c3c f17c 86bd f363 023e
00000340: 57f1 1bbe 5488 673d 6168 06be 277a 11be
00000350: 6e02 c63d 802b 073b 38bf 3bbd 0ae9 ea3d
00000360: 166b d03d 90f6 d63c 7834 4b3d ede1 abbd
00000370: 4011 3bbb 013f 173e 0038 d9b8 75c7 0d3e
00000380: 8db6 9fbd 983b 043d 9c6e 1c3d b8c0 11bd
00000390: 475f 0cbe ee55 11be fa93 bc3d 5400 3dbd
000003a0: 9cb8 133d 4490 9d3d 44c2 02bd 38e6 ea3c
000003b0: 9ba8 04be 9c6b 423d 10be 2cbd b46b 033d
000003c0: 36ce e3bd ba3d f83d b6ad d7bd ca1b d53d
000003d0: 4c80 02bd 8698 fa3d f087 21bc f803 853d
000003e0: a0fc 1a3d a4e4 b1bd f8db 03bd b6cf bf3d
000003f0: 9071 debd c86c c2bc ebb9 16be aab6 b73d

network.layer_3.weight f4 [40, 40]
0.051712304 -0.03788323 -0.114312045 -0.15461779 0.048208088 0.062815756 0.15019374 -0.044657037
0.022536665 -0.039944835 -0.109470695 -0.119566336 -0.015813634 0.12894164 -0.10525567 0.04942727
0.003467083 0.0838099 0.1195095 0.061175257 -0.077452354 0.053426757 0.11200239 -0.14732628
0.0326802 0.094589934 -0.092674166 -0.07336836 0.04726343 0.10168697 0.04695593 -0.13729267
0.118054554 0.007939428 -0.10876615 0.08672738 -0.020282134 -0.05235169 0.13316067 -0.082110494
0.13457723 0.070105225 0.06813221 0.06552243 0.102904126 -0.11069505 -0.057288885 0.034308925
0.052282438 -0.08670474 0.108152315 -0.10938569 -0.14313903 0.09592499 0.07178481 -0.035278365
-0.053409383 0.15338714 0.14543505 0.07645896 0.039978117 0.08428872 -0.10676961 0.08923696
0.04675199 0.057958886 0.065754116 -0.03452702 0.10592155 0.10563867 0.003927231 0.123151824
0.12509783 0.049592003 -0.037098125 -0.0319037 -0.0064249337 0.037778124 -0.06390405 -0.1470722
0.0729703 -0.104716524 0.09620635 -0.05990926 0.02660957 -0.007426277 0.030529067 0.035034224
-0.13568692 0.024198264 -0.03866867 0.13540496 0.042035863 0.012515932 0.13508739 0.011645541
0.1324495 -0.12617385 -0.07851725 0.10460229 -0.07265907 0.12038036 0.13110329 0.00028409064
-0.14315577 0.059504658 0.007762432 -0.0040833503 0.072981045 0.0036388487 -0.027679518 -0.1575049
0.15248205 -0.056008704 0.15411754 0.09573908 -0.020158961 -0.0823147 -0.037659988 0.10516395
-0.11341344 0.104086414 -0.008521602 0.08246136 -0.117542595 -0.03900949 -0.08681878 0.11645953
0.057600304 0.124194995 0.12118904 -0.053815305 0.029981107 -0.123976745 -0.15216608 0.035429925
0.09616651 0.03100261 -0.12653214 -0.015174553 0.057273984 -0.03489855 -0.047014415 -0.062431574
0.037577912 -0.019893542 -0.10173993 0.102153435 0.071983576 0.04124929 0.04735957 0.13623182
0.06162393 0.1320806 -0.064006075 0.0023750365 -0.0049133897 -0.06543297 -0.043814108 -0.06505279
0.016057462 0.073624045 -0.12501827 0.042828187 0.09947346 -0.081079856 -0.0860747 0.08757645
-0.06236475 -0.04975561 -0.0055790246 -0.10767014 0.11266239 0.15528817 0.056377426 0.0032673776
-0.10008143 0.105917886 0.034574524 -0.13552627 0.062039122 0.13798334 0.042549327 -0.1347173
-0.075080596 -0.05957453 -0.15427788 -0.02733168 0.07726818 -0.15251237 -0.10071667 -0.05065179
0.013224021 -0.059150867 0.041953743 -0.032879442 0.06963658 0.031068593 0.15586276 -0.05149044
0.15463074 0.073518306 0.03465393 -0.101642914 0.06583449 0.010248229 -0.07848664 -0.15243629
-0.08540057 0.10334627 0.024005637 0.037263587 -0.052630164 -0.01468277 -0.013566107 -0.031148478
-0.14867035 -0.05575811 0.02730462 -0.1408031 0.09356956 -0.08718625 -0.0010956079 -0.083713405
0.11245094 -0.046311647 0.14864297 0.14867176 -0.13186425 -0.004082501 -0.1017077 0.021244273
-0.068471186 -0.012455359 0.10440542 0.032669112 -0.08478904 0.116533 -0.08627277 0.112687305
-0.0033857673 0.13161106 0.056628674 0.05339542 0.12458281 -0.14984816 0.050460815 0.072840735
0.04036264 -0.14978595 0.040888235 0.071477935 -0.06816324 -0.1029488 -0.15696055 0.08193189
00000000: 48d0 533d 722b 1bbd 6f1c eabd 2054 1ebe
00000010: d875 453d 8ca5 803d 63cc 193e 4cea 36bd
00000020: d09e b83c 329d 23bd 2c32 e0bd 32df f4bd
00000030: 988b 81bc 4709 043e 4990 d7bd 4074 4a3d
00000040: 0038 633b 86a4 ab3d 66c1 f43d e892 7a3d
00000050: 579f 9ebd 04d6 5a3d 8261 e53d b3dc 16be
00000060: acdb 053d 5eb8 c13d f4cb bdbd 2742 96bd
00000070: 4c97 413d 4241 d03d dc54 403d 7396 0cbe
00000080: 96c6 f13d 6014 023c cac0 debd 209e b13d
00000090: b826 a6bc ba6e 56bd 455b 083e 8c29 a8bd
000000a0: 9dce 093e 5493 8f3d e688 8b3d a030 863d
000000b0: 66bf d23d 16b4 e2bd c0a7 6abd 8487 0c3d
000000c0: 1c26 563d 4192 b1bd f67e dd3d 9b05 e0bd
000000d0: 0a93 12be 5274 c43d ea03 933d 0c80 10bd
000000e0: ccc3 5abd 8511 1d3e edec 143e 8496 9c3d
000000f0: 18c0 233d 909f ac3d 06aa dabd dec1 b63d
00000100: 047f 3f3d 4c66 6d3d 18aa 863d 346c 0dbd
00000110: 66ed d83d 1659 d83d 00b0 803b 0637 fc3d
00000120: a519 003e fc20 4b3d 34f4 17bd 74ad 02bd
00000130: 4088 d2bb 3cbd 1a3d 20e0 82bd 189a 16be
00000140: 7471 953d 9e75 d6bd d607 c53d 6a63 75bd
00000150: 50fc d93c 2058 f3bb 1818 fa3c 0c80 0f3d
00000160: 83f1 0abe 703b c63c 0a63 1ebd 99a7 0a3e
00000170: cc2d 2c3d a00f 4d3c 5954 0a3e f0cc 3e3c
00000180: d7a0 073e b833 01be a7cd a0bd ba39 d63d
00000190: 47ce 94bd fa89 f63d f13f 063e 00f2 9439
000001a0: 6d97 12be 28bb 733d 005c fe3b a0cd 85bb
000001b0: 1677 953d c079 6e3b 28c0 e2bc f748 21be
000001c0: 4124 1c3e 6269 65bd fdd0 1d3e da12 c43d
000001d0: 6824 a5bc 9c94 a8bd 5c41 1abd 3260 d73d
000001e0: 4e45 e8bd 422b d53d 309e 0bbc 80e1 a83d
000001f0: 2cba f0bd 6ac8 1fbd 0bce b1bd 5682 ee3d
00000200: 4cee 6b3d f259 fe3d f631 f83d 706d 5cbd
00000210: f09a f53c 85e7 fdbd 6dd1 1bbe f81e 113d
00000220: f2f2 c43d 30f9 fd3c a491 01be b09e 78bc
00000230: 2098 6a3d c8f1 0ebd 3092 40bd 40b8 7fbd
00000240: 4ceb 193d c8f7 a2bc 065d d0bd d235 d13d
00000250: 206c 933d 04f5 283d 1cfc 413d 5b80 0b3e
00000260: 6069 7c3d 2340 073e 9e15 83bd 80a6 1b3b
00000270: 8000 a1bb b901 86bd 6c76 33bd 663a 85bd
00000280: f08a 833c 34c8 963d ca04 00be 9c6c 2f3d
00000290: beb8 cb3d 320d a6bd ef47 b0bd 485b b33d
000002a0: 2e72 7fbd 8acc 4bbd 40d0 b6bb 2a82 dcbd
000002b0: 8abb e63d dd03 1f3e 04ec 663d 8021 563b
000002c0: 7ef7 ccbd 7aeb d83d 049e 0d3d 66c7 0abe
000002d0: bc1c 7e3d 814b 0d3e 3448 2e3d 55f3 09be
000002e0: dbc3 99bd 6c04 74bd 05fb 1dbe b0e6 dfbc
000002f0: c83e 9e3d 342c 1cbe 8b44 cebd 4078 4fbd
00000300: 90a9 583c 2e48 72bd b0d7 2b3d 98ac 06bd
00000310: a09d 8e3d 9083 fe3c 7d9a 1f3e a4e7 52bd
00000320: 8557 1e3e c490 963d 48f1 0d3d 292a d0bd
00000330: 3cd4 863d 30e8 273c 9abd a0bd 4218 1cbe
00000340: 7ee6 aebd 36a7 d33d 78a7 c43c b4a1 183d
00000350: ba92 57bd 0090 70bc 6044 5ebc 182b ffbc
00000360: 0a3d 18be 9e62 64bd f0ad df3c b02e 10be
00000370: 66a1 bf3d b48e b2bd 809a 8fba ef71 abbd
00000380: ae4c e63d 48b1 3dbd dd35 183e 693d 183e
00000390: 6c07 07be 80c6 85bb 204c d0bd 7808 ae3c
000003a0: 9f3a 8cbd 9011 4cbc 82d2 d53d 0cd0 053d
000003b0: e0a5 adbd daa8 ee3d c7af b0bd 9ac8 e63d
000003c0: c0e3 5dbb 0dc5 063e 78f3 673d 28b5 5a3d
000003d0: 4625 ff3d cc71 19be 00b0 4e3d 862d 953d
000003e0: 4c53 253d 7d61 19be 6c7a 273d 0663 923d
000003f0: 2b99 8bbd d2d6 d2bd 44ba 20be e8cb a73d

network.layer_4.weight f4 [3, 40]
-0.076399505 0.09211083 0.03550327 0.043004498 0.13040252 0.12987126 0.09775896 0.039010078
-0.11338192 -0.094134405 0.052225634 0.052180484 -0.14706136 -0.14623415 -0.05712817 -0.06782277
-0.0026470125 -0.14658162 -0.07969789 -0.061741203 -0.056077562 0.05564201 0.029430762 0.08438046
-0.05032652 0.15244113 0.07920894 0.0024758875 -0.085197 0.0540895 -0.0889429 0.10007106
-0.09117502 -0.0020885617 0.13563918 0.13928653 0.15272509 -0.12143097 0.09476672 0.09995653
-0.14812067 0.08346948 -0.11572047 -0.12923563 0.0034427047 -0.020188749 0.15641563 0.02597496
-0.07881809 -0.07141001 0.11682181 0.11226921 -0.056506686 0.029708862 -0.13764535 0.018262595
0.060739204 0.064481184 0.11278801 0.12886097 -0.10688946 0.0060519576 -0.09787671 -0.00031624734
0.03881763 -0.010794729 0.13389732 -0.050413735 0.07866076 0.07751791 -0.138976 0.09217577
0.032199875 0.061071113 0.024354726 -0.066461086 0.07287666 0.065092266 0.042662024 0.058401838
-0.09966299 -0.09178728 -0.08709536 0.11642282 -0.04357797 -0.070827186 0.09887309 0.012961283
0.061243564 0.13576137 0.10213165 -0.08291784 -0.006672457 0.10816209 0.012390852 0.10484691
-0.14425214 0.012899086 0.004428342 0.010963142 -0.059413396 0.1292619 0.094725475 -0.041352287
-0.027288109 -0.02783662 -0.086961515 0.06285736 0.12117435 0.13108478 0.09326644 0.00087188184
-0.10225059 0.09557818 0.049095243 -0.027732223 -0.08065527 0.029746518 0.14843167 0.007726118
00000000: 5877 9cbd 9aa4 bc3d e06b 113d 7c25 303d
00000010: 3d88 053e f9fc 043e da35 c83d 08c9 1f3d
00000020: c834 e8bd 8ac9 c0bd 8cea 553d 34bb 553d
00000030: 4197 16be 68be 15be 3aff 69bd aae6 8abd
00000040: 8079 2dbb 7e19 16be a638 a3bd 58e4 7cbd
00000050: 96b1 65bd e0e8 633d c818 f13c aacf ac3d
00000060: 2e23 4ebd 8719 1c3e 4c38 a23d 8042 223b
00000070: c47b aebd f48c 5d3d b227 b6bd 0ef2 cc3d
00000080: f8b9 babd 40e0 08bb ffe4 0a3e 21a1 0e3e
00000090: f763 1c3e cdb0 f8bd 0e15 c23d 02b6 cc3d
000000a0: f2ac 17be 0cf2 aa3d dbfe ecbd 5856 04be
000000b0: 009f 613b e062 a5bc 6b2b 203e 70c9 d43c
000000c0: 616b a1bd 693f 92bd 4640 ef3d 66ed e53d
000000d0: 8e73 67bd 0060 f33c e7f2 0cbe 709b 953c
000000e0: acc9 783d b60e 843d 66fd e63d 21f4 033e
000000f0: dce8 dabd 804f c63b 9673 c8bd 00ce a5b9
00000100: 3cff 1e3d 60dc 30bc 611c 093e a27e 4ebd
00000110: e418 a13d b6c1 9e3d b94f 0ebe a6c6 bc3d
00000120: 04e4 033d b425 7a3d 9083 c73c c01c 88bd
00000130: 5c40 953d 184f 853d 60be 2e3d c436 6f3d
00000140: 1c1c ccbd f8fa bbbd 0d5f b2bd 166f ee3d
00000150: d07e 32bd d80d 91bd fa7d ca3d 905b 543c
00000160: 88da 7a3d 0705 0b3e 662a d13d d4d0 a9bd
00000170: a0a4 dabb 1684 dd3d 0003 4b3c fab9 d63d
00000180: d5b6 13be b056 533c a01b 913b c09e 333c
00000190: 765b 73bd 3b5d 043e 6eff c13d 0461 29bd
000001a0: 508b dfbc a009 e4bc e118 b2bd 5cbb 803d
000001b0: 422a f83d 173b 063e 7a02 bf3d 008f 643a
000001c0: c268 d1bd 7ebe c33d 1818 493d b02e e3bc
000001d0: 972e a5bd f8ae f33c 79fe 173e 602b fd3b
