code/weights/model.pt (torch, 9337 bytes, 14 tensors)

critic.layer_1.weight f4 [10, 4]
00000000: 2d9c 0d3e 1f12 5c3d 7256 c0bd d3d8 f03d
00000010: 23dd bbbe fa7b a13e 047d 313d 10cb be3e
00000020: 7442 ebbe 28d0 7dbe ce0a fabe 6c8b c03e
00000030: 989a ba3d 8c72 efbe 707b 823d 2024 7ebe
00000040: c67a 103e 27c8 0fbe ad14 933e 2c75 213e
00000050: 5e77 7abe a35b 1c3e 76b5 99be a187 84bb
00000060: 6817 123e c0f9 5fbe 0843 f23d c002 97bd
00000070: daa3 ac3e 9092 cbbe 3cc8 403e 4051 3dbc
00000080: 09e3 db3e 6f01 d83d 4757 6d3e 8a4d b3be
00000090: 7879 94be 6a8d 55be 64d9 dc3e 1358 e83e
0.13829108 0.05372822 -0.09391488 0.11760106 -0.3669215 0.315399 0.043332115 0.372643
-0.45949137 -0.24786437 -0.48836368 0.3760637 0.09111518 -0.4676708 0.063712 -0.24818468
0.14109334 -0.14041196 0.28726712 0.15767354 -0.24459597 0.15269332 -0.30021256 -0.0040444885
0.14266741 -0.21872616 0.118291914 -0.073735714 0.3371876 -0.39760256 0.18826383 -0.011555016
0.42946652 0.105471484 0.23177825 -0.35020095 -0.28998923 -0.20854726 0.43134606 0.45379695

critic.layer_1.bias f4 [10]
00000000: 1abd 9b3e 9e72 303e 8891 b93d b8d9 e1be
00000010: d489 b0be 2fc9 f0be fc17 49be 5037 df3e
00000020: 3ff2 6ebc d432 03bf
0.3041771 0.17231223 0.09060961 -0.4411142 -0.34480155 -0.4702849 -0.19638056 0.43596888
-0.014584123 -0.5124943

critic.layer_2.weight f4 [20, 10]
00000000: 569a 53be 9f71 5f3d 3850 42bd ee5d a3bd
00000010: 8eef 743e 4a8d 9b3c 6f34 913e c6d8 5d3e
00000020: 14b3 8dbd 7b4b 4b3e 5686 163e 9a0f 673e
00000030: fd00 9a3e b4cd d03d e82c 193e aef4 593e
00000040: 5c7a 97bd 0834 903d 3c61 9a3d e954 78be
00000050: 8240 443e b21d 38be 0337 9bbe f00e 323d
00000060: fe61 01be 21b6 713e c629 21be 981b 34bd
00000070: 6463 5c3e 0154 4dbe d9f5 7ebe 6015 333d
00000080: b84a b53d a786 37be c646 683e be38 853d
00000090: 8051 633b fa76 3a3e 492b 523e 9621 973d
000000a0: f4fb 9e3d 37a3 03be 9adb 4c3e 6aa4 533e
000000b0: f94d 8cbc d2c2 443e f7cd 853e f940 8d3e
000000c0: eb5d 7d3e 9b06 813b 7ec2 ba3d 88b1 803e
000000d0: ce83 773e 2fb5 993e 5d34 593e 1080 23bd
000000e0: d82b 033d f473 08be 3231 d3bc 8bc4 d93d
000000f0: 6f1c 183e 5d1d b7bd d85e 1dbe d60c 39be
00000100: b6e7 9f3e 6228 fcbc 20e1 b33d e01b 943c
00000110: fa74 213e 1fa8 3ebd 0000 3f3a 84f5 30be
00000120: 98b1 1d3d aada 8fbe b2ec 44be b28d 143e
00000130: 8b6f 1dbe 98de a1be 84b5 86be ec20 98be
00000140: 902e d73d 4f22 193e aa88 723e 0fcb 43be
00000150: 39b6 d43c 78fd e3bd 1898 0f3e 5246 56be
00000160: 8d07 733d 5df6 df3d af4f 92be 9ad6 0a3d
00000170: 00bb ea3d 566d 4f3e 6413 573d 11a4 a53e
00000180: 4a46 bfbd b86c 12bd 4b37 29be 9e78 bd3d
00000190: 312f 88be 5682 21be 0db7 5fbe b31f 83be
000001a0: 9f71 8b3e 1084 4e3d 30c1 24bd 31f1 923e
000001b0: 600a be3c b2df b2bd a4ff e9bd 9e74 8abc
000001c0: 9654 7e3e ae96 c4bd 5532 833e 7bc4 28be
000001d0: 0a76 79be b2e4 83be 464b 893d 6773 9e3d
000001e0: b635 613c a9f9 653e 901e 053d ffd7 9abe
000001f0: 3ec4 9abe a7ea 313e e4e3 d9bd 614d 953e
00000200: cb0e 41be 8c87 52be 8066 1dbb d460 2dbe
00000210: 2fcd a03e 68b4 77bd e8a5 a8bd 9625 6b3e
00000220: b0de 9abc 1ca6 933d a644 59be 38a9 363d
00000230: 3ebd 733e 8df6 9ebe 329d f3bd f008 b5bd
00000240: 4732 15be 2cf5 8ebe 80fb 033c d0f0 72be
00000250: f0f7 c73d 843b de3d e538 7fbe b5a1 4fbe
00000260: 504f febc dae9 523e 0328 76be 8a4a 5b3e
00000270: a075 0cbe 0021 323d c48b 4bbe d4cc d03d
00000280: 9f1a e2bd 4150 4d3e b2a0 c3bd 5c50 49be
00000290: 9772 29be 2065 35be 46c8 5d3e e2e9 75be
000002a0: 7d10 43be 9aa4 8d3e a8e8 303e 4032 febc
000002b0: 8fd4 9a3e fbde 3bbe b330 53be f021 773d
000002c0: d75e a03e 9ecf 55be 2bbc 943e 40b8 653c
000002d0: 304b a7bc 2d7a 20be 5e51 553e abc9 00be
000002e0: 4084 54bd d8b9 51be 4ccf da3d 740b d53d
000002f0: 30b7 7c3d 808f 8cbd 09e6 7e3e 9ae8 793e
00000300: 38f8 013e f8a2 083e 9c48 713e 2f98 933d
00000310: a092 07bc f2f7 643e 7e46 e53b b3f9 113e
-0.20664343 0.054551717 -0.047439784 -0.079769 0.23919508 0.01898827 0.28360316 0.21664724
-0.06918922 0.19853012 0.14699683 0.22564545 0.3007888 0.10195485 0.14958537 0.21284744
-0.07396385 0.07041174 0.07538077 -0.2425114 0.19165233 -0.17980078 -0.30315408 0.043471277
-0.12635037 0.23604633 -0.15738592 -0.043971628 0.2152229 -0.20051576 -0.24898471 0.043721557
0.08852142 -0.1792246 0.22683248 0.06504963 0.003468603 0.18209448 0.20524324 0.07379453
0.077629 -0.1285523 0.20005646 0.20668188 -0.017127024 0.19214943 0.261337 0.27588633
0.24742858 0.003937555 0.09119128 0.25135446 0.24171373 0.30021045 0.21211381 -0.03991705
0.032024235 -0.13325483 -0.025780294 0.10633191 0.14854597 -0.089411475 -0.15368211 -0.18071303
0.3123147 -0.030780975 0.087831736 0.018079698 0.1576728 -0.04654705 0.0007286072 -0.17281157
0.038499445 -0.28096515 -0.19230917 0.14507177 -0.15374582 -0.31615138 -0.2631036 -0.29712617
0.10506928 0.14954494 0.23684946 -0.1912043 0.025965797 -0.1113233 0.14022863 -0.20925263
0.059333373 0.10935662 -0.2857642 0.033896066 0.11461449 0.20256552 0.052508727 0.32351735
-0.093395784 -0.035748214 -0.16524999 0.092515215 -0.26598504 -0.15772375 -0.21847172 -0.25610122
0.27235124 0.050418913 -0.0402233 0.2869964 0.023198307 -0.08734073 -0.11425713 -0.01690131
0.24836954 -0.09599052 0.25624338 -0.16481201 -0.24361435 -0.25760418 0.067038104 0.07736855
0.013745716 0.22458519 0.03249985 -0.30242917 -0.30227846 0.17374669 -0.1063917 0.29160598
-0.188533 -0.2055952 -0.0024017394 -0.16931468 0.31406543 -0.060474783 -0.08234769 0.22963557
-0.018905014 0.07209417 -0.21217594 0.044594973 0.23802659 -0.31047478 -0.11895217 -0.08839595
-0.1456996 -0.27921426 0.008055568 -0.23724675 0.09764087 0.108511955 -0.24924047 -0.2027653
-0.031043679 0.2059702 -0.24038701 0.21415153 -0.13716745 0.043488503 -0.19877535 0.10195318
-0.11040234 0.20050146 -0.095521346 -0.19659561 -0.16547619 -0.17714357 0.2165843 -0.24015
-0.19049259 0.27664644 0.17276251 -0.03102982 0.30240294 -0.18346779 -0.20624046 0.0603351
0.31322357 -0.20879981 0.2904981 0.014020979 -0.020421594 -0.15671606 0.2083182 -0.1257693
-0.051883936 -0.2048105 0.1068407 0.10402575 0.06169814 -0.06863308 0.24892439 0.24405137
0.12692344 0.13343418 0.23562855 0.07206761 -0.008274704 0.22360209 0.0069969287 0.14255409

critic.layer_2.bias f4 [20]
00000000: f16c 123e 7a2b 093e 381e a63e b21d bf3d
00000010: 9df6 893e 6af5 a4bc 6754 993e 58cf 33bd
00000020: 2060 8dbe 949d 813e 3262 603e e122 8b3e
00000030: 526b 22bd 285b 3b3e 78fd 273d 705b 7fbd
00000040: 8743 8bbe 4037 02be 5076 94be 50f6 cb3c
0.1429937 0.13395491 0.3244493 0.09331836 0.26945964 -0.020136554 0.29947206 -0.04389891
-0.276124 0.25315535 0.21912459 0.27175048 -0.03965313 0.18296492 0.04101321 -0.06234306
-0.27199957 -0.12716389 -0.28996515 0.024897724

critic.layer_3.weight f4 [10, 20]
00000000: c951 db3d 3411 20be 4c74 863d 7adc eb3d
00000010: 09fc abbd 1c48 b53c 5ce7 5dbd 50d1 a9bc
00000020: e755 303e 8f6d 033e 184c 4f3e c08d d5bd
00000030: e815 1e3e f30b cebd 0cb5 fd3d 88bc e8bc
00000040: 0211 3e3e 8053 563c 10f7 6e3d 95e9 70be
00000050: faf7 ebbd 165a 30be 989f 20be fc4b a1bd
00000060: 18a5 c83d 10ee d1bd e83d 903d c3b2 57be
00000070: 68f1 2d3d a4ee 033e 00fd d63c 7246 8fbd
00000080: 50a0 743c a82b 18be 9266 273e e4a7 443e
00000090: 44b7 183e 9057 173c fa12 35be 88af 69bd
000000a0: 3036 273e 7266 983d 8b5b 9ebd ed59 aa3d
000000b0: 6717 b53d f2e2 253d 9aef 60be 5862 ed3d
000000c0: 06d0 0f3c 3202 0bbe 8c4e 10be ba0c 7abe
000000d0: 9039 4ebd 264e 22be fa23 0fbe d021 4fbd
000000e0: 69ec 403e e60f 193e 90a1 a9bc 8575 4fbe
000000f0: 3571 8c3d 4c40 b1bd 54b0 1ebd 58d3 bfbd
00000100: b114 49be a060 523e c34b 74bd 6fe7 fcbd
00000110: b5ac ffbd 2796 adbd 84cd 3d3e bbe0 84bd
00000120: ae3c 00bd e88f 7c3d af56 f9bd fc96 df3d
00000130: d2d7 a03c 0637 d7bd 2c10 883d 5a22 193e
00000140: a2e1 24be a6f0 1bbe b504 64be 94f8 f13d
00000150: 7eb6 033e c905 24be 3890 aebc 0e5b 11be
00000160: 28b4 0f3d 44a3 9c3d 4cc6 9c3d f084 2e3d
00000170: 48d8 42bd 2c67 453e 88f4 71bd 7445 35bd
00000180: 4a62 053e c01b 403d e4e9 50be a0db 22bc
00000190: 153a 4fbd 34e4 4c3e 4ef9 1e3e 5d97 1abe
000001a0: 788a eb3b 9267 19bd 0794 9c3c 574a efbd
000001b0: 4f6f 8bbd 34e2 3b3d 80d9 2a3b af93 dd3d
000001c0: 263d 17be c695 3d3e f840 843d 2483 0c3e
000001d0: 5174 4a3e e06e 993c 5f09 5dbe bfc8 8dbc
000001e0: 195f 0d3d c8fa 42be 45e8 82bd 5d72 ee3c
000001f0: 70d9 433e a14a cd3d 4a72 d93d b0a8 ecbc
00000200: 40bb 6ebe 5869 d63d 467a 4e3e 3c0e c93d
00000210: 5a29 a13d 180d 27be 501a 383d e0b6 07be
00000220: b7d1 313e 2ce4 29be 7a71 34be ef24 383e
00000230: 0b8f b43b 1dff 6dbd 694f 333e 24e5 4dbe
00000240: 289f e1bd 7a0c cebd 2bde db3c 4eaa 633e
00000250: 6c2a 9f3d af03 2ebc 2a4e 2e3e c2ce babd
00000260: aa75 2abe 6c95 253e abf1 2bbe b06a f4bd
00000270: 5627 07be c968 2bbe 1112 00be 1250 973c
00000280: 4b52 83bd ff99 263e a124 06be aab8 793c
00000290: 06eb 2fbd e68d 68bd d456 69be 1872 403e
000002a0: f986 e83c 7566 aa3d d2f1 08be 3fc3 0ebb
000002b0: b93a 40be 469d 31be 3828 60bd 62e4 3c3e
000002c0: c6d1 a8bd e838 933d 489f 053e 8164 4a3d
000002d0: b0dd 5f3d 58eb 2bbe 406b c63d 02c5 7c3e
000002e0: 427e 1bbc 24b8 e43d dc80 52bd cff0 05be
000002f0: 46dd f83d 9c8f 0b3e acec ff3d 3b23 9dbd
00000300: 1d43 d7b9 60bd efbb c833 613d 5039 a73d
00000310: 7542 c0bd 8038 b93d f829 2fbe 1917 f23d
0.10708959 -0.15631562 0.065651506 0.11516662 -0.08397681 0.022129111 -0.05417572 -0.02072969
0.17220269 0.12834762 0.20243871 -0.10427427 0.15438044 -0.10060873 0.123880476 -0.028410211
0.18561175 0.013081431 0.058341086 -0.23526604 -0.11521907 -0.17221865 -0.1568588 -0.07875821
0.09797114 -0.10250485 0.07043058 -0.21064286 0.04246655 0.12884003 0.026243687 -0.06995858
0.0149308 -0.14860404 0.16347721 0.1920467 0.1491366 0.009237185 -0.1768302 -0.057052165
0.16329265 0.07441415 -0.07732304 0.08317933 0.08842354 0.040499635 -0.219664 0.11591023
0.008777624 -0.13575056 -0.14092463 -0.24418917 -0.050347865 -0.15850124 -0.13978568 -0.050569355
0.18840183 0.14947471 -0.020706922 -0.20259674 0.0685753 -0.08654842 -0.03874238 -0.093664825
-0.196368 0.20544672 -0.059642565 -0.1234883 -0.12484113 -0.08475905 0.18535429 -0.064881764
-0.03130787 0.061660677 -0.12174737 0.1091747 0.019634161 -0.10508542 0.066437095 0.1495451
-0.16101697 -0.15228519 -0.2226742 0.11814991 0.12862584 -0.16017832 -0.021309003 -0.14194891
0.03508392 0.07648328 0.076550096 0.042607248 -0.047569543 0.19277638 -0.059071094 -0.04425569
0.13025776 0.046901464 -0.20401722 -0.009940058 -0.0505925 0.20008928 0.1552479 -0.15096803
0.0071881376 -0.037452288 0.019113554 -0.11684101 -0.0680834 0.04587002 0.0026069582 0.10819184
-0.1476942 0.18514165 0.06457704 0.13721901 0.19770934 0.018729627 -0.21585606 -0.017307637
0.03451452 -0.19040978 -0.06391958 0.029107267 0.19125915 0.10024 0.10617502 -0.02888903
-0.23313618 0.104693115 0.20163831 0.09817168 0.07869215 -0.16313589 0.04494697 -0.13253355
0.17365156 -0.16590947 -0.17621413 0.17982839 0.005510216 -0.058104623 0.17510761 -0.20106941
-0.11016685 -0.100609735 0.026839336 0.22232935 0.07771763 -0.010620995 0.17022005 -0.09121467
-0.16646448 0.16170281 -0.16791408 -0.119344115 -0.13198599 -0.16739191 -0.12506892 0.018470798
-0.064121805 0.16269682 -0.1309991 0.015241781 -0.042948745 -0.05677595 -0.22787029 0.18793523
0.028384672 0.083203234 -0.13373497 -0.0021783856 -0.18772401 -0.17345151 -0.054725856 0.18446496
-0.08243136 0.071885884 0.13049042 0.049412254 0.054654777 -0.16788995 0.09688425 0.24684528
-0.009490551 0.111679345 -0.05139242 -0.13080142 0.121515796 0.13629001 0.124963135 -0.07672735
-0.00041058 -0.0073162764 0.054981023 0.08165228 -0.09387676 0.0904398 -0.17105854 0.11820812

critic.layer_3.bias f4 [10]
00000000: 6634 463e e84a 44bd 08eb d53d 680a a9bd
00000010: 64b8 33bd 4365 2a3e c65d 0c3e 3888 313e
00000020: fa19 2dbd 315f 283e
0.19355926 -0.047923 0.10445219 -0.08253938 -0.04387702 0.16640191 0.13707647 0.1733712
-0.0422611 0.16442563

critic.layer_out.weight f4 [1, 10]
00000000: be72 0c3e f8bc 5abe 0712 693e c2fb a3bd
00000010: 5688 6fbe 9135 22be 1a9c d43d 45da 1cbe
00000020: 26bd 1c3e 6d6b a6be
0.13715646 -0.21361148 0.22760783 -0.08007003 -0.23391852 -0.15840746 0.103813365 -0.15317638
0.1530653 -0.32503834

actor.layer_1.weight f4 [10, 4]
00000000: f813 3dbe 180a 2a3e 8cb9 62be 3a78 d23e
00000010: f060 d0bd 10f3 dbbd 608c ddbd a61d a03e
00000020: f04c 18be 742d 1cbe 148a a3be 40ea 303e
00000030: be48 90be 6c2d 59be 5ed0 d73e 9868 ab3e
00000040: f0a0 2a3e 303b 4fbe ea6a 81be 28b1 413e
00000050: 88c8 d0be 9adf f6be 40dd 48be 4621 c43e
00000060: 4669 8ebe 3e09 d9be d2b1 a33e 50c8 37bd
00000070: 2ec8 bf3e f635 843e b8c9 563e 16d1 b23e
00000080: c831 63be 08a9 a23d 002c 673e 2016 a3bd
00000090: ac34 793e 401e 7cbe d46b 15be 0edd ce3e
-0.18464649 0.16605413 -0.22141093 0.4110735 -0.10174739 -0.1073972 -0.1081779 0.3127262
-0.148731 -0.15251714 -0.31941283 0.1727686 -0.28180498 -0.21208733 0.4215116 0.33478236
0.16662955 -0.20237422 -0.2527688 0.18915236 -0.40777993 -0.4821747 -0.1961565 0.38306636
-0.27814692 -0.42389864 0.31971604 -0.044868767 0.37457412 0.2582242 0.20975387 0.34925145
-0.22186959 0.079423964 0.22575378 -0.079632044 0.24336499 -0.24620914 -0.14591914 0.40403026

actor.layer_1.bias f4 [10]
00000000: 7e3c f43e 008d 85bc 6c8c f63e 0843 683e
00000010: 8cdd 0bbe 2a39 c8be e857 f0bd 08a8 a8be
00000020: 9c55 5cbe 6e54 85be
0.47702402 -0.016302586 0.48154008 0.2268182 -0.13658732 -0.39106113 -0.11735517 -0.32940698
-0.21517032 -0.26040977

actor.layer_2.weight f4 [20, 10]
00000000: aa77 023e 9e54 4abe 5342 03be c848 c6bd
00000010: 4614 81be 188c 0e3d 7045 59be 74d9 c5bd
00000020: c866 af3d b2a9 5ebe 9b65 813e c04a 88bd
00000030: b2fc 9abe 7455 a53d b05a 61bd 4876 703d
00000040: 98f0 7a3d 65d9 9fbe 50fe 8dbc ba62 8dbe
00000050: 0261 513e 963b 673e 8213 063e a358 913e
00000060: 7a57 0c3e 6a72 4d3e f9e8 8fbe f2e4 dabd
00000070: f6fa 8bbe 4cb1 213e bfaf 1bbe b0e9 ae3c
00000080: e08f ac3d 848b 9e3d c0ce f03d c044 da3b
00000090: 6a33 1fbe d0ee 85bd 4220 083e 7400 9d3d
000000a0: a256 543e 1450 4abe c8ae 55be 01d7 5ebe
000000b0: cb23 95be 0a88 21be 9099 af3d 74bd e0bd
000000c0: f87b 8cbe 244e a13d b677 113e a686 623e
000000d0: b0d6 a5bc d8c7 bc3d 007d 243c de3d 603e
000000e0: f8d1 d03d 31af 99be 5db0 37be c072 20bd
000000f0: ca83 8fbe c4d7 c4bd 82d3 7a3e b024 85be
00000100: ccb5 d13d 30ea ee3c aeca bebd 2abe 50be
00000110: 5146 10be a39b 5dbe adf1 9a3e 8ee4 1e3e
00000120: 76b0 42be d64e 88be 545e d73d 775f 843e
00000130: 865b 2abe b0e0 34be feae 573e f475 b43d
00000140: e66c 1a3e 1e1f ccbd c8d7 7cbd 1038 213d
00000150: 195d 9f3e 7c6a 64be bc42 c9bd c6fd 5f3e
00000160: 70a4 743d b05d 973c 4b76 90be bc2b eebd
00000170: 341a 18be a91e 9fbe f2aa 90be 9493 80bd
00000180: 1765 1dbe 7d2e 883e 337f a13e 128f 583e
00000190: 8ae1 713e 1a9e 88bd 18cc 8b3d b049 313d
000001a0: 5644 473e dc54 90bd 56d5 793e b4a5 883d
000001b0: 516a 90be 22fe 3abe 0015 a2ba c8e2 b5bd
000001c0: e74f 81be 36b6 5fbe 74fb 99bd f044 d3bc
000001d0: fe68 6fbe 7515 9f3e f2f1 50be d0dd 6c3d
000001e0: e211 54be e111 823e 0c2a c2bd 6636 4b3e
000001f0: b823 27bd 80b8 b3bc 285f 98be 1ecd 8abe
00000200: 34af 10be fc32 103e d36e a03e ee4e d9bd
00000210: 34d8 ae3d b66b 7a3e 8587 2dbe aea8 96be
00000220: d9c0 1fbe c7b1 39be e802 46be 4004 87be
00000230: b43d 943d 0ae5 473e cedb 303e b6b0 593e
00000240: b4de 24be 0b2d 8e3e 16df 64be f496 77be
00000250: aac5 09be 13d4 833e 2096 0d3c 554f 943e
00000260: 7ec3 2b3e c8f7 6f3d 889e b5bd f047 b93c
00000270: 8465 c9bd 9a2f fabd eab8 133e 90d4 a23c
00000280: e61c 1a3e a5c7 9e3e ea45 80be e815 ae3d
00000290: 74df e73d a063 2bbe 5ab2 e4bd 2af9 9ebe
000002a0: ac54 b23d 7c0c 82bd e389 19be 01df 903e
000002b0: c2d3 303e d04e da3d fed9 1d3e 13bd a03e
000002c0: a25c 463e c0cc 143e de9a 363e b0aa e63c
000002d0: d047 1bbd 0ca8 e6bd 76f4 0fbe 2e76 413e
000002e0: 9f8a 8b3e 80c3 0b3d 9a83 9fbd 98e5 be3d
000002f0: ae36 1ebe a462 3cbe 6786 833e ea63 1abe
00000300: eb7d 1ebe 9e27 6a3e c0ae 0a3c 781f 84bd
00000310: 71f7 06be 1095 c4bc 7a3b 1b3e 58ab 09bd
0.1274096 -0.19758841 -0.1281827 -0.09681851 -0.2521078 0.034801573 -0.21217895 -0.096606165
0.08564526 -0.21744421 0.2527283 -0.066548824 -0.30270916 0.080729395 -0.055018127 0.05870655
0.061264604 -0.31220546 -0.01733318 -0.27614385 0.20447162 0.22581324 0.13093379 0.28387937
0.13705245 0.20063177 -0.28107432 -0.10688199 -0.27339906 0.1579029 -0.1520376 0.021351665
0.084258795 0.07741454 0.117581844 0.0066610277 -0.15546957 -0.065396905 0.13293555 0.07666102
0.20736173 -0.1975711 -0.20867455 -0.21761705 -0.2912887 -0.15774551 0.085742116 -0.10973635
-0.2743833 0.07876232 0.14205822 0.22121677 -0.020243973 0.09217805 0.010039568 0.218986
0.10196298 -0.30016473 -0.17938371 -0.039171934 -0.28030235 -0.096114665 0.24494746 -0.26004553
0.10239753 0.029164404 -0.09316002 -0.20385042 -0.14089324 -0.21641402 0.3026251 0.15516874
-0.19012627 -0.26622647 0.105160385 0.25854084 -0.16636476 -0.17663836 0.21062848 0.0881156
0.15080604 -0.09966873 -0.061729223 0.039360106 0.31125715 -0.22306246 -0.09827182 0.2187415
0.059727132 0.01847729 -0.2821525 -0.116294354 -0.14853746 -0.3107808 -0.2825542 -0.06278148
-0.15370594 0.26597968 0.31542358 0.21148327 0.23621193 -0.066707805 0.06826037 0.043283165
0.19459662 -0.07047436 0.24397787 0.0667223 -0.28206113 -0.18261006 -0.0012365878 -0.08881146
-0.25256273 -0.21846852 -0.07518664 -0.025789708 -0.23379895 0.31071058 -0.20404795 0.057828724
-0.20709947 0.25404266 -0.09480676 0.1984497 -0.04080555 -0.021938562 -0.29760098 -0.27109617
-0.14129335 0.14081949 0.31334552 -0.10610758 0.08537331 0.24455151 -0.16946228 -0.29425567
-0.1560091 -0.18134223 -0.19337046 -0.2637043 0.072383314 0.19520965 0.17271349 0.21258816
-0.1610058 0.2776874 -0.22350726 -0.24178678 -0.13454309 0.25747737 0.00864175 0.28966776
0.16773793 0.058585912 -0.08868128 0.02261731 -0.09833816 -0.122161105 0.14426008 0.019876748
0.15050086 0.31011692 -0.2505334 0.08500272 0.11321917 -0.16737223 -0.1116683 -0.31049472
0.08707556 -0.063500375 -0.14994006 0.28295138 0.17268279 0.106595635 0.15415189 0.31394252
0.19371274 0.14531231 0.17832515 0.028157562 -0.037910283 -0.11262521 -0.14058098 0.18892738
0.27254197 0.03412199 -0.07788773 0.09321135 -0.15450546 -0.18397003 0.25688478 -0.15077177
-0.15477721 0.22866675 0.008464515 -0.06451315 -0.13180329 -0.02399686 0.15159407 -0.03361067

actor.layer_2.bias f4 [20]
00000000: 28ba d43d 8c5c 8ebe 0641 a7bd f9c1 9ebe
00000010: 0480 85be ef2c 973e b61d 72be 9d99 9e3e
00000020: d8a3 f4bd 9210 80be b4b7 a7bd f61e 93bd
00000030: 004d 833d 1aab 353e 023a 2cbe 0e1c 5ebe
00000040: 829d 4d3e 50fc 1d3e da94 99bd b0e3 d23c
0.10387069 -0.27804983 -0.08166699 -0.31007364 -0.2607423 0.2952647 -0.23644146 0.30976573
-0.11945313 -0.25012642 -0.081893355 -0.0718364 0.06411171 0.17741051 -0.16819003 -0.2169039
0.20079616 0.15428281 -0.07499094 0.025743335

actor.layer_3.weight f4 [10, 20]
00000000: 2d47 46be 4bf9 d6bd 6afd 4c3e 881e c4bc
00000010: 9871 68bd 9099 003d 3c05 88bd 9c8a 963d
00000020: 829e 593e 7517 46be 48bb 00bd 94bc 383e
00000030: 6250 593e 5ccf ae3d 5ede 313e 1c13 a03d
00000040: e06b 5b3e 7848 c73d d371 3fbe de62 573e
00000050: 847d 863d c027 443e aa76 003e 0489 023e
00000060: 5cb1 7abd 507a 133c 6069 2e3e a481 32be
00000070: b432 bf3d 8cba 613e 369d 1ebe 93a1 10be
00000080: b0b6 363e 220d ebbd ac98 933d 3c38 e03d
00000090: 582e 083e 76ec bcbd 2214 57be da68 2dbe
000000a0: 9035 e53c 22ff 1d3e f88b e7bc 0c7b 243e
000000b0: 7050 3dbc 9a30 a4bd 48ff 313d fa3d c4bd
000000c0: 1e56 5c3e 632a d5bd f8e8 30be 6873 ed3d
000000d0: b8d7 403d dacb 443e 445f 143e 709d 22be
000000e0: 8a94 4e3e 3049 2bbd c21f 96bd a01f afbb
000000f0: 70be 793c 2059 dd3c b82b e0bc 24da 933d
00000100: 38a3 4dbe 67f0 00be 9a21 09be 7031 29bc
00000110: 10ed b43c 701b 413c 1098 ee3d 38e3 3d3e
00000120: f0bd d5bc 0c7f 2f3e 739d 47be 3026 c63d
00000130: f8fd 303d 6ac7 433e 0869 1d3d ee8d 02be
00000140: d8ef 773d 18db 24bd 4ce9 7ebd a0b8 a63d
00000150: b038 283d 80fa 413d f497 7cbd 309e d63c
00000160: a0c2 ba3d 287a 6c3d 0886 b23d e030 313d
00000170: 2a12 b7bd 02df 523e 1cba 27be fad9 dfbd
00000180: 1ca4 0c3e 28e4 773d ecd2 dc3d f26d 21be
00000190: a0b0 9d3b b62d 4b3e 0041 1cbc b66e 1e3e
000001a0: dc28 9b3d f081 43bd 8840 223e 5239 013e
000001b0: e304 4fbe 4c1f f1bd 6c97 e33d 545e b93d
000001c0: bfcc 4dbe 8eb6 47be da25 20be 5ac7 23be
000001d0: 6c21 9cbd 74ee 303e 9032 1cbe a8c6 5fbd
000001e0: 8018 df3c 90e7 7d3d bca6 67bd e03b 63be
000001f0: a078 d2bc 2baf ddbd 509d 2fbe c0bb bbbb
00000200: 80a6 893d 38c3 9fbd a857 fa3d ccd4 8a3d
00000210: b2de 3f3e 7210 5bbe a8f2 4d3e 42ec b8bd
00000220: 58d1 37bd 624e 623e 702f 4fbc 26ec e1bd
00000230: 08f1 b33d c9b0 45be f803 dfbc 182b b23d
00000240: 3a6b ffbd a298 23be 1047 863c 2e45 48be
00000250: 63d6 39be 64b8 e83d 4ce8 adbd 10b6 123e
00000260: f87d c33d ed87 15be 8ac0 023e 30e3 a23d
00000270: a0f0 e03d 86a2 aabd 37ff 63be 181e a43c
00000280: a07b e93b fc90 a8bd 961c 4fbe 90e5 84bd
00000290: 884a 433e b0dd 40bd 149e 5b3e 0c3b 6fbd
000002a0: f0d7 c3bc c9a6 dfbd 8c11 95bd 8c1e 3b3e
000002b0: 54af 9c3d 544e 3e3e 6431 05be 3ac0 033e
000002c0: 8024 ac3a 5a74 e8bd 806d 91ba 90a1 2e3d
000002d0: bc37 e83d e375 4cbe a014 653d 9891 e73d
000002e0: d089 da3d 8c8d 853d f552 ddbd b054 763c
000002f0: d0da b33d 529b 213e 80cc 65bc 0a4e 3e3e
00000300: f067 673c 36ef 94bd e41d 1bbd 1518 35be
00000310: 6893 0c3d 1dd3 5abe 6677 2b3e f68a 14be
-0.19363089 -0.104967676 0.20018545 -0.02394034 -0.056748956 0.03139645 -0.066416234 0.073506564
0.21251872 -0.19344886 -0.031428605 0.18040687 0.2122207 0.085356444 0.17369983 0.07816145
0.2142787 0.09730619 -0.18695764 0.21033809 0.06566909 0.19155788 0.12545267 0.1274758
-0.0612043 0.00900133 0.17032385 -0.17432266 0.09335843 0.22043818 -0.15489659 -0.14124136
0.17843127 -0.11477114 0.07206854 0.10948226 0.13298929 -0.09224789 -0.21003774 -0.16934529
0.027979642 0.15429357 -0.028264984 0.16062564 -0.011554822 -0.080170825 0.043456346 -0.095821336
0.21517226 -0.10408475 -0.1727637 0.115942776 0.047080725 0.19218388 0.14489466 -0.1588037
0.2017385 -0.041817844 -0.07330276 -0.005344346 0.015243158 0.027020037 -0.027364597 0.072193414
-0.20081794 -0.12591706 -0.13391724 -0.010326728 0.022085696 0.011786327 0.11650097 0.18543708
-0.026091546 0.17138308 -0.19493656 0.096752524 0.043210953 0.19119039 0.038430244 -0.12749454
0.060531467 -0.040248007 -0.062234208 0.08140683 0.041069686 0.047358036 -0.06166835 0.026198477
0.09119153 0.057733685 0.08716971 0.0432595 -0.089390114 0.20592883 -0.16379589 -0.109302476
0.13734478 0.06052032 0.10782418 -0.15764597 0.004812315 0.19841656 -0.009536982 0.1547192
0.07576153 -0.04773134 0.15844929 0.12619522 -0.20216708 -0.117735475 0.11112866 0.09051195
-0.20097636 -0.19503233 -0.15639439 -0.15994015 -0.07623562 0.17278463 -0.15253663 -0.054632813
0.027233362 0.061988413 -0.056555495 -0.22190809 -0.025692284 -0.10824426 -0.17149854 -0.0057291687
0.067212105 -0.07800907 0.1222375 0.06778869 0.18737295 -0.21392992 0.20112097 -0.090294376
-0.04487738 0.22100213 -0.012645587 -0.1103137 0.087862074 -0.1930572 -0.027223572 0.08699626
-0.12471624 -0.15976194 0.016391307 -0.1955764 -0.18148188 0.11363295 -0.08491573 0.14327264
0.09545511 -0.14602633 0.1276876 0.07953489 0.109833956 -0.0833178 -0.22265325 0.020033881
0.007125333 -0.082307786 -0.20225748 -0.06489098 0.190714 -0.047086418 0.21447021 -0.05840592
-0.023906678 -0.109204836 -0.072787374 0.18273371 0.07650629 0.18584567 -0.13007122 0.12866297
0.0013133436 -0.11350317 -0.0011095256 0.042634547 0.113387555 -0.19966845 0.055927873 0.11307067
0.10670817 0.065211385 -0.108068384 0.0150348395 0.087819695 0.15781906 -0.014025807 0.18584457
0.014123902 -0.07272188 -0.037870303 -0.17684968 0.034320265 -0.21369596 0.16744766 -0.14506134

actor.layer_3.bias f4 [10]
00000000: 1ec3 133e 68e5 7e3d c35c 33be 0c06 cb3d
00000010: 14c7 433e a29b 92bd d290 16be 2483 eabd
00000020: 3878 ecbc 143d 3ebd
0.144299 0.062230498 -0.17515855 0.09913263 0.19118911 -0.07158591 -0.14703682 -0.11450794
-0.028865919 -0.046444967

actor.layer_out.weight f4 [1, 10]
00000000: a816 82be e458 163e e690 6c3e 185a af3d
00000010: 504a ee3d 905e 72be d05f d7bd c691 26be
00000020: 8071 363e b652 153e
-0.2540791 0.14682347 0.2310215 0.08562106 0.11635268 -0.23668885 -0.10516322 -0.16266546
0.17816734 0.14582333
