code/weights/model.pt (torch, 7202 bytes, 8 tensors)

critic.layer_1.weight f4 [10, 4]
0	0xbea1f066	-0.31628722
1	0xbde69640	-0.11259127
2	0x3eb39338	0.35073256
3	0xbe80ad92	-0.25132424
4	0xbee64be6	-0.4497978
5	0x3d09e760	0.033667922
6	0x379a8000	1.8417835e-05
7	0x3e9c2260	0.30494976
8	0xbe493248	-0.19648087
9	0xbea1deac	-0.31615198
10	0x3dd3dd08	0.10344893
11	0x3ee47fd2	0.4462877
12	0xbe6269c0	-0.22110653
13	0x3d49a0a0	0.04922545
14	0xbeb577c6	-0.35442942
15	0x3eb301d2	0.34962326
16	0x3ec6170a	0.38689452
17	0x3eeaac98	0.45834804
18	0x3e0f6d88	0.14006627
19	0xbe51aca4	-0.20476013
20	0xbd587c70	-0.052853048
21	0xbe0cc768	-0.13747942
22	0x3e151cd0	0.14561772
23	0x3ecccf00	0.40001678
24	0xbe4e468c	-0.20144099
25	0xbebb492e	-0.3657927
26	0x3edeeb52	0.4353891
27	0xbd967830	-0.07347143
28	0xbe2a5284	-0.1663304
29	0x3ece1420	0.4024973
30	0xbdd884d8	-0.10572213
31	0xbeb74bd8	-0.35800052
32	0x3d521090	0.051285326
33	0xbe976268	-0.29567266
34	0x3ed6c76e	0.41949028
35	0x3cd5e400	0.026109695
36	0x3e4d191c	0.2002911
37	0xbe553528	-0.20821059
38	0x3d9d19f8	0.07670969
39	0xbef6d29c	-0.48207557

critic.layer_2.weight f4 [20, 10]
0	0xbe019dca	-0.12657848
1	0x3e2ccb74	0.16874486
2	0x3e0dd7c0	0.13851833
3	0xbd4ffe30	-0.05077952
4	0xbdcdf4d0	-0.1005646
5	0x3e252eb6	0.161311
6	0xbe104869	-0.14090122
7	0x3e05d4b0	0.13069415
8	0x3d610040	0.05493188
9	0xbe457eca	-0.19286647
10	0xbd730238	-0.059328288
11	0xbe3c00b8	-0.18359649
12	0xbe869a2a	-0.26289493
13	0x3e083012	0.13299587
14	0x3e34d00a	0.17657486
15	0xbd9f875a	-0.07789488
16	0xbc89fb60	-0.016843498
17	0x3e8eb7b9	0.27874544
18	0xbe2343c6	-0.15943822
19	0xbe5a8a3f	-0.21341799
20	0xbe7bc5f8	-0.24587238
21	0xbdf447fa	-0.11927791
22	0x3cc9d3c0	0.024637103
23	0xbe1f9431	-0.15583874
24	0xbe0f3d0f	-0.13988136
25	0xbe66976c	-0.225187
26	0x3e064e36	0.13115773
27	0x3bc6dec0	0.0060690343
28	0xbe662b13	-0.22477369
29	0x3e78779a	0.24264374
30	0xbe620d9a	-0.22075501
31	0x3e0de4b0	0.13856769
32	0xbe1779ba	-0.14792529
33	0xbdb2055c	-0.086924285
34	0xbd5c6d68	-0.053815275
35	0xbd86bd9c	-0.06579134
36	0xbc2a3ee0	-0.010390967
37	0xbcfcceb0	-0.030860275
38	0x3ddcb128	0.107759774
39	0xbe1b2190	-0.15149522
40	0xbe44d495	-0.19221719
41	0x3d32ec68	0.043682486
42	0x3e1d299c	0.15347904
43	0x3da450f4	0.08023253
44	0xbdbb482e	-0.091446266
45	0x3d947430	0.072487235
46	0xbd9eadc0	-0.07747984
47	0xbe8ae43d	-0.27127257
48	0xbe51d43f	-0.20491122
49	0xbe916978	-0.2840078
50	0x3ea05db7	0.313215
51	0xbe51f6fe	-0.20504376
52	0x3e982799	0.2971771
53	0x3cf222e0	0.029557645
54	0x3e4d43de	0.2004542
55	0x3ea01d3b	0.312723
56	0x3dfff344	0.12497571
57	0x3e91eb2b	0.2849973
58	0x3e365ccc	0.17808837
59	0x3d0dcff8	0.034622163
60	0x3e9a5ecf	0.30150458
61	0x3d4c6688	0.04990247
62	0xbe6d1de3	-0.23155932
63	0xbd413400	-0.04716873
64	0x3e21ed50	0.15813184
65	0xbd3dda38	-0.046350688
66	0x3dc9b4d8	0.09848946
67	0xbe05c6a8	-0.13064063
68	0xba85e300	-0.0010214746
69	0x3ced82a0	0.02899295
70	0x3cef0db0	0.029181331
71	0x3de80fb8	0.11331123
72	0x3e0bf10c	0.13666171
73	0xbe8bd6be	-0.27312273
74	0xbe47ce92	-0.19512394
75	0x3d81da18	0.06340426
76	0xbdcf4f20	-0.10122514
77	0x3e962bbf	0.2933025
78	0x3cf6aa40	0.030110478
79	0x3e003d6a	0.12523428
80	0xbd97dc5e	-0.074150786
81	0xbe32fe88	-0.17479908
82	0xbe2b8b36	-0.16752324
83	0x3d804798	0.062636554
84	0x3e188992	0.14896229
85	0xbe90d403	-0.28286752
86	0x3dd8aef4	0.10580245
87	0xbcbcb400	-0.02303505
88	0x3d89412c	0.06701884
89	0x3dcb059c	0.09913179
90	0x3e18195c	0.14853424
91	0xbcd63e90	-0.026152879
92	0xbd7529f0	-0.059854448
93	0xbe8c326c	-0.2738222
94	0x3e268198	0.16260374
95	0x3de8827c	0.11353013
96	0x3e6eeda6	0.23332843
97	0x3e352440	0.1768961
98	0x3d08bc98	0.033382982
99	0xbe9af246	-0.30262965
100	0xbe6e28d8	-0.23257768
101	0xbe4ae818	-0.19815099
102	0x3d2d1840	0.042259455
103	0x3e5f64b6	0.21815762
104	0xbe9cf0d9	-0.30652502
105	0xbe1e746f	-0.15474103
106	0x3b57d200	0.0032931566
107	0x3b85c200	0.0040819645
108	0xbe829183	-0.25501642
109	0xbe8fa883	-0.28058252
110	0xbdd8f1cc	-0.10592994
111	0xbe9c77e5	-0.30560222
112	0x3cbb9de0	0.02290243
113	0xbd17d290	-0.037066042
114	0xbe541f5a	-0.20715085
115	0xbd1ab630	-0.037771404
116	0x3e0d9746	0.13827237
117	0x3e86f017	0.2635505
118	0x3e9ee715	0.31035677
119	0x3e19f47c	0.1503467
120	0x3df47cc8	0.11937863
121	0xbe8d6069	-0.27612618
122	0x3e10467e	0.1408939
123	0xbe866c72	-0.26254612
124	0xbe6095b4	-0.21932107
125	0xbdb16c96	-0.08663289
126	0xbe8fbc0d	-0.2807316
127	0xbea12dd4	-0.31480277
128	0x3e154572	0.14577273
129	0xbea0ee50	-0.31431818
130	0xbde41d12	-0.11138357
131	0xbd0a6570	-0.033788145
132	0xbdd82334	-0.105535895
133	0x3e5ac6fe	0.21364972
134	0xbe998052	-0.29980713
135	0x3e977841	0.29583934
136	0x3d84b11c	0.064790934
137	0x3e8cc95b	0.27497372
138	0x3e84b5b3	0.25919876
139	0xbdf76d7e	-0.12081431
140	0x3c9b12a0	0.01892978
141	0x3e9ddd59	0.30832937
142	0xbe50b4c6	-0.2038146
143	0xbe6bcf89	-0.23028387
144	0xbe1308d9	-0.14358844
145	0x3e9c2d09	0.3050311
146	0xbe02f4a1	-0.12788631
147	0x3d46d728	0.048545033
148	0x3e5d024a	0.21582904
149	0xbe98f8f1	-0.29877427
150	0xbe8b3ae5	-0.2719337
151	0x3e7032de	0.23456904
152	0x3e9cc897	0.30621788
153	0xbcd79ee0	-0.026320875
154	0xbd58aac8	-0.052897245
155	0xbd974eae	-0.07388054
156	0x3e04085e	0.12893817
157	0xbd847910	-0.06468403
158	0x3d7015b0	0.058614433
159	0x3ab7d500	0.0014025271
160	0xbe862709	-0.26201656
161	0x3d139420	0.036029935
162	0xbe91760e	-0.2841038
163	0x3d3cf828	0.046135098
164	0xbe1b2f6b	-0.15154807
165	0x3ce540d0	0.027985007
166	0xbe9faa85	-0.31184784
167	0xbe71fb10	-0.23630929
168	0xbcbfb320	-0.023400843
169	0xbdf11f8a	-0.11773594
170	0x3ce93c40	0.028471112
171	0xbcb22d10	-0.021750003
172	0x3e829a65	0.2550842
173	0xbe68658a	-0.22694984
174	0xbe05e11f	-0.13074158
175	0xbe70335c	-0.23457092
176	0xbe3a5b2b	-0.1819884
177	0x3d93edcc	0.072230905
178	0x3c89b570	0.016810149
179	0x3e4e341a	0.20137063
180	0x3e712c06	0.2355195
181	0xbddaaa9e	-0.10677074
182	0xbdebadc4	-0.115077525
183	0xbe05bdb2	-0.13060644
184	0xbb187680	-0.002326399
185	0xbe7a036a	-0.24415365
186	0xbe880459	-0.26565817
187	0x3dee012c	0.11621317
188	0xbd2a5dc8	-0.041593343
189	0x3e0738f6	0.13205323
190	0xbe9146db	-0.2837437
191	0xbe165c52	-0.14683655
192	0x3e2c8684	0.16848189
193	0xbd23aad8	-0.03995785
194	0x3e348b28	0.17631209
195	0x3e306f66	0.17229995
196	0x3cab8070	0.020935267
197	0xbdf37134	-0.11886826
198	0x3e4bfd92	0.19920948
199	0xbe22d138	-0.15900123

critic.layer_3.weight f4 [10, 20]
0	0x3d4015f8	0.04689595
1	0x3ddde474	0.108345896
2	0xbde2c9b4	-0.11073628
3	0xbe490b3a	-0.19633189
4	0x3e4b3b52	0.19846848
5	0x3d48f850	0.049064934
6	0x3e049bae	0.12950012
7	0x3de0d8dc	0.10978863
8	0x3c0a4240	0.008438647
9	0xbdd61692	-0.10453524
10	0x3e0eb49c	0.13936085
11	0x3d2d77e8	0.04235068
12	0xbce13d40	-0.027495027
13	0xbd0ae894	-0.03391321
14	0xbe4cf48f	-0.20015167
15	0xbcd07260	-0.025445163
16	0x3d0ad2a0	0.033892274
17	0xbe0d735a	-0.13813534
18	0xbe27d694	-0.16390449
19	0xbe5cb6b3	-0.21554069
20	0xbcc67f38	-0.024230585
21	0x3e29d84a	0.16586414
22	0x3d2e1738	0.042502612
23	0xbbf608e0	-0.007508382
24	0x3e3d82b4	0.1850689
25	0xbd62933c	-0.055316195
26	0xbe34f11b	-0.176701
27	0xbc461ad0	-0.012091354
28	0xbe2704f4	-0.16310483
29	0xbdf2581c	-0.11833212
30	0x3dd6ce90	0.104886174
31	0xbdd02347	-0.101629786
32	0xbe06b8e2	-0.13156465
33	0xbe2e8efb	-0.1704673
34	0x3db213c0	0.08695173
35	0x3d9059c8	0.070483744
36	0x3e413a48	0.18869889
37	0xbe382174	-0.17981511
38	0xbda2205c	-0.07916328
39	0xbdec6f66	-0.11544685
40	0x3d229640	0.03969407
41	0xbe18ffbe	-0.14941308
42	0x3dbc31d4	0.091891915
43	0xbd64de0c	-0.055875823
44	0x3dcb4b14	0.099264294
45	0x3e30e68e	0.1727545
46	0xbe52a722	-0.20571569
47	0x3d97dc04	0.074150115
48	0xbdbc3dc0	-0.091914654
49	0xbdb549b4	-0.088519484
50	0x3e4e9236	0.20172963
51	0x3d73add0	0.059491932
52	0x3e3d2ee0	0.18474913
53	0x3e335b80	0.17515373
54	0x3d4d3e38	0.050108165
55	0x3e2dca9c	0.1697182
56	0x3e3adf3c	0.1824922
57	0x3e5d4996	0.21610102
58	0x3ddb8b28	0.10719901
59	0x3e32c1d2	0.17456749
60	0x3d7e63b0	0.06210679
61	0x3df26c38	0.11837047
62	0xbe1b98c5	-0.15194996
63	0xbe19df60	-0.15026617
64	0xbde21995	-0.11040036
65	0x3e51e0a2	0.20495847
66	0x3dfe97c8	0.12431294
67	0x3ccbeb58	0.024892494
68	0x3e14c84e	0.14529535
69	0x3e43abcc	0.19108504
70	0xbe1fcfca	-0.15606609
71	0xbe61077d	-0.21975513
72	0x3c461890	0.012090817
73	0x3db41f1c	0.08794996
74	0x3d9df6ac	0.077130646
75	0x3e4ffd00	0.20311356
76	0x3c9db690	0.019252092
77	0xbc323710	-0.010877386
78	0xbdcfe21c	-0.10150549
79	0xbd99ea54	-0.07515398
80	0x3de796b4	0.11308041
81	0x3e5d4b2a	0.21610704
82	0x3bbad3e0	0.005701527
83	0x3de50564	0.11182669
84	0x3d90d41c	0.07071707
85	0x3d5cc620	0.053899884
86	0x3ca04298	0.019563004
87	0x3e15bc34	0.14622575
88	0xbe269ccd	-0.16270752
89	0x3e57d382	0.21076778
90	0xbd120ad4	-0.035654858
91	0x3cb338c0	0.021877646
92	0x3e3f8590	0.18703294
93	0xbd6a58d0	-0.057213604
94	0x3e0f9a02	0.14023593
95	0x3aef5d00	0.0018261969
96	0x3e0c8996	0.1372436
97	0xbe2741d6	-0.16333708
98	0x3e575b32	0.21030882
99	0x3dca1498	0.09867209
100	0xbd13c5b8	-0.03607723
101	0x3e2b89f6	0.16751847
102	0x3d87ff78	0.06640524
103	0xbe53ce3e	-0.20684144
104	0x3d935b04	0.07195094
105	0xbe26e7c0	-0.16299343
106	0xbe39a250	-0.18128324
107	0x3e2fdf50	0.1717503
108	0x3e145292	0.14484623
109	0x3e358a32	0.17728499
110	0x3db7ef80	0.08981228
111	0x3cff7920	0.031185687
112	0xbe39d583	-0.18147855
113	0x3e48392e	0.19553062
114	0x3e545b88	0.20738041
115	0x3e1fba4e	0.15598413
116	0x3bb05c00	0.005382061
117	0xbd20704c	-0.039169595
118	0x3e19d032	0.15020826
119	0x3d98b1b4	0.07455769
120	0x3d774108	0.060364753
121	0xbdeb2d6e	-0.114832744
122	0x3dc6f96c	0.09715542
123	0xbe2e726f	-0.1703584
124	0x3e64c5dc	0.22341102
125	0x3e1d2174	0.15344793
126	0xbda2fb4c	-0.07958087
127	0xbe1057ca	-0.14095989
128	0xbba2d740	-0.0049695075
129	0x3dcb5e34	0.09930077
130	0x3d8edf98	0.06976241
131	0xbdaed10a	-0.08535965
132	0x3db82778	0.08991903
133	0x3e2f805a	0.17138806
134	0xbe57b6c0	-0.21065807
135	0x3e0fccb6	0.14042935
136	0xbe5c5036	-0.21514973
137	0x3e40c9fe	0.18827054
138	0xbdd86811	-0.10566724
139	0xbd364284	-0.044497028
140	0xbdc4cde2	-0.096095815
141	0xbda2e3f8	-0.07953638
142	0x3d266b90	0.040629923
143	0xbe2dfb1b	-0.1699032
144	0x3e4b4b2a	0.19852892
145	0xbe3fc2ea	-0.18726698
146	0xbe0fc6ce	-0.14040682
147	0x3ccddda8	0.025130108
148	0x3e2ebcc2	0.17064193
149	0x3c118320	0.00888136
150	0xbe4e09e8	-0.20120966
151	0x3ceb5ae0	0.028729856
152	0x3e161f88	0.14660466
153	0x3e0e5d66	0.13902816
154	0xbc69c600	-0.014268398
155	0x3dd29d20	0.102838755
156	0xbe3ba197	-0.1832336
157	0x3e12647c	0.14296144
158	0xbe49e0ce	-0.19714662
159	0x3d222768	0.039588362
160	0xbe45012e	-0.19238731
161	0x3d3c73a0	0.046008706
162	0x3e48653c	0.19569868
163	0xbdf7affc	-0.12094113
164	0xbc7140a0	-0.01472488
165	0xbe3c85a6	-0.18410358
166	0x3d9cd514	0.07657829
167	0x3e30bd46	0.17259702
168	0xbdecbf73	-0.115599535
169	0x3e3923b2	0.18080023
170	0x3e2c223c	0.16809934
171	0xbe06bc1c	-0.13157696
172	0xbe42af69	-0.19012226
173	0x3e102884	0.14077955
174	0xbe08df08	-0.1336633
175	0xbe521533	-0.205159
176	0xbe5d2794	-0.21597129
177	0x3cb63260	0.022240818
178	0xbd276eb0	-0.040877044
179	0x3ca260b8	0.01982151
180	0x3d898940	0.067156315
181	0x3e214a9a	0.15751114
182	0xbda441e0	-0.08020377
183	0x3dd88318	0.10571879
184	0x3e2d2a16	0.16910586
185	0x3dacd0f0	0.08438289
186	0x3de645f8	0.11243814
187	0x3e4965fc	0.1966781
188	0x3d854d4c	0.06508884
189	0x3d9f3f94	0.077757984
190	0xbe5969ff	-0.2123184
191	0xbc7714e0	-0.015080661
192	0xbe259c14	-0.1617282
193	0xbe275b74	-0.1634348
194	0x3e0223c8	0.12708962
195	0x3d964470	0.07337272
196	0xbd7fea94	-0.06247957
197	0x3e15e5ca	0.14638439
198	0xbddd22fe	-0.1079769
199	0x3e07af36	0.13250431

critic.layer_out.weight f4 [1, 10]
0	0xbe68dad0	-0.2273972
1	0x3e952bd7	0.2913501
2	0x3e8ea2c3	0.27858552
3	0xbd554b28	-0.052073628
4	0xbdeca3d4	-0.11554685
5	0xbde16a22	-0.11006571
6	0x3dae32e4	0.085058
7	0x3e44387a	0.19162169
8	0xbd58cb78	-0.052928418
9	0x3e94a7b3	0.29034194

actor.layer_1.weight f4 [10, 4]
0	0x3ea237da	0.31683236
1	0x3e99bbbc	0.30026042
2	0xbe6b83c8	-0.2299949
3	0xbec42cdc	-0.38315475
4	0x3e58d0fc	0.21173471
5	0xbe9ec678	-0.31010795
6	0xbe646910	-0.22305703
7	0xbec7a8b0	-0.38995886
8	0xbe7acf4c	-0.2449314
9	0xbd0620a0	-0.032745957
10	0x3b0d9d00	0.0021608472
11	0xbeee4e3c	-0.46544063
12	0xbe8544d0	-0.26029062
13	0xbe88a0ec	-0.26685274
14	0x3ecacf12	0.39611107
15	0x3e96b8c2	0.29437834
16	0xbd0d6f40	-0.034529924
17	0x3b0a3d00	0.0021093488
18	0x3e0fbab8	0.14036071
19	0xbeed4a26	-0.46345633
20	0xbe98d44c	-0.2984947
21	0x3a99d400	0.0011736155
22	0xbe10f2ac	-0.14155072
23	0x3e914db8	0.28379607
24	0xbe080f9c	-0.13287205
25	0x3d6e3b00	0.058161736
26	0xbe48eb48	-0.19621003
27	0xbe52caa4	-0.20585114
28	0xbe158370	-0.1460092
29	0x3ce0ec40	0.027456403
30	0x3ee3a64a	0.44462806
31	0x3ce291e0	0.02765745
32	0xbd905660	-0.07047725
33	0x3ef94814	0.48687804
34	0x3e184948	0.14871705
35	0xbe6df7f8	-0.23239124
36	0xbee38dda	-0.44444162
37	0xbe584810	-0.2112124
38	0xbeb5a52c	-0.3547758
39	0x3e92bfe2	0.2866202

actor.layer_2.weight f4 [20, 10]
0	0xbe40dcca	-0.18834224
1	0xbd99c8d0	-0.07509005
2	0x3e3244bc	0.17409033
3	0xbe8d1a39	-0.2755907
4	0xbe2c4f64	-0.1682716
5	0x3db68ea8	0.08913928
6	0xbe24429b	-0.16041033
7	0xbe315b3e	-0.17319962
8	0x3e85a673	0.26103553
9	0xbdee0f98	-0.11624068
10	0x3e8faee5	0.2806312
11	0x3e592232	0.2120445
12	0x3e9f3acf	0.31099555
13	0x3da5c460	0.08094096
14	0x3e904e35	0.28184667
15	0xbe9a7642	-0.3016835
16	0x3e90ae57	0.2825801
17	0x3e5c0876	0.21487603
18	0xbe9379ef	-0.28803965
19	0xbe4221f6	-0.18958268
20	0x3e661122	0.22467473
21	0x3ea10b51	0.31453946
22	0x3e5f9daa	0.21837488
23	0x3e3ea65a	0.18618146
24	0x3e2b2f48	0.16717255
25	0xbe8f0644	-0.27934468
26	0x3e3180a8	0.17334235
27	0xbe836b19	-0.25667647
28	0x3d7e30c0	0.06205821
29	0x3db3c0d8	0.087770164
30	0x3e27ce54	0.16387302
31	0xbe904054	-0.28174078
32	0x3e6f9c16	0.23399386
33	0x3cc71c20	0.024305403
34	0x3e5f7452	0.21821716
35	0x3e978ad3	0.29598102
36	0xbe2a3911	-0.16623332
37	0xbe899d3a	-0.26877767
38	0xbce47be0	-0.0278911
39	0x3d3ade08	0.0456219
40	0xbd1be9b8	-0.03806469
41	0xbdbf144e	-0.09330045
42	0xbe7c043e	-0.24610993
43	0x3c8b8c10	0.01703456
44	0xbe76f98d	-0.24118634
45	0xbe962055	-0.29321542
46	0xbd010598	-0.031499475
47	0x3e99db63	0.3005019
48	0x3e016d08	0.12639248
49	0xbd1d5340	-0.03840947
50	0x3e3f6526	0.18690929
51	0xbda46910	-0.080278516
52	0xbe1abfbb	-0.15112202
53	0xbe27cec5	-0.1638747
54	0xbe870d9c	-0.2637757
55	0x3d05cce8	0.032666117
56	0xbd799088	-0.06092885
57	0x3d061408	0.032733947
58	0x3dec3900	0.115343094
59	0x3d9b8be8	0.075950444
60	0xbe9980d0	-0.2998109
61	0x3e97b0d5	0.296271
62	0xbe68973a	-0.22713938
63	0xbdf314b8	-0.11869186
64	0x3e42cea2	0.19024137
65	0xbe8881b1	-0.26661447
66	0x3d2b05f8	0.04175374
67	0x3d40f838	0.04711172
68	0xbe8c0cf3	-0.2735363
69	0x3dc2bd5c	0.09508774
70	0xbe6b5064	-0.22979885
71	0xbd1cd468	-0.038288504
72	0xbe611d22	-0.2198377
73	0xbdd04fc8	-0.10171467
74	0xbd04e4e0	-0.032444835
75	0xbe3e20ed	-0.18567248
76	0x3da59558	0.08085126
77	0xbc876e90	-0.016532212
78	0xbe927a75	-0.28609052
79	0x3e075c26	0.13218746
80	0x3dda7e94	0.10668674
81	0xbe35e415	-0.17762788
82	0x3ba88ec0	0.0051439703
83	0xbca87880	-0.020565271
84	0x3e891dc1	0.26780513
85	0x3d98fc34	0.07469979
86	0x3df60fa4	0.12014702
87	0x3e2a38a2	0.16623166
88	0xbdb16620	-0.08662057
89	0x3df9bd6c	0.121943325
90	0xbe5894c4	-0.211505
91	0x3d1607c0	0.036628485
92	0xbe8636e8	-0.26213765
93	0xbe612c42	-0.2198954
94	0x3e1cdde0	0.15319014
95	0xbc7460a0	-0.014915615
96	0x3e380314	0.17969924
97	0xbe80519b	-0.2506226
98	0xbdf07dd0	-0.11742747
99	0xbdb093ac	-0.08621916
100	0xbe98b54b	-0.29825816
101	0xbda53466	-0.08066635
102	0x3d588a10	0.05286604
103	0x3d557670	0.052114904
104	0x3e4fd8f6	0.20297608
105	0x3dcff1b4	0.10153523
106	0x3e0c6860	0.13711691
107	0xbd4cbbf0	-0.04998392
108	0xbe6e99da	-0.23300877
109	0x3e004d04	0.12529379
110	0xbe6dde76	-0.23229393
111	0x3dcd1544	0.10013822
112	0x3d88cecc	0.066800684
113	0xbd4c69d8	-0.049905628
114	0xbe26d176	-0.1629084
115	0xbe2a3268	-0.16620791
116	0x3dad5de4	0.08465174
117	0xbe87f971	-0.26557496
118	0x3e521226	0.20514736
119	0xbe9acb14	-0.3023306
120	0xbd806470	-0.06269157
121	0x3e164334	0.14674073
122	0x3dab68cc	0.08369598
123	0xbe56c6b3	-0.20974235
124	0x3e12321a	0.14276925
125	0x3e8f06f1	0.27934983
126	0xbdff67b6	-0.12470953
127	0x3dc90198	0.09814757
128	0xbd20a458	-0.03921923
129	0x3df88d68	0.12136346
130	0x3e06d8e8	0.1316868
131	0x3e76c9ae	0.24100372
132	0xbea155f1	-0.3151088
133	0x3e926e85	0.28599945
134	0xbe13412d	-0.14380331
135	0xbe69a6ed	-0.22817583
136	0x3d9e8d00	0.07741737
137	0x3e9c0ccb	0.3047851
138	0xbe1f1d56	-0.15538535
139	0xbe4c9882	-0.19980052
140	0x3d744370	0.059634626
141	0x3e2b0ab2	0.16703299
142	0x3d149b00	0.036280632
143	0x3df3e58c	0.11909017
144	0x3e051844	0.12997538
145	0x3ddf37f0	0.10899341
146	0xbe8f17a2	-0.27947718
147	0x3e90c429	0.28274658
148	0x3dbba560	0.09162402
149	0x3e78dce6	0.24303016
150	0x3dc1c438	0.09461254
151	0xbe98dc99	-0.29855803
152	0x3e11c05e	0.14233539
153	0x3e04c452	0.12965515
154	0x3da78e84	0.081814796
155	0xbe7ff1d4	-0.24994594
156	0xbcef6090	-0.02922085
157	0xbd64e3d8	-0.05588135
158	0xbdb314d8	-0.0874421
159	0xbc2b6bc0	-0.010462701
160	0x3d378430	0.0448038
161	0x3d0c26a8	0.034216553
162	0xbdfc59a8	-0.12321788
163	0x3e43e212	0.19129208
164	0x3e3b5c82	0.18297008
165	0xbe8b8218	-0.2724769
166	0x3da8c65c	0.08240959
167	0xbdaed9f0	-0.08537662
168	0xbe59f953	-0.21286516
169	0x3bdccf00	0.0067385435
170	0xbe9cf5aa	-0.30656177
171	0xbe0104c6	-0.12599477
172	0xbd11ad18	-0.035565466
173	0x3e91f359	0.28505972
174	0x3c312860	0.010812849
175	0x3ded8650	0.11597884
176	0x3e33921a	0.17536202
177	0xbe7aeba4	-0.24503952
178	0xbd8aec80	-0.0678339
179	0xbe62e3a4	-0.2215715
180	0x3e27a588	0.16371739
181	0x3deba280	0.11505604
182	0xbea10ba4	-0.31454194
183	0xbe542830	-0.20718455
184	0x3e66bef2	0.22533777
185	0xbe724392	-0.23658589
186	0xbe419429	-0.18904175
187	0xbe4ee7e8	-0.20205653
188	0xbe82be40	-0.25535774
189	0xbda3ad0c	-0.079919904
190	0x3dd27bfc	0.102775544
191	0x3e2b9e8a	0.16759697
192	0xbe574e69	-0.21026005
193	0xbe964675	-0.2935063
194	0x3e0fd852	0.14047363
195	0x3dedbc40	0.116081715
196	0x3e3aa9fa	0.18228903
197	0xbe871c43	-0.2638875
198	0xbe65b380	-0.22431755
199	0x3cb8f500	0.022577763

actor.layer_3.weight f4 [10, 20]
0	0xbe5be276	-0.21473107
1	0xbc97ee48	-0.018546239
2	0xbe46032e	-0.1933715
3	0xbdd8305c	-0.10556099
4	0x3be7d620	0.0070750862
5	0x3de550b0	0.111970305
6	0xbe2da688	-0.16958058
7	0xbdcfee7e	-0.10152911
8	0xbd31b564	-0.04338588
9	0x3e3e2a08	0.18570721
10	0x3dbce688	0.09223658
11	0xbe16c9a7	-0.14725362
12	0xbdd4d477	-0.10392087
13	0xbe55d9d7	-0.2088388
14	0x3e17f6a0	0.14840174
15	0x3da92c14	0.0826036
16	0xbdb70444	-0.089363605
17	0xbb8dce20	-0.0043275505
18	0x3c6a4d30	0.0143006295
19	0xbd789714	-0.060690954
20	0xbe5b3389	-0.21406378
21	0x3ceeda90	0.029156953
22	0xbdbc33ca	-0.091895655
23	0x3e0e0634	0.13869554
24	0xbd0f5254	-0.034990624
25	0x3c221400	0.009892464
26	0xbe2fc399	-0.17164458
27	0xbe383693	-0.17989568
28	0x3e3bfc18	0.18357885
29	0xbe5bbb86	-0.21458253
30	0x3d928bd0	0.07155573
31	0x3d9e451c	0.07728025
32	0x3e2d4f22	0.16924718
33	0xbe6491bc	-0.22321218
34	0x3e4afbbe	0.19822595
35	0x3e1f3d80	0.15550804
36	0x3e1a932c	0.15095204
37	0x3cd9d4d0	0.026590735
38	0xbcb9c910	-0.022678882
39	0x3d2030e0	0.03910911
40	0x3dbdf26c	0.09274754
41	0xbda4c5ca	-0.08045538
42	0xbde479bd	-0.11156032
43	0xbd707c7c	-0.058712468
44	0xbdf3328c	-0.118748754
45	0xbd023ab8	-0.03179428
46	0x3d549078	0.05189559
47	0x3dd7b190	0.10531914
48	0x3e15ceea	0.14629713
49	0x3972d800	0.00023159385
50	0xbe0b02ac	-0.13575238
51	0xbd1dd6c8	-0.03853491
52	0xbe284cc1	-0.1643553
53	0x3dd310c0	0.10305929
54	0xbe02bf34	-0.1276825
55	0x3e069dce	0.13146135
56	0x3e14ad20	0.14519167
57	0x3b0c3fc0	0.0021400303
58	0x3da5a208	0.08087546
59	0x3dfa8848	0.12233025
60	0x3df50578	0.11963934
61	0xbdb62658	-0.08894032
62	0x3e012a60	0.12613821
63	0x3d8fd758	0.070234954
64	0x3da087bc	0.07838389
65	0x3d5cae78	0.053877324
66	0x3c89e8a8	0.016834572
67	0xbcd08120	-0.025452197
68	0x3d151378	0.03639552
69	0xbe48eedd	-0.19622369
70	0x3d120240	0.035646677
71	0xbd33536c	-0.04378073
72	0xbdb5b5a6	-0.08872537
73	0x3d965634	0.07340661
74	0x3e5a1170	0.21295714
75	0xbc5cc3c0	-0.013474405
76	0x3d19bd70	0.037534177
77	0xbe2ff52f	-0.17183374
78	0x3e0d2196	0.13782343
79	0x3e433660	0.19063711
80	0xbe0d4bc1	-0.13798429
81	0x3e1ababa	0.15110293
82	0xbc49b330	-0.012310788
83	0xbc4ea9f0	-0.012613758
84	0x3dae7698	0.08518714
85	0x3dfdede0	0.12398887
86	0x3d810988	0.06300646
87	0xbe3e3835	-0.18576129
88	0xbe1486cc	-0.14504546
89	0xbe5db992	-0.2165282
90	0x3e17f38e	0.14839002
91	0x3db677ec	0.08909592
92	0xbde47ca1	-0.111565836
93	0x3d1af488	0.03783086
94	0x3e4c1024	0.19928032
95	0x3dc6b7a0	0.097029924
96	0x3e4501c0	0.19238949
97	0xbd7fdc38	-0.062465876
98	0x3dc6a508	0.09699446
99	0xbe2be1c2	-0.16785339
100	0x3e1b79f4	0.1518324
101	0xbdc07252	-0.09396805
102	0x3d99df94	0.07513347
103	0x3ce723e0	0.028215349
104	0xbe06e1aa	-0.13172022
105	0x3e264182	0.16235927
106	0xbd8a4e46	-0.06753211
107	0xbe1d2ff4	-0.15350324
108	0xbe1e59f6	-0.15464005
109	0xbe5f1b25	-0.21787699
110	0xbd61a308	-0.05508712
111	0xbe5a8908	-0.21341336
112	0xbe5237e3	-0.20529132
113	0x3e4e1058	0.20123422
114	0x3de0e9e4	0.10982111
115	0xbdfc6b63	-0.1232517
116	0x3e48834c	0.19581336
117	0x3e2ba17e	0.16760823
118	0x3caeefb0	0.021354526
119	0xbe25458b	-0.1613981
120	0x3d8b92c4	0.06815103
121	0x3e1084f6	0.1411322
122	0x3db6c3d4	0.0892407
123	0x3e183334	0.14863282
124	0x3e61d6ae	0.2205455
125	0x3cd87c50	0.026426464
126	0xbe1d5e14	-0.15367919
127	0x3e587bd8	0.21140993
128	0x3dd0d4cc	0.10196838
129	0xbdcbbc13	-0.09947982
130	0x3ce0fb80	0.027463675
131	0x3e009ab8	0.1255902
132	0xbdd729aa	-0.10505994
133	0xbc909358	-0.017648384
134	0x3cd91a80	0.026501894
135	0xbdc0e0d4	-0.094178826
136	0x3c282250	0.010262087
137	0x3d001290	0.031267703
138	0xbe37a749	-0.17934908
139	0xbdc862e0	-0.09784484
140	0x3d307bb8	0.043086737
141	0xbdb40fa2	-0.08792044
142	0xbd917080	-0.07101536
143	0x3db11ca0	0.08648038
144	0x3e1a765e	0.15084216
145	0x3da58490	0.08081925
146	0x3ddabd0c	0.10680589
147	0xbdf9e82b	-0.12202486
148	0xbe25380e	-0.16134664
149	0x3e237212	0.15961483
150	0x3c94eca0	0.018179238
151	0xbc38aee0	-0.011272162
152	0xbe1a79c0	-0.15085506
153	0x3dda9b68	0.10674173
154	0x3c75d5f0	0.01500462
155	0xbe0dc382	-0.13844112
156	0xbd53636c	-0.051608488
157	0x3d348be0	0.044078708
158	0x3e14201e	0.14465377
159	0xbe139ef6	-0.14416108
160	0xbe3b27b8	-0.1827687
161	0x3d7263a0	0.05917704
162	0xbe4026fe	-0.18764874
163	0xbd913cca	-0.07091673
164	0xbe543997	-0.20725094
165	0xbe1b2392	-0.15150288
166	0x3c444ba0	0.011980921
167	0xbe326b78	-0.17423809
168	0x3e06e17a	0.1317195
169	0xbdfc9990	-0.12333977
170	0x3decd6ac	0.11564383
171	0xbd99295e	-0.07478593
172	0x3e5ea908	0.21744168
173	0xbe339db2	-0.17540625
174	0xbc094480	-0.008378148
175	0xbe22fe16	-0.15917239
176	0xbd826a7e	-0.06367968
177	0x3e07ae1a	0.13250008
178	0x3e10877c	0.14114183
179	0xbe003d8f	-0.12523483
180	0x39cec000	0.00039434433
181	0xbd9b7dc8	-0.0759235
182	0xbe104ecc	-0.14092559
183	0xbdf4ad68	-0.11947137
184	0xbdedab41	-0.1160493
185	0xbcbf96f8	-0.023387417
186	0xbd9560e2	-0.072938696
187	0xbe5b0f5b	-0.21392576
188	0x3d0cb030	0.034347713
189	0xbe214c19	-0.15751685
190	0xbd7cfb58	-0.061763138
191	0x3e4bc3a0	0.19898844
192	0xbdf19ac9	-0.11797101
193	0x3df2a10c	0.118471235
194	0x3e5f22d6	0.21790633
195	0x3cfb5bc0	0.030683398
196	0x3dd6e824	0.10493496
197	0x3dfd1aec	0.123586506
198	0x3e35e356	0.17762503
199	0x3dff1d38	0.12456745

actor.layer_out.weight f4 [1, 10]
0	0x3d9bd780	0.07609463
1	0xbd79cba0	-0.060985208
2	0x3e0493ea	0.1294705
3	0x3e5260f6	0.205448
4	0x3e86ca11	0.2632604
5	0xbd2118d0	-0.039330304
6	0xbc226540	-0.009911835
7	0xbd4a8e90	-0.049452364
8	0xbe9d40e2	-0.30713564
9	0x3e9052fb	0.2818831
