code/weights/model.pt (torch, 17320 bytes, 8 tensors)

network.layer_1.weight f4 [40, 3]
00000000: e6d0 11bf a831 22be b2ef 6bbe a0e1 da3e
00000010: 489b dcbd 4098 5abe 3887 8fbd 71e9 83be
00000020: e2f8 ac3e e867 8a3e 4c2b 303e 3e6b 32be
00000030: 9c77 ffbd 1c8a 623e 48e4 9c3e c063 dabd
00000040: 80c6 073c 285d fd3e 80f9 9b3c 64f7 f5be
00000050: d8ec b6bd 60c3 6e3e 5391 92be 70a7 dcbd
00000060: b9fb 88be 800b cb3e 1021 42bd 0287 a3be
00000070: 7e1e 083f 6424 b6bd 4215 b3be b2a3 00bf
00000080: 5648 123f 7a4f 7dbe c641 0f3f ff3d 0fbf
00000090: 505b 473d dd33 0ebf b028 5cbd f0b4 cd3e
000000a0: 70f3 c5bd c452 973e bd3c a4be 1fbd 8ebe
000000b0: 9a80 a1be 19b4 efbe 9d48 c1be eef2 cabe
000000c0: d833 ffbe 5808 2c3e 975d d1be 5c3a d23e
000000d0: a49c 9ebd deaa 803e c8bf 113e 10bf c73e
000000e0: e4fd ee3e c09c 64be 0018 d53d 9816 513e
000000f0: a840 253e 4c9f ecbd 4960 04bf d05a 33bd
00000100: 60b4 133e 8ea0 d53e 1050 b13d 9858 0d3e
00000110: bcfc 0f3f 8003 a8be e21e 2abe 64cd 89be
00000120: 4099 0d3d f8e3 a9bd a061 d93c 6e38 57be
00000130: 7e95 dabe 00dc 973a 0edf afbe c0bd 6b3c
00000140: 40b2 45bc faa0 0d3f fe15 11be e415 6ebe
00000150: 16ac d5be d90c 82be e8c0 2fbe 10b7 13bd
00000160: 52ee e1be 46e3 dabe 40af 56bd dc70 a93e
00000170: e0eb 26bd d854 5cbe e65e 60be 927d 09bf
00000180: b0c8 a9be 7c7b 3a3e 16bc 053f c4b0 0ebf
00000190: 12dd d43e 9488 ba3e eef6 803e 000e 9dbb
000001a0: 8019 d9bc e0e2 ae3e 7c93 51be 54c2 0d3f
000001b0: a2fe ccbe 909d 7d3e 3248 afbe dd2d cabe
000001c0: ec9e f33e c072 94bd fc09 203e 2e4b 113f
000001d0: 50cc ac3e cce3 ed3e b495 de3e 242b 483e
-0.5695938 -0.15839255 -0.23040655 0.42750263 -0.10771805 -0.21347141 -0.07008213 -0.2576404
0.33783633 0.270324 0.17204016 -0.17423722 -0.124739856 0.22122997 0.30642915 -0.10663557
0.008287072 0.49485135 0.01903987 -0.48040307 -0.08931893 0.23316717 -0.286265 -0.10774124
-0.2675455 0.3965721 -0.047394812 -0.3193894 0.5317153 -0.0889366 -0.34977156 -0.5024978
0.57141626 -0.24737349 0.5595974 -0.55953974 0.048671067 -0.5554789 -0.05374974 0.40177107
-0.09665573 0.29555333 -0.3207759 -0.27878663 -0.31543428 -0.4681709 -0.37750712 -0.39638466
-0.4984424 0.16800058 -0.40891716 0.4106015 -0.077447206 0.2513036 0.14233315 0.39012957
0.46678078 -0.2232542 0.10404968 0.20418775 0.16137946 -0.11553821 -0.5170942 -0.043787777
0.14424276 0.41724056 0.08657849 0.13803327 0.5624502 -0.3281517 -0.16613343 -0.26914513
0.03456998 -0.08295435 0.026535809 -0.2101762 -0.42692178 0.0011585951 -0.34349865 0.014388502
-0.012066424 0.55323756 -0.14168546 -0.23250538 -0.41732854 -0.25400427 -0.17163432 -0.036063254
-0.44127136 -0.4275152 -0.052413225 0.33093917 -0.04075229 -0.2151674 -0.21911201 -0.5370723
-0.33160925 0.18211168 0.5224012 -0.5573847 0.41574913 0.36432326 0.25188392 -0.0047929287
-0.026501417 0.34157467 -0.20466417 0.55374646 -0.4003802 0.24767137 -0.34234768 -0.39488116
0.47582185 -0.07248449 0.15628809 0.5675534 0.33749628 0.46462858 0.4347359 0.19547707

network.layer_1.bias f4 [40]
00000000: 904f 2e3d b0ff 1f3d 7ebb e3be 144a 083f
00000010: 5a76 023f 80d8 4d3d f0a3 3ebe f0a6 b63e
00000020: fed8 8b3e 4a03 973e 08b7 8f3e 9283 bd3e
00000030: 587a e1be 7413 0c3f 2044 233d 9227 68be
00000040: b0b8 f43e 1d7b cebe b8e3 ca3d d859 013f
00000050: 40e6 c03e e85e 483e 40ca 19bd 6c6a 8d3e
00000060: 9064 b43d 08d4 45be d052 f73e fc79 643e
00000070: 6ef0 093f 221b 65be 6419 b6bd 64da ff3e
00000080: b4fb 043f 6455 1e3e 609d 2c3e a028 3d3d
00000090: 102f 043d 485c 093e d3c8 02bf aac7 39be
0.042556345 0.039062202 -0.44478983 0.53238034 0.5096184 0.0502553 -0.18617225 0.35674238
0.2731399 0.29494697 0.2806933 0.37014443 -0.44038653 0.54717183 0.03985989 -0.22671345
0.47797155 -0.40328303 0.09906715 0.50527716 0.37675667 0.19567454 -0.037546396 0.27620256
0.08808243 -0.19319165 0.48305368 0.22312158 0.5388249 -0.22373632 -0.088915616 0.49971306
0.5194657 0.15462261 0.16856909 0.04618132 0.032271445 0.13414109 -0.51087683 -0.18142572

network.layer_2.weight f4 [40, 40]
00000000: 9b3c 0a3e e252 abbd 80dd 6e3d 9062 813d
00000010: 44cf 7b3d a45c 853d c7bd 9bbd 58f2 7e3d
00000020: ea09 d33d 7257 f53d 8061 c73c 30f6 973d
00000030: f2e4 b83d 7514 183e 607a 253c ea7d c93d
00000040: c020 77bb 3f43 203e c045 1dbb be45 fb3d
00000050: b6fe ccbd 1c8e a83d 844b 67bd 7116 1b3e
00000060: 5e81 9cbd 705b 12be 4a67 d53d 0021 cbbd
00000070: ce72 c2bd e996 1cbe ab08 203e 0f5d 053e
00000080: 2a35 f9bd f1df 123e 6408 703d 8219 db3d
00000090: 8e3b f83d 8004 06bc b038 4b3c 69c4 1b3e
000000a0: 3038 163d b0c8 693d 982c adbc aa2a c63d
000000b0: 40da 0c3c e200 e73d 17a1 96bd 89a9 87bd
000000c0: 36f5 cdbd 471f 093e eb29 a2bd 80c3 00bb
000000d0: 483a 623d f88e f8bc 4323 133e c0b4 e73c
000000e0: 50ba 01bd b643 16be 20a1 ad3d c00c 563d
000000f0: 243e 393d 383c b5bc 997d 1abe f071 f6bc
00000100: c3bf 1f3e 64f2 75bd 40b0 c9bc 187d 6e3d
00000110: 28ac 763d 4099 013c 5eca 10be fe23 81bd
00000120: 7f3f 1d3e 9025 4c3d 6111 0abe 804b 6a3b
00000130: f022 d83c 4611 f9bd 8847 d73c 25a3 083e
00000140: 0040 60ba 50ba 9b3d 17b7 f2bd 9286 9b3d
00000150: 047c 043d 476b 19be 679a b5bd 7cf0 5d3d
00000160: 3abe 14be 6ab8 fd3d 606c 743c 409e 3b3d
00000170: 1033 acbc c661 c03d 6b65 093e 3496 9dbd
00000180: 6057 8fbb 4a83 d83d 2e68 4fbd 41a1 f1bd
00000190: 6204 0dbd 00e8 e939 5314 0d3e a08f ecbb
000001a0: 6ef3 b8bd ae31 d63d b392 173e 06df 6fbd
000001b0: 8e76 f73d e4bf a93d 1e7e 8cbd 9d90 0c3e
000001c0: f8f4 5d3d 9609 12be 6244 0abe 5e2b ef3d
000001d0: d83f e9bd 5042 0cbe c058 0e3b 781d c3bd
000001e0: 40d2 98bc 0abb cf3d e810 b43d e055 873d
000001f0: 17a5 0bbe bb19 09be 0076 183b 6ebf ec3d
00000200: 1eac acbd 7d79 f1bd fbb2 033e 2885 babd
00000210: a24a e7bd c85e 0cbe 6022 abbb bcf7 133d
00000220: ee1b 5fbd 956c 1d3e 5fa5 0d3e 9eb1 e53d
00000230: 8979 a2bd aed1 d13d 3068 16bc 126c f33d
00000240: 78ab 7d3d b968 1d3e a47e 1cbd e83a 2f3d
00000250: 2dab f6bd 4873 b5bc ee8d f53d 0c7e 563d
00000260: e415 073d 564e cc3d 3581 eebd a6f7 18be
00000270: 03a4 1b3e 8258 a3bd 6ee2 a6bd 801c a6bd
00000280: 7e3d b13d a628 a63d 1c36 663d fbeb 183e
00000290: e081 eabd 1d44 0c3e 3cd0 773d 9294 fd3d
000002a0: 2007 7d3d 0c09 54bd 00ee aeb9 de8d 78bd
000002b0: f4eb 9a3d 60fb 433c 4040 cc3b 022f d93d
000002c0: a089 b43b f691 9e3d b8c9 653d 20ff 6f3d
000002d0: 072f 0a3e 6cdf 983d d3ee 1bbe 703d f43c
000002e0: 8234 eb3d 5626 54bd 02b1 2abd b056 5f3c
000002f0: 9264 df3d 0efe 823d 146b 563d 195b 1e3e
00000300: a43f a6bd ae57 ee3d e925 fabd 706f 8abc
00000310: 3009 07be d9a7 f8bd bbdb 1c3e 10fa 703d
00000320: ef02 133e 0164 87bd 18f2 1ebe 8c89 eebd
00000330: db6e 113e e45d d8bd 3aa1 bf3d 50e5 c9bd
00000340: b419 02be a64f 31bd 9001 dd3c 884d 333d
00000350: 2469 203d 50f0 7a3d b63a 0fbe e416 323d
00000360: 720e c63d 4ec4 e03d cc96 b73d 3e7a c73d
00000370: 0074 5e3d d213 ac3d 106f b7bd cf2e 0d3e
00000380: e968 d0bd 64ac 823d 6797 1a3e 0295 c13d
00000390: 407b 5d3d 9fb6 033e 3697 f73d 5cc0 14be
000003a0: 7cfb cfbd ff5b 10be 08f8 fa3c eabc c23d
000003b0: aef0 9f3d 2004 993d d0d0 583d 44a3 893d
000003c0: 76a5 be3d 8814 6dbd 8983 a3bd 896f 82bd
000003d0: f29b df3d 7049 06be a8f0 253d 06bf f5bd
000003e0: 102c c3bc 71e1 103e 4bf7 05be e087 bfbd
000003f0: 7868 dabc f051 8e3c c06b 9a3c 9bae 17be
0.13499682 -0.08365418 0.058316708 0.063176274 0.06147696 0.065118104 -0.076045565 0.062242836
0.10304625 0.119795695 0.024338484 0.074200034 0.09028043 0.14851554 0.010099977 0.09838469
-0.003770873 0.15650652 -0.0023997873 0.12269162 -0.1000952 0.0823023 -0.0564685 0.1514528
-0.07641862 -0.14292693 0.104200915 -0.099184036 -0.094945535 -0.15291943 0.15628307 0.1302378
-0.12168343 0.1434324 0.058601752 0.106982246 0.12120734 -0.008179784 0.012403652 0.15211643
0.03667468 0.057076156 -0.021139428 0.09676106 0.008596957 0.11279465 -0.07354944 -0.06624133
-0.10056536 0.13390838 -0.079181515 -0.0019647777 0.055231363 -0.03034161 0.1436892 0.02828443
-0.031671822 -0.14674267 0.08477998 0.052258253 0.045225278 -0.022123441 -0.15086974 -0.030083627
0.15600495 -0.060045615 -0.024620175 0.058224767 0.060222775 0.007910073 -0.14139697 -0.06305693
0.15356253 0.04984051 -0.13483192 0.0035750568 0.026383847 -0.12161498 0.026279226 0.13343485
-0.00085544586 0.07603896 -0.11851328 0.075940266 0.032344833 -0.1498233 -0.088673405 0.054184422
-0.1452569 0.1238869 0.014918417 0.045805216 -0.021020442 0.09393649 0.13417594 -0.076946646
-0.0043744296 0.105719164 -0.050636463 -0.11798335 -0.034428008 0.00044614077 0.13777284 -0.00721927
-0.090308055 0.104586944 0.14802055 -0.0585623 0.120831594 0.08288553 -0.068599924 0.1372704
0.0541887 -0.14261469 -0.13502648 0.116781935 -0.1138913 -0.13697171 0.002172038 -0.09527105
-0.018654943 0.10143097 0.08792287 0.06608176 -0.13637196 -0.13388722 0.0023263693 0.1155995
-0.08431266 -0.1179075 0.12861244 -0.09107429 -0.11293532 -0.13708031 -0.0052226037 0.03612493
-0.054469995 0.15373452 0.13832615 0.112155184 -0.07933337 0.10245071 -0.009180114 0.11885847
0.061931103 0.1537198 -0.03820671 0.042780787 -0.12044368 -0.022149697 0.119899616 0.0523663
0.03297986 0.09975879 -0.11645738 -0.1493822 0.15199284 -0.07975866 -0.08148657 -0.08110905
0.08654307 0.08113222 0.056203946 0.1493377 -0.11450553 0.13697858 0.060501322 0.12381853
0.061774373 -0.05176644 -0.0003336519 -0.06068217 0.07564536 0.011961788 0.006233245 0.10604669
0.0055095702 0.077426836 0.056100577 0.058592916 0.13494502 0.07464489 -0.15227823 0.029814452
0.114846244 -0.051794372 -0.041672714 0.013631508 0.10907854 0.06396113 0.05234821 0.15464438
-0.08117607 0.11637817 -0.12214262 -0.01689884 -0.13187099 -0.121413894 0.15318196 0.05883223
0.14356588 -0.06610871 -0.15522039 -0.11647329 0.14202444 -0.10564783 0.093569234 -0.09858191
-0.12705117 -0.04328885 0.026978284 0.04377511 0.03916277 0.061264336 -0.1398724 0.04347886
0.09670724 0.10974942 0.08964309 0.09740113 0.054309845 0.08402218 -0.0895673 0.13787387
-0.1017626 0.06380537 0.15096818 0.09452249 0.05407262 0.12862633 0.12089388 -0.14526504
-0.10155389 -0.14097594 0.030635849 0.09508689 0.07809578 0.0747149 0.052933514 0.067205936
0.09308903 -0.05788091 -0.07984073 -0.0636893 0.10918416 -0.13113952 0.04051271 -0.119993255
-0.023824722 0.14148499 -0.13082616 -0.09352088 -0.026661143 0.017373055 0.018850207 -0.148127

network.layer_2.bias f4 [40]
00000000: 7404 0abe 04d6 223d e026 b0bb 2eb2 ed3d
00000010: c063 713c 48ac 713d 3c94 0ebd ef87 8dbd
00000020: 50d2 93bc c286 21be 609b 1fbd a0a0 843c
00000030: d0e5 913d 00b6 48ba e8d3 8d3d 36f9 893d
00000040: ee26 c7bd b0ec 2fbc c0e4 c53b 6874 bc3c
00000050: 7847 99bd a030 453d fd6e 0f3e 8ff3 1bbe
00000060: 1086 1bbd d67f 75bd e070 06bc 2893 09bd
00000070: 13be 183e e009 933d 9eac dc3d 20d2 793d
00000080: 8a11 e63d 54fc 1fbe d87d b43d be20 4dbd
00000090: bee9 bc3d 4b31 b1bd def0 c9bd 4af7 1fbe
-0.13478261 0.039754882 -0.005375728 0.11606251 0.014733255 0.05900219 -0.034809336 -0.06910693
-0.01804462 -0.15774062 -0.038966537 0.016189873 0.071239114 -0.00076565146 0.069251835 0.06736986
-0.09724222 -0.010737583 0.006039232 0.023004726 -0.07484335 0.048142076 0.14007182 -0.15229629
-0.03796965 -0.059936367 -0.008205622 -0.033587605 0.14916258 0.07179618 0.107751116 0.060991406
0.11233814 -0.156236 0.08813065 -0.050080054 0.0922427 -0.0865198 -0.09860395 -0.15621677

network.layer_3.weight f4 [40, 40]
00000000: 923d d23d 00bc e5bd 2a78 d03d 8a90 c43d
00000010: 2aa5 d13d e773 aabd e684 52bd 08de 0bbd
00000020: e224 17be 4ad1 21be 9022 123c 1ac4 7fbd
00000030: 49b4 c2bd a87c e03c 22c0 973d c0f7 ed3c
00000040: 8814 fdbc e410 04be f41a 973d 146f 3fbd
00000050: 7e36 d93d a418 03bd fe10 b8bd 3068 40bc
00000060: f48f 823d 49a1 82bd b9a4 b4bd 912d bbbd
00000070: f701 193e a46c bcbd 348e 65bd f090 54bc
00000080: dc75 1ebe b03f 9dbd 230d 88bd 40a0 a6bb
00000090: f2ed 8b3d 1430 913d e446 02be 567d f63d
000000a0: 2225 f63d 5f61 c8bd 4c6e 7b3d 82b0 c83d
000000b0: ee5a b53d 5e02 f03d c520 203e 5103 95bd
000000c0: f092 363d 30b3 0dbe 00a3 893b 6166 c3bd
000000d0: 18f7 51bd f8d9 02be 6b1b 153e 6841 ef3c
000000e0: 8ca8 6e3d 8c0e 1a3d ea66 9ebd 122e fc3d
000000f0: 2654 fe3d 9088 43bd d395 09be a0d5 ff3b
00000100: 7c7d 5f3d 160d 62bd bc53 04bd 13a5 c0bd
00000110: ba83 7bbd 482e 803d d20c b33d 543e 193d
00000120: 0078 073c 1e59 edbd 27f2 00be c115 1a3e
00000130: 639d 013e c622 49bd 5422 373d 9a29 ba3d
00000140: e8f1 873d f89a 7a3d 86af 03be 1494 19be
00000150: 4caa 46bd 6765 15be ce0e cb3d c42f 4e3d
00000160: 73e7 d3bd aae8 e53d ef56 bebd 00fa 553b
00000170: 1c8a 8c3d fed3 d93d 407c 333b a054 b2bd
00000180: b681 d1bd 52d5 c43d b2ee 31bd 06e3 f7bd
00000190: 9ad2 b83d 8090 32bd 3ab7 d6bd a33d 86bd
000001a0: 2033 3bbc e9f9 083e 40d3 0a3d 2044 423d
000001b0: 56ae be3d f0a9 18be bee7 ff3d a98b bcbd
000001c0: 5b9e a5bd 804b 013d 57fb e9bd 7ac0 02be
000001d0: 00d4 5839 5935 063e bc54 1ebe f76f 003e
000001e0: 4869 c7bc ce43 0cbe 909a 903d e0ef 91bc
000001f0: 89ee 14be 5803 073d 207e 843b 90a1 e8bd
00000200: d478 59bd ebd2 083e 8e01 96bd 84d0 863d
00000210: 5bc8 163e 8e82 e93d 1ddf 20be a664 9b3d
00000220: 412f 063e fd02 0e3e fa71 bcbd 3edc dd3d
00000230: 14f8 7ebd beb0 833d 1507 003e 9b3b 103e
00000240: d2cc e63d b05e 433c 2821 a33c f2ef b53d
00000250: 6cbb 9abd b247 91bd 0099 473a 48c8 0a3d
00000260: 2022 32bc 868b fb3d 24fe 343d 7d49 0dbe
00000270: d78c 96bd 801f c4ba 1608 cbbd fe2e 06be
00000280: 306a 133d 786d dcbd 80f2 3abd 209c 8e3c
00000290: 88b1 bc3c 7044 60bc 30de 1fbe d287 863d
000002a0: 61d8 0f3e 91e6 0ebe 2c92 703d ede1 e3bd
000002b0: 68a6 13be bcef 273d 9819 debc 89d5 103e
000002c0: 327d bebd abe6 0e3e 2aee e03d f8d3 fe3c
000002d0: d622 c73d 36a5 9c3d e009 f63c 9910 babd
000002e0: 263e b9bd 622c a6bd 5155 95bd f472 7c3d
000002f0: ec65 363d 7cca 10be d8c0 93bd 8265 c03d
00000300: 9262 adbd 07a7 94bd 8973 1e3e a69b f63d
00000310: 826f ad3d dc4c 773d 5895 9cbc 28f2 dcbc
00000320: 40fe 4c3d b04f 0e3d 20da a1bc e854 313d
00000330: 6090 843c 4ea5 e03d c206 e03d 6949 ecbd
00000340: b550 173e 5e93 c7bd 0ce4 aa3d 9062 503d
00000350: f2b2 f93d 4a47 0abe 2c27 713d 55c8 c8bd
00000360: 2c03 69bd ce0f e93d 923c e33d 8082 853a
00000370: d91e 0dbe d632 c23d 1a6e fe3d 3823 c6bd
00000380: 8c1b 09be eedb a13d 1419 4dbd e2e3 f13d
00000390: ad3b 06be f383 f2bd 7846 79bd 55d2 8cbd
000003a0: 6843 5dbd faf3 1ebe cc71 753d 1ef6 ad3d
000003b0: 1e44 d63d 8fc6 febd 5064 9e3d 26c4 ac3d
000003c0: fc4d 3a3d b6e6 ce3d 017e 0f3e 848f 6cbd
000003d0: 6389 09be fc61 64bd e432 17bd 8000 393c
000003e0: 301d 773c f398 8bbd 50ea 423d 24a8 04be
000003f0: 8a08 1abe 8820 a93d 78da 1dbd 8aba 903d
0.1026565 -0.11217499 0.101791695 0.09597881 0.10236581 -0.08322888 -0.051396273 -0.034147292
-0.14760163 -0.15802494 0.008919373 -0.062442876 -0.09507043 0.02740319 0.07409693 0.0290488
-0.03089358 -0.12897068 0.07378188 -0.04673679 0.10606097 -0.03200592 -0.08987616 -0.01174359
0.06375113 -0.06378419 -0.08820481 -0.091395505 0.14942156 -0.09200409 -0.05604382 -0.012974009
-0.15474647 -0.07678163 -0.06643131 -0.0050850213 0.06832494 0.07089248 -0.12722355 0.12035625
0.12018801 -0.09784197 0.061384484 0.09799291 0.08855234 0.117192015 0.156375 -0.07276023
0.044573724 -0.13837886 0.0042003393 -0.095410116 -0.051261038 -0.12778461 0.1456124 0.029205993
0.058266208 0.03761153 -0.07734473 0.12313475 0.12418394 -0.047737658 -0.1343606 0.0078074485
0.05456303 -0.05518826 -0.032306418 -0.094064854 -0.06140492 0.062588274 0.0874268 0.037412956
0.008268356 -0.115892634 -0.12592374 0.15047361 0.12657695 -0.04910543 0.044710472 0.09089966
0.06637937 0.061182946 -0.12859926 -0.14997894 -0.04850225 -0.14589463 0.09914933 0.05033852
-0.1034688 0.11226018 -0.09293925 0.0032650232 0.0686228 0.106361374 0.0027387291 -0.08707547
-0.102298185 0.09611 -0.04344053 -0.12103848 0.09024544 -0.043594837 -0.104841664 -0.06554725
-0.011425763 0.13376583 0.03389287 0.04742825 0.09310596 -0.14908576 0.12495373 -0.092063256
-0.080868445 0.031566143 -0.114248924 -0.12768736 0.00020678341 0.13106288 -0.15462011 0.12542711
-0.024342194 -0.1369774 0.070607305 -0.017814577 -0.14544119 0.032962173 0.0040433556 -0.113589406
-0.053093746 0.13361709 -0.07324515 0.0658274 0.14724867 0.114018545 -0.15710111 0.075875565
0.13103963 0.13868327 -0.09201427 0.108330235 -0.062248304 0.06430195 0.12502702 0.14085238
0.11269535 0.011924431 0.019913271 0.088836566 -0.07555279 -0.07093753 0.00076140463 0.03388241
-0.010872394 0.12282471 0.04418768 -0.13797565 -0.07351082 -0.0014963001 -0.09913652 -0.13103864
0.03598994 -0.10763067 -0.045641422 0.01740843 0.023033872 -0.013688192 -0.15612102 0.065688744
0.14047386 -0.13955142 0.05873315 -0.11127076 -0.14418948 0.041000113 -0.027111813 0.14143957
-0.09301223 0.1395518 0.10982926 0.031106934 0.09723441 0.07648699 0.030034006 -0.09085197
-0.09045057 -0.08113934 -0.072916634 0.061633065 0.044530794 -0.14139742 -0.072145164 0.09394361
-0.084660664 -0.072584204 0.1547376 0.12041406 0.08468534 0.060376033 -0.019114181 -0.026970938
0.05004716 0.034743965 -0.01975733 0.043293864 0.016182125 0.10969029 0.10938789 -0.115374394
0.14776881 -0.09744905 0.08344278 0.050875247 0.12192334 -0.13503757 0.058875248 -0.09803835
-0.05688779 0.11379968 0.11095537 0.0010185987 -0.13781299 0.094823524 0.12423344 -0.09674686
-0.13389415 0.079032764 -0.050072744 0.11811043 -0.13108702 -0.118415736 -0.06085822 -0.06876055
-0.05401936 -0.15522757 0.05992298 0.08494209 0.10462211 -0.12440216 0.07733977 0.0843585
0.045484528 0.10102598 0.1401291 -0.057754055 -0.13431315 -0.055757508 -0.036913767 0.011291623
0.015082642 -0.06816282 0.04758674 -0.12954766 -0.1504232 0.08258158 -0.038538426 0.070668295

network.layer_3.bias f4 [40]
00000000: 68c1 1abd f28d fc3d d84d b83c 00e4 05bd
00000010: bf97 083e 8019 513d 2404 1b3d e23c f1bd
00000020: b506 153e ee1f f33d 9069 093c 49ce 0a3e
00000030: b03a 39bd ac22 553d 85ec bbbd 8406 133d
00000040: 5eb9 58bd cc93 1d3d bdec 16be 50dc 003d
00000050: d2f1 c33d 21a2 16be b896 d7bd bec4 ae3d
00000060: e6c0 51bd 84d8 cebd 98d1 61bd 1c56 d6bd
00000070: 301f 48bc 9225 8e3d 06af abbd de62 76bd
00000080: cf81 043e 5a63 54bd c6af a43d 1c81 953d
00000090: c735 0bbe 8612 62bd 00c6 f8bb b0e8 56bc
-0.037782103 0.123317614 0.022498056 -0.03268814 0.13339137 0.05104971 0.037845746 -0.117791906
0.1455334 0.118713245 0.0083869845 0.13555254 -0.045221984 0.05203502 -0.09175972 0.035894886
-0.052911155 0.03847103 -0.14738746 0.031460106 0.09567608 -0.14710285 -0.10526794 0.08533619
-0.051209353 -0.10099891 -0.055131525 -0.10465643 -0.012214467 0.0694076 -0.083829924 -0.06015288
0.12940143 -0.05185256 0.080413386 0.07300016 -0.13594733 -0.055193447 -0.007591963 -0.013117

network.layer_4.weight f4 [3, 40]
00000000: 40cf 15bd ea49 ca3d 80a1 b43d d6e8 abbd
00000010: 0762 a2bd d6a7 f43d 477a 0f3e bdf9 d9bd
00000020: 668b 8ebd 995d d5bd 708b e4bc 0000 4239
00000030: 2a61 0ebe ac08 30bd e577 1e3e 1f6c 013e
00000040: 7099 053d 4fed 133e 559d f3bd 6f1b 1d3e
00000050: 381c 873d 2835 f53c e0f5 fb3b 346d 073d
00000060: b829 8fbd 6845 bb3c eca7 9abd ee49 ee3d
00000070: 1af7 ef3d 9835 073d c0e6 7dbc 6c9c c7bd
00000080: 828c f93d 2cb3 d8bd b0d6 fbbd 3c24 04be
00000090: 41b7 123e 2e6a f03d fc87 0c3d f097 ccbd
000000a0: e072 01bd f579 c8bd 18e1 8c3c 3b22 d9bd
000000b0: 2d17 05be 8b53 033e 2eef d73d a65f 0bbe
000000c0: a8de d43c 3562 113e 97c7 043e e0dc adbb
000000d0: f290 cfbd e8ab b73d 2c44 7f3d c0cd 383d
000000e0: 6c26 123d 8258 cc3d f13e 1c3e 4076 65bc
000000f0: 3810 923c 908b 92bd 24e6 303d 2e1a 1bbe
00000100: 494f 1c3e f2f9 fb3d 3eae d0bd 9057 0a3c
00000110: 4071 313d 59b1 0cbe 3c1c 29bd 4263 bf3d
00000120: 209b 073d 2205 15be d4c9 1c3d dc06 2bbd
00000130: 10ac 52bc 16b6 953d 8882 683d 0023 2a3c
00000140: 88ef e6bd eca7 693d 946f 543d 2bfc 0b3e
00000150: f026 6bbd 81d7 93bd ee1e 1abd 8d84 0b3e
00000160: 50a9 8f3d fd89 08be 7e6c e7bd b931 203e
00000170: d28c 47bd 7884 febc e682 41bd 139f 89bd
00000180: 52dd d9bd e8f4 db3c 6efe 4fbd f443 243d
00000190: 6733 203e 5e5f 9bbd 95ea c6bd 8d7f 0f3e
000001a0: 9939 9bbd ded7 1cbe a875 a6bd ba68 5dbd
000001b0: f006 b33d 59b4 a4bd 2697 70bd 40a3 db3b
000001c0: a6db ee3d 1a95 3bbd 50d2 f9bc 4c52 b23d
000001d0: 9de8 87bd 04b0 bb3d 8202 0dbe 3f1b f5bd
-0.036574602 0.09877379 0.08819866 -0.08394019 -0.079288535 0.11946075 0.14011489 -0.10643337
-0.06960182 -0.10418243 -0.02789852 0.00018501282 -0.13904253 -0.04297702 0.15475424 0.12638901
0.032617033 0.14445995 -0.11895243 0.15342496 0.06597179 0.029932573 0.0076892227 0.03306313
-0.06990379 0.022860244 -0.0755156 0.11635195 0.11717053 0.033010095 -0.01549691 -0.09746632
0.12185003 -0.10581049 -0.12296808 -0.12904447 0.14327718 0.11739002 0.034309372 -0.09989917
-0.031603694 -0.097888865 0.017197177 -0.10602232 -0.12997122 0.12824838 0.10543667 -0.13610706
0.025985077 0.1419762 0.12966762 -0.0053058714 -0.10135068 0.089683354 0.062320873 0.045118093
0.035681173 0.09977819 0.15258385 -0.014005244 0.01783 -0.07155526 0.04318823 -0.15146706
0.1526462 0.12303533 -0.10189484 0.008443728 0.043320894 -0.13739528 -0.041286692 0.09345104
0.033106923 -0.1455274 0.038278416 -0.04175459 -0.012858406 0.07310121 0.05676511 0.010384321
-0.11276156 0.05704491 0.05186422 0.13670413 -0.05741018 -0.072188385 -0.037627153 0.13624783
0.07014716 -0.13333888 -0.1129999 0.15643968 -0.04871828 -0.031069025 -0.047243975 -0.06719794
-0.106379166 0.026850179 -0.050779752 0.040103868 0.15644608 -0.07586549 -0.09712712 0.140135
-0.07579345 -0.15316722 -0.0812791 -0.054054953 0.087415576 -0.08042211 -0.058737896 0.0067028105
0.11662988 -0.04579649 -0.030495793 0.08707103 -0.06636164 0.09164432 -0.13770488 -0.119680874

network.layer_4.bias f4 [3]
00000000: fc65 5a3d 9830 e5bd a409 0f3d
0.053319916 -0.11190909 0.034921303
