code/weights/model.pt (torch, 7202 bytes, 8 tensors)

critic.layer_1.weight f4 [10, 4]
00000000: 0052 7fbe 4cf7 e63e e2d0 cc3e a039 b5bc
00000010: 629e 88be 4042 65bc aed5 cbbe 20c0 e33d
00000020: 788b f2be bc8e 35be 94f9 57be 32d7 fcbe
00000030: 6842 a63e 606a 883c dcad 173e 40a2 46bd
00000040: 58df 30be 8a12 c5be 4c43 373e 10f0 4ebd
00000050: 5083 9bbe 1cbd dabe 008a 78bd f45c ee3e
00000060: 6c2d 4a3e 6620 8a3e 7429 55be 80fb 85bb
00000070: 4828 c53d 0a30 813e 4a46 8abe 70c5 8b3d
00000080: c01d 9e3c 9474 a8be 80de 64be 8609 e1be
00000090: 5462 fd3e 1801 fbbe 2408 20be aa26 833e
-0.24933624 0.45110548 0.40003115 -0.022122204 -0.26683336 -0.013992846 -0.39811462 0.11120629
-0.4737203 -0.1773023 -0.210913 -0.4938293 0.3247254 0.016652286 0.14812416 -0.048494577
-0.17272699 -0.38490707 0.17896765 -0.05052191 -0.3037362 -0.42722404 -0.060678482 0.46555293
0.1974389 0.26977843 -0.20816594 -0.004088819 0.09626824 0.25231963 -0.2700675 0.068247676
0.019301295 -0.32901442 -0.22350502 -0.43952578 0.4948908 -0.49024272 -0.15628105 0.25615436

critic.layer_2.weight f4 [20, 10]
00000000: 16e3 e1bd 688c 2e3d e253 713e e064 a83d
00000010: 1065 8d3c 0c15 d23d 6f19 8dbe 5714 8b3e
00000020: 50bf 93bd 1e2c 713e e617 06be 8560 9c3e
00000030: 3aaa 123e ea55 523e d645 8cbd 75f6 8a3e
00000040: a0b9 cd3c f923 833e 503e bebc 314e 923e
00000050: f74a a13e 009c 6b3c 3e22 8fbd d0b3 b7bd
00000060: ba48 683e d2d9 92be 4e96 5c3e c032 583d
00000070: 5949 5dbe dc4d fcbd 5e02 733e 7024 ce3d
00000080: 701c a63d 8252 b6bd 3171 1ebe 609b 81bd
00000090: 62b3 573e e770 3cbe 2489 393e 885f 513d
000000a0: 4263 94bd 3e7c 9dbe c93a 27be 8cc5 383e
000000b0: c8fc ca3d 79f6 803e 80a2 e53c 9dbf 933e
000000c0: 50c1 ae3c 1a47 46be 2b09 983e b812 65be
000000d0: 0067 153e d8c4 9d3d 70f2 61be 4716 9abe
000000e0: 5e21 613e 367a 023e 3ccc a53d b05a dbbc
000000f0: aea0 3fbe 1b52 97be 514d 813e f09f 023e
00000100: f8b4 333d 446e 063e 18d9 a53d b087 9fbc
00000110: 9492 2fbe 52ad 4b3e 3299 48be 222f 183e
00000120: e532 93be 2e38 56be 68bd 2f3e 80a9 643c
00000130: b828 d5bd 1045 623d 50e2 5cbd 8ebd 7fbe
00000140: a64e 493e 297b 913e 24fa ecbd 786a 6dbd
00000150: 9097 85bd 0345 67be 3f5d a13e b6a7 453e
00000160: 3cd4 c8bd f0ca 8a3c 37bc 26be 8ece 793e
00000170: 0a06 e0bd f72e 9cbe 374d 92be 7015 8abc
00000180: d64f 0f3e ec48 253e 5b37 853e 66e9 75be
00000190: dbaf 863e 42ff 1c3e 2edb 58be 5ca7 be3d
000001a0: d135 14be 50de 3fbd 5050 963c 2675 86be
000001b0: 79bf 983e ece6 fb3d ee62 673e 203d f4bc
000001c0: 3a37 a5bd 961f a4bd 91aa 43be 60fb 663d
000001d0: f4f4 59be b8bc 8dbe cbbc 963e 9ae1 4a3e
000001e0: 349c 0b3e 758b 60be 10ac 1e3d ee9c 613e
000001f0: d5a5 9e3e 207e ecbc 5989 35be e0f6 0f3c
00000200: 39fa 17be 59fb 8e3e bca5 a33d dce1 2bbe
00000210: 0040 263b 20ad db3c 5a6e 633e f61e 343e
00000220: 9815 363e caf4 523e b639 34be 56e0 583e
00000230: 2a64 36be e832 08be d0cb 373d c782 a13e
00000240: fef8 30be ae66 75be 6905 42be fad2 9dbd
00000250: 34b0 3b3e 2abc 9dbe 4cd8 be3d 1161 08be
00000260: aa79 673e 8d09 52be 4c0b a3bd 5ceb 5fbe
00000270: 84fb 913d ed20 803e 1077 bf3c be13 473e
00000280: 8d9d 94be f2bb 0b3e 344f 313e 00a1 e4bb
00000290: f0f9 59be e860 9ebd 37e5 9a3e a29c 763e
000002a0: 746c 213e 0fbe 37be 7ca1 ed3d 001e 513c
000002b0: 2db9 00be bacd 563e d4d7 01be 0e49 693e
000002c0: 007e 50bb 927f 85be 5664 b6bd 0a94 8fbd
000002d0: 92f4 7cbe 6c16 dcbd 1e36 1d3e a85f bd3d
000002e0: 00b2 ea3b e9eb 40be ac29 5bbe a099 e63c
000002f0: 708b 5f3d 06a1 a1be 7e11 783e 2cba 06be
00000300: 3ce9 2d3e 78e6 c7bd 4eec c2bd ae08 b5bd
00000310: f2bb 9abe a6ff 91bd aa55 7b3e 30c6 a3bc
-0.11029641 0.04261437 0.23567155 0.082223654 0.017260104 0.102579206 -0.27558467 0.27163956
-0.07214224 0.23551986 -0.13095054 0.3054239 0.14322749 0.20540586 -0.06849258 0.27141157
0.025112927 0.25613382 -0.023223072 0.2857528 0.31502506 0.014380455 -0.06988953 -0.089698434
0.22683993 -0.2868181 0.21541712 0.052782774 -0.21610011 -0.12319538 0.23731372 0.10065544
0.08110893 -0.08902456 -0.15472867 -0.063284636 0.21064523 -0.18402444 0.18118721 0.051116496
-0.072454944 -0.30758852 -0.16331019 0.18044108 0.099114954 0.25188044 0.028031588 0.28857127
0.021332413 -0.1936306 0.29694495 -0.22370422 0.14590073 0.077035606 -0.22065139 -0.3009512
0.21985385 0.12741932 0.08095595 -0.026776642 -0.18713638 -0.2955483 0.252543 0.12756324
0.043873757 0.13128 0.08098048 -0.01947388 -0.17145759 0.19890335 -0.1958969 0.1486173
-0.28749767 -0.20919868 0.17162097 0.013956428 -0.10408157 0.055241644 -0.053926766 -0.24974653
0.19658908 0.28414276 -0.11571148 -0.057962865 -0.06523049 -0.2258492 0.31516454 0.19302258
-0.098061055 0.016942471 -0.16282736 0.243952 -0.10938652 -0.3050458 -0.28574535 -0.016855925
0.13995299 0.16141099 0.26018795 -0.24014816 0.26306042 0.15331748 -0.2117736 0.09309265
-0.14473654 -0.046842873 0.018348843 -0.26261252 0.29833582 0.12299904 0.22596332 -0.029814303
-0.08067174 -0.08013837 -0.19108035 0.056392074 -0.21284848 -0.27683043 0.29440913 0.19812623
0.13633806 -0.21928199 0.03873831 0.2203252 0.30985895 -0.028868735 -0.17728175 0.008786887
-0.14841546 0.27926138 0.07990596 -0.16785377 0.0025367737 0.02681595 0.22210065 0.17589936
0.17781675 0.20601192 -0.1760014 0.21179327 -0.17811647 -0.13300669 0.044872105 0.31545088
-0.17282483 -0.2396495 -0.18947376 -0.07706256 0.18328935 -0.3080762 0.09318599 -0.13318278
0.22605005 -0.20511456 -0.07961139 -0.21867126 0.07128051 0.2502512 0.023372203 0.19441125
-0.29026452 0.13645914 0.1731537 -0.0069772005 -0.2128675 -0.07733327 0.30253002 0.24083188
0.15764028 -0.17943595 0.11603066 0.0127635 -0.12570639 0.20976916 -0.12679988 0.22781774
-0.0031813383 -0.2607389 -0.08905856 -0.07010658 -0.24702671 -0.10746464 0.15352675 0.092467606
0.0071623325 -0.18839993 -0.21402615 0.028149426 0.054576337 -0.31568164 0.24225423 -0.13156956
0.16983503 -0.09760755 -0.09517728 -0.08839546 -0.30221516 -0.07128839 0.24544397 -0.019991964

critic.layer_3.weight f4 [10, 20]
00000000: 005c 7ab9 80ac 5e3c 4864 30bd d013 6d3d
00000010: 82d0 dbbd f89b fd3d b02a 67bd 24f5 23bd
00000020: 00c4 3139 5890 04be 060a b0bd a4f9 5ebd
00000030: d8eb 413e 9ca9 c3bd 8c4f 043e 78a4 fb3d
00000040: 069b dbbd a0af 4e3e e64e 063e c6b7 463e
00000050: b4ec 363e c12c 41be c450 5f3e 52a7 563e
00000060: 2d6c 46be 8882 e03d b4e0 59bd e6da 83bd
00000070: 8c3a c53d a2ab 11be feb5 513e e82f 7c3d
00000080: 7a4b 2d3e 14ad 96bd 9c94 9cbd aac3 b5bd
00000090: b8f8 babc 74bf 413e 468a 5ebe 7289 2dbe
000000a0: b7e9 27be 1a95 623e a23e 203e 8415 dd3d
000000b0: 50ba cf3d 442f c9bd 60be 2e3e 50f5 f5bd
000000c0: c0c4 443d 1001 1a3e 521d 083e 104a 453c
000000d0: 748a e13d 94e1 a9bd 8f5d 56be 7831 61bd
000000e0: 2c7f 71bd e4b0 a3bd e632 233e b076 223d
000000f0: d2e1 13be d41a 41bd 4c5b f23d c8af 08be
00000100: 9295 32be 20be 2c3d 64ba 9d3d 1ca5 933d
00000110: f38f 12be cf56 21be fad4 22be 3465 37be
00000120: ef36 41be 883a 9abc 0ae0 1d3e 2c7f 8f3d
00000130: 34a6 eb3d 0039 8e3b a02c e83c 8c87 373e
00000140: 8c9a 4bbd eeb9 323e ecc8 c33d 6203 2e3e
00000150: 5061 453c e06f 763d 58f1 ba3c 08e1 3abd
00000160: da2b 043e 9c73 18be 2097 d3bc d728 58be
00000170: 98f1 ddbd 0ca2 22bd 94b7 81bd c443 573e
00000180: e281 1ebe 782c 883c c4df 13bd f007 9c3c
00000190: 5b06 3abe 40d4 603d dcfc 7abd f62e 49be
000001a0: fc68 46be c083 4e3e 10f1 d63d 2453 363e
000001b0: c8ee 563e 74d8 623e fe7f 9cbd 3c50 02bd
000001c0: ba4d 0ebe ec0d 8bbd f06f e43d 08b9 be3c
000001d0: b499 e5bd 702f 253d 9c6c 913d 1079 2bbe
000001e0: 6cf7 603e 71ae 15be 98f9 22bd caaf 4ebe
000001f0: aa48 adbd 0055 663c d0da 5e3e 9c38 30bd
00000200: b26f b0bd 9861 be3d 14ad 1ebd b08c 483d
00000210: 40eb d4bb 8c49 ce3d a2a1 47be 2009 0dbc
00000220: 1023 3a3e 97b7 3cbe ac57 333e fe0d 173e
00000230: 3c75 19be f4b2 6cbd 6c74 593e 34c8 0b3e
00000240: 7490 63bd 66fd 243e 609a c1bc ac37 0c3e
00000250: f83a 0dbe 00fe a63a 82c5 1b3e 0897 223e
00000260: b7bc 04be 2b67 4fbe 8cd9 41be bc4e 243e
00000270: c4bb 373e 2c04 983d 82dc 623e de73 24be
00000280: 0855 053e f287 3ebe 6005 05be e004 f93c
00000290: e864 903d 68b9 6abd 90f9 bcbc 8212 51be
000002a0: a4e6 443e 574c 5dbe f053 503d b0ea 583e
000002b0: 5660 1b3e b0f4 463c 285a c9bd 10d8 54bd
000002c0: 1625 053e c883 babd 94bb 63bd f864 b5bd
000002d0: 4276 59be 5c52 a43d b063 d83d 12a9 353e
000002e0: 4276 283e 401d 58bc 0053 5c3b a043 5b3e
000002f0: 102c 713c 3f4f f0bd 80b2 24bc 9073 383e
00000300: 7046 3c3c 8067 6c3d 9ac2 553e 681d 3a3d
00000310: 6097 34be 4f9e 25be 002c 193c 24ef 7cbd
-0.0002387613 0.013590932 -0.043064386 0.057880223 -0.10733129 0.12383264 -0.056437194 -0.040028706
0.00016953051 -0.12945688 -0.08595662 -0.054437295 0.18937624 -0.09553835 0.1292097 0.12287229
-0.10722928 0.20184183 0.13116035 0.19406042 0.17863733 -0.18864729 0.21808153 0.20962265
-0.19377203 0.10962397 -0.05319281 -0.06438236 0.096303076 -0.14225629 0.20479581 0.061569124
0.16923323 -0.07357231 -0.076455325 -0.088752106 -0.022823676 0.1892069 -0.21732435 -0.16946962
-0.16397749 0.2212719 0.15648893 0.107951194 0.10142958 -0.09823468 0.1706481 -0.1200968
0.048039198 0.15039468 0.13292435 0.012041584 0.11012736 -0.08294979 -0.20934127 -0.054978818
-0.05895917 -0.079927236 0.15937385 0.03966397 -0.14441612 -0.047144726 0.1183382 -0.13348305
-0.17439869 0.042173505 0.07701567 0.072092265 -0.14312725 -0.15755771 -0.15901557 -0.179097
-0.18868612 -0.018826738 0.15417495 0.07006678 0.1150631 0.004340291 0.028341591 0.17922801
-0.049707934 0.17453739 0.09559807 0.16993478 0.012047127 0.060165286 0.02282016 -0.045624763
0.12907353 -0.14887851 -0.025828898 -0.21109329 -0.10837096 -0.03970532 -0.06333843 0.21021944
-0.15479234 0.016622767 -0.03610207 0.019046754 -0.18166487 0.054889917 -0.0612763 -0.1964682
-0.19375986 0.20167446 0.10495198 0.17805153 0.20989525 0.22152883 -0.076416 -0.0318148
-0.13896838 -0.06789765 0.11154163 0.02328159 -0.11210957 0.040328443 0.07100794 -0.167454
0.21969384 -0.14617325 -0.039788812 -0.20184246 -0.08461125 0.0140583515 0.21763158 -0.043022737
-0.08615054 0.09295958 -0.03873928 0.048962295 -0.0064977705 0.10072622 -0.19495252 -0.008608133
0.18177438 -0.18429409 0.17513913 0.14751431 -0.14986128 -0.05778785 0.21235818 0.1365059
-0.055557683 0.16112289 -0.023633182 0.13693112 -0.13792026 0.0012740493 0.15212062 0.15877926
-0.12962614 -0.20254199 -0.18930644 0.1604566 0.1794272 0.07422671 0.2215443 -0.16059825
0.13020718 -0.18606547 -0.12990332 0.030397832 0.07050496 -0.057305723 -0.02306822 -0.20417216
0.19228607 -0.21611153 0.0508613 0.21183276 0.15173468 0.012143299 -0.09831649 -0.051963866
0.13002428 -0.091071665 -0.05559881 -0.08857149 -0.21236518 0.08023521 0.10565889 0.17740276
0.16451362 -0.0131905675 0.0033618808 0.21412516 0.014719978 -0.11733865 -0.010052323 0.18012834
0.011491403 0.057715893 0.20875016 0.0454382 -0.1763587 -0.16173671 0.009348869 -0.0617515

critic.layer_out.weight f4 [1, 10]
00000000: 6237 9fbe 2cba 18be 7c63 e0bd b787 6abe
00000010: 3099 fdbc c06f a83b 7839 1bbd 3227 8dbe
00000020: 1ab7 7d3e fe7d 48be
-0.3109694 -0.14914769 -0.10956475 -0.22903334 -0.030956835 0.0051402748 -0.037896603 -0.27568966
0.24776879 -0.19579312

actor.layer_1.weight f4 [10, 4]
00000000: 3e2e 483e 0a0f adbe 0dab 203e a701 973e
00000010: 4fa8 8abe 854d b8bd 4038 e13e d68b e1be
00000020: b86f b7bd 0b53 88be 079b 8b3d 280b e43d
00000030: 26c6 8abe c85c e0bd 100a de3e 7299 773e
00000040: 2032 88be ad1a d93e fcc1 f2be 50f8 a23e
00000050: 3e27 e1bd 1b16 fcbe 601f 3d3e fc9e efbd
00000060: af3f b13d b7b1 2b3e 1a3a a2be 1fb1 f4bd
00000070: 9550 3ebe 0054 003f 0a89 e73e 36ab 3bbe
00000080: 9f20 8c3e 0166 ddbe 6cc5 c3be cac0 7e3e
00000090: 6cca 1d3e 7f65 993e af9b a6bd 35ed 68be
0.1954889 -0.33800536 0.1569025 0.29493448 -0.27081534 -0.08999161 0.43988228 -0.44052
-0.089568555 -0.26625857 0.068166785 0.111349404 -0.271043 -0.109551966 0.43367052 0.24179628
-0.26600742 0.42403165 -0.47413623 0.31830072 -0.10993813 -0.49235615 0.18469 -0.11700246
0.08654725 0.16767012 -0.31684953 -0.11947846 -0.18585427 0.50128174 0.4522174 -0.1832703
0.27368638 -0.43241885 -0.38236558 0.2487823 0.15409249 0.29960248 -0.08135163 -0.22746737

actor.layer_2.weight f4 [20, 10]
00000000: 2736 9ebe bbb5 203e 5bb8 d5bd d61b 2abe
00000010: edf0 2abc edc1 813e 74c2 95be 5340 763e
00000020: 501a 9e3e 099a 38be e159 2ebd 2336 14be
00000030: fc76 913e 0a99 053e ade8 50be 7834 623e
00000040: 2934 25bd cbd6 5e3c 4347 8b3d 3d3c d23c
00000050: 3add 26be 946a 933e dd9e 9abd 0538 54be
00000060: 0599 87bd 71e5 95be 36f9 4b3e 6eaa 95be
00000070: b511 e23c 5404 f63d 1061 54be 3398 79be
00000080: 3a7e cc3d 8756 003e 5736 c1bd 61ba 8abe
00000090: e8c8 87be 6cfc 1b3e 532e 18bc ca13 0f3e
000000a0: 7a44 8b3e 73c1 943e 29dc 273e 89ea 863e
000000b0: b443 c43c 3346 90be 541d 543e 7bc4 e4bb
000000c0: 4377 9cbe 25bb 96be cd8f 85be 2f2d 9d3d
000000d0: f9e4 5d3e f5cb 293e ac9c 8c3e 41ff ff3d
000000e0: 2033 443e a348 7d3e 33b9 903e d1c8 d93d
000000f0: 12b3 733e c1f5 74be 15b5 4d3c 95c2 8b3e
00000100: f14c 5ebe 4050 583e eb7e 9e3e 2e32 883e
00000110: b452 4dbe 1a7b 3abe 8c74 b2bd 915e f33c
00000120: 3bae 7b3e 41e0 8d3e a716 0a3e eabd 8dbc
00000130: 2535 09be c3b8 c6bc e0a3 253e 22b9 cb3d
00000140: 635a c2bc 7702 e23a 76d8 afbd 7578 0b3e
00000150: a6ab 5d3e 0d38 27be 895e a73d 2aa6 97be
00000160: ca60 d53d 5282 8abe 33d5 8a3e 6287 a13c
00000170: 113c 3abe 6f42 253e 61bb 983d 483c 9e3d
00000180: daf9 273d 6733 a0bd b9b1 f5bd 375a 9f3e
00000190: bfb4 8abe 2fdf 253e f69a 45be 0c6b 903e
000001a0: e0b9 7fbe 2602 853e b75e 823e f829 87bd
000001b0: bf90 fe3d 0363 423e 6a4e 773e 4270 263d
000001c0: 68f4 98be b1fc efbc c942 1d3e b142 243e
000001d0: 5a68 74be 5e60 91be e826 ff3d 148f 8c3e
000001e0: 16f7 dc3d 5fda 85bc 966b 233d 789d fcbd
000001f0: e8d3 c13c d470 f33d 8cdf b43d 2b63 113e
00000200: 25a1 943d 36b5 91be 17a1 243e 4107 98be
00000210: 5aea c8bc d5e2 2b3e 75ed 0d3e 0787 4bbe
00000220: 24a0 72be 8ce9 723e 1899 94be 30b2 04be
00000230: b7fe 95be 22b6 673c b35a 843e e70f a33e
00000240: 1851 18bd eff8 37be 7327 023e 4182 86be
00000250: e6dd 5ebd ec44 c73d 90dc 78be bb67 49be
00000260: b5ec 103e f20b 323e 5f30 133e 7242 bebd
00000270: 4689 b5bd 6146 80be 1289 313c 7613 9fbe
00000280: 4276 6a3d e846 943e 9b7a 733d c093 6abe
00000290: f88e 14be c3c5 3cbe 9fc5 85be 854a 933e
000002a0: c4db a83d d44a 2e3e 393c cb3d 3dd9 023e
000002b0: b300 17be 57b2 e5bc 5edc 90bd 5a5f 86be
000002c0: 4feb 46be 687a 253e 6bc5 dc3d 501f 15bd
000002d0: 10c4 a23d 2305 523d de39 9fbe 4c12 fb3d
000002e0: fd02 a03d f0e3 ee3b a8fb 4f3e 2d7e 4abd
000002f0: 3adf 37be 86e9 ed3d e50e ed3d ac36 7c3e
00000300: 1ab5 38bd 70ee 0dbe 6a42 a7bd 7db3 953e
00000310: 95b5 793e 9bfb 66be fd54 6bbe 189d 96bd
-0.3090069 0.15694325 -0.10435554 -0.16612181 -0.010433418 0.25343266 -0.29249918 0.24047975
0.3087945 -0.1802751 -0.042566184 -0.14473777 0.2841109 0.13046661 -0.20401259 0.22090328
-0.040332947 0.013601015 0.068007015 0.02566349 -0.16295329 0.2879225 -0.07549832 -0.20724495
-0.06620983 -0.29276612 0.19919285 -0.2923159 0.027596334 0.12012544 -0.20740151 -0.24374466
0.09985013 0.12533008 -0.09434193 -0.2709532 -0.26520467 0.1523301 -0.009288388 0.13972393
0.2720068 0.2905384 0.16392578 0.2635081 0.023958065 -0.28178558 0.20714313 -0.00698143
-0.3055974 -0.29439655 -0.26086274 0.07674634 0.21669377 0.1658171 0.2746328 0.12499858
0.19160128 0.2473474 0.28266296 0.10634006 0.23798779 -0.23921873 0.01255538 0.27296892
-0.21709038 0.21124363 0.30956206 0.26600784 -0.2005108 -0.18211022 -0.08713636 0.029708179
0.24578182 0.27710155 0.13485204 -0.017302472 -0.1339918 -0.024258023 0.16175795 0.09947421
-0.02372474 0.0017243166 -0.085862085 0.1362017 0.2164751 -0.16329975 0.08172328 -0.2961896
0.10418852 -0.27052552 0.27115783 0.019717876 -0.18186976 0.16138624 0.07457615 0.077263415
0.04100976 -0.07822304 -0.119967885 0.31123516 -0.27091023 0.16198419 -0.19297394 0.2820667
-0.2497325 0.25978202 0.25462887 -0.06599802 0.12429952 0.18983082 0.24151006 0.0406344
-0.29873967 -0.029295297 0.15357508 0.16041066 -0.23867932 -0.28393835 0.12458593 0.2745291
0.107893154 -0.016339479 0.039897524 -0.12334722 0.023660615 0.11886755 0.08831701 0.14197986
0.072572984 -0.28458565 0.16077076 -0.29693034 -0.02452581 0.16785748 0.13860114 -0.19875728
-0.23693901 0.23721904 -0.2902305 -0.12958598 -0.29295895 0.014142545 0.25850448 0.3184807
-0.037186712 -0.17966054 0.12710361 -0.2627125 -0.054410838 0.09729943 -0.24302888 -0.19668476
0.14152797 0.1738737 0.14373921 -0.09290017 -0.088640735 -0.25053695 0.010835903 -0.31069535
0.057241686 0.28960347 0.059443098 -0.22907925 -0.14507663 -0.18434815 -0.26127335 0.2876779
0.08245042 0.17020732 0.09923596 0.12778182 -0.1474636 -0.02803914 -0.07073282 -0.26244622
-0.194257 0.16159976 0.10779842 -0.036406815 0.07947552 0.05127443 -0.31098837 0.12259349
0.0781307 0.007290356 0.20310843 -0.049436737 -0.17956248 0.11616807 0.115751065 0.2463023
-0.045094587 -0.13860488 -0.08166964 0.292385 0.24385674 -0.22556917 -0.22981639 -0.07354182

actor.layer_3.weight f4 [10, 20]
00000000: 7cae 1c3e e69e ac3d b727 b0bb 580a 813d
00000010: 3f38 3cbe 1eb2 2f3e 542a dc3d a288 78bd
00000020: 7c2d 6fbd 447c 0f3e 8565 9ebc 7b6b 35be
00000030: be9c 593e 3830 7f3d 11e1 39be 1cee 24be
00000040: 365f f639 8c4e 253e 7bbb 56be bf24 593e
00000050: 4fd8 2f3e 5af7 583e 9b4b 33be c7f7 15bb
00000060: 5df4 9f3c 69b5 27bd 1220 d03a 5cc1 3e3d
00000070: 37ef 48be ca15 023d 962c 0c3d 5c56 4b3e
00000080: 0f69 c4bd 2806 8e3d 3d79 f13d 0145 f53d
00000090: cffd adbb b91b 36be 1f96 8dbd 9658 14bb
000000a0: 2d57 3bbe 88b3 2bbe 88df 043e ff2c 1ebe
000000b0: ae7c 1b3e ce7e ce3d 4897 e4bd e51d ef3d
000000c0: 89e1 8a3d f6ca f4bc dcf5 073e 981b 1f3e
000000d0: 3399 ad3d 1fab d5bd 857f 00bc 233c 3abe
000000e0: 5625 0ebd d592 a93d 2229 343e ffe1 2f3e
000000f0: 93d4 573e 0da2 093d 7b68 07be 038f d3bd
00000100: 8884 e93d 8bbf 8bbd 53c1 32bb 08cb c0bd
00000110: 8795 a53c 2720 493e a97c e93d 6cdc 2a3e
00000120: c5b2 2b3e 4707 103e 0d08 083e 00e2 e23b
00000130: 9a9c d73a ff4f a8bd dcfb 65be 355e 0e3e
00000140: c622 c2bd 4b79 363d faae 183e ef34 c8bd
00000150: e36a 223e 603e e7bd acdf 4dbd fb5d 103d
00000160: 584f 2fbe 2cf7 323e c431 07be 2d48 15be
00000170: f337 8e3d a85b b0bb 9c18 4ebe 5c47 bbbd
00000180: dba2 023e 07b9 033e 1330 613d 64f3 e73d
00000190: 37d2 f6bc 874d f13d f43a 64be fbd8 7ebd
000001a0: 2796 be3d 3634 09be 27d8 5c3e 2589 21be
000001b0: fa5e 9ebd 90bc 20be 0746 073e a3dd c53d
000001c0: 4fa5 f03c 6945 53be 9446 d5bc aa43 13be
000001d0: 472b d3bd ec99 e83d 151b 013e 1203 47be
000001e0: cfd0 f23d 19c2 773d 2740 6abe 62ea fbbd
000001f0: 59d7 5c3e 4996 57be d016 a83d 4818 243e
00000200: 9459 e8bc 2864 6cbd 2b3e 9f3d a058 27be
00000210: c022 083e d93b f83d 9e43 2b3e ff30 24be
00000220: c4ca a1bd 9431 10be 82e1 04be 25a3 b0bd
00000230: 8cf2 36be 1ae0 5fbe da3c ae3d 5075 73bb
00000240: bf3f 11be 14e1 39bd 140b f73c 9aa6 1ebe
00000250: 087a 41be a16d 643e 2c0b 43be deb8 1d3d
00000260: b277 15bd 4d39 1bbd 5ddb 18bd 05bf d93d
00000270: 2f58 0abe 4a7d 18be ecdf 55bd 2d47 fe3c
00000280: 74bb 2cbe d852 e8bd c1a7 543e 5b48 b3bc
00000290: 1c3b ce3d 5446 f53d 1878 373e 3f8d a53d
000002a0: 5370 dcbd 250d 3dbe cf11 e43d 3d81 15bd
000002b0: 9b50 fc3d c9c0 953d c16f 4e3e 380d 653e
000002c0: 8605 193e dbc5 5b3e e888 aebd eaab 3bbe
000002d0: 231f 6bbd 35a2 553e 75da 8b3d 60d4 043e
000002e0: f704 c33d 4bc9 3abe 0b0f a03a ea87 33be
000002f0: 8d7d 6cbc bfcc df3d 6014 b83d 6781 9abd
00000300: 71e3 55be 1f12 48be 5b5e 0d3d 9f8e 6e3d
00000310: fd5a eebd 68c6 c6bd 2833 e0bd a469 d9b9
0.15300936 0.08428745 -0.005375828 0.06300801 -0.18380831 0.1715779 0.10750261 -0.06067718
-0.058392987 0.14012247 -0.019335518 -0.17716782 0.21251199 0.062301844 -0.18152262 -0.16106457
0.00046991714 0.16143245 -0.20969956 0.21205424 0.17172359 0.21188107 -0.1750931 -0.0022883283
0.019525701 -0.04094449 0.0015878698 0.04657112 -0.19622503 0.03175906 0.034222208 0.19857162
-0.09590351 0.06934768 0.117907025 0.11976052 -0.0053097974 -0.17784013 -0.06913399 -0.002263581
-0.18294974 -0.16767704 0.12975895 -0.15446852 0.1518428 0.1008278 -0.11161667 0.11675624
0.06781299 -0.029881936 0.13277382 0.1553787 0.08476486 -0.104330294 -0.007842903 -0.18187003
-0.034703575 0.08279959 0.17593816 0.17176054 0.21077184 0.03360181 -0.1322345 -0.10330012
0.114022315 -0.06823643 -0.0027275875 -0.09413725 0.020212902 0.19641171 0.1140073 0.16685647
0.16767414 0.14065276 0.13284321 0.006923914 0.0016449869 -0.08218383 -0.22459358 0.13903125
-0.09479289 0.044549268 0.14910498 -0.09775721 0.15861087 -0.11291194 -0.05026214 0.035245877
-0.17120111 0.17477101 -0.13202578 -0.14578314 0.06944265 -0.00538202 -0.20126575 -0.0914447
0.12757437 0.12863551 0.054977488 0.1132572 -0.030129535 0.11782365 -0.22288114 -0.062218647
0.09305983 -0.13398823 0.2156683 -0.15774973 -0.07732959 -0.15696931 0.13210307 0.096614145
0.0293757 -0.20631947 -0.02603463 -0.1438128 -0.10310989 0.11357483 0.12607987 -0.19434765
0.11856233 0.06048784 -0.22876035 -0.12300564 0.21566524 -0.21053423 0.08207476 0.16024888
-0.028363027 -0.057712704 0.077755295 -0.16342402 0.13294506 0.1212079 0.16725013 -0.16034316
-0.079000026 -0.14081413 -0.1297665 -0.08624867 -0.17865962 -0.21862832 0.085077 -0.003714878
-0.14184473 -0.045380667 0.03015665 -0.15493241 -0.18894207 0.22307445 -0.1904723 0.03850638
-0.036491103 -0.037896443 -0.037318576 0.10632137 -0.13510202 -0.14891544 -0.0522155 0.031039799
-0.16868383 -0.11343926 0.20767118 -0.021885088 0.10069868 0.11976305 0.17916906 0.08083581
-0.10763612 -0.18462045 0.11136209 -0.036500204 0.12320062 0.073121615 0.20159818 0.22368324
0.14943513 0.21462195 -0.085222065 -0.18327299 -0.05740274 0.20862658 0.06828777 0.1297164
0.09522431 -0.1824085 0.0012211514 -0.17532316 -0.0144342305 0.10927724 0.08988261 -0.07544213
-0.20887543 -0.19538163 0.034513813 0.058241483 -0.116384484 -0.09705812 -0.10947257 -0.00041468174

actor.layer_out.weight f4 [1, 10]
00000000: 2e37 36be c70f eabd c610 763e ecd1 003e
00000010: 8775 923e 8b2a d2bb 2de3 63be f475 b6bd
00000020: 1db2 6dbd 36a5 903e
-0.17794487 -0.114287905 0.24029836 0.12580079 0.2860529 -0.006413763 -0.2225463 -0.089092165
-0.05803119 0.28251046
