code/weights/model.pt (torch, 3874 bytes, 6 tensors)

critic.layer_1.weight f4 [10, 4]
00000000: 6075 b13e 705c bebe dfcf 833e 5583 92be
00000010: 9c05 f0be 343d c7be 88a6 cb3e 807b dcbe
00000020: d076 0abe 90c3 5cbd e84f c83d 840b 2e3e
00000030: 6893 babe 8095 b4bd 24b6 afbe 9c42 25be
00000040: 278b dfbe edcd d4bd 9613 043d d1b5 c73e
00000050: 2151 efbe 8f8f e43e 6db0 d2bc eec1 95be
00000060: c584 f83d 0f3a 3ebe 8abb d7be b828 06be
00000070: b71e fabe 269f 873e 661b 7ebe 7f11 023d
00000080: 80ba 6fbd e830 adbe 30d4 4cbe e88a b2bd
00000090: a09c d43e c923 75be 34a7 04bf fc4a 12be
0.34659863 -0.371799 0.2574453 -0.28615823 -0.4687928 -0.38913882 0.3977549 -0.43062973
-0.13521886 -0.05389744 0.09780866 0.1699658 -0.36440587 -0.08817577 -0.3431865 -0.1613869
-0.43660852 -0.1039084 0.03224524 0.39005902 -0.46741584 0.44640777 -0.025718892 -0.2924952
0.12134699 -0.18576835 -0.42135268 -0.1310147 -0.4885156 0.26488608 -0.24815139 0.031754967
-0.05852747 -0.33826375 -0.20002818 -0.087179005 0.41525745 -0.23939432 -0.5181763 -0.14286417

critic.layer_1.bias f4 [10]
00000000: 1533 98be e052 85bc 3061 bbbe 00a3 c0be
00000010: 3636 bd3e 0020 fd3d 180d 4abd d436 bebe
00000020: 1ad6 b9be d6b6 68be
-0.29726472 -0.01627487 -0.36597586 -0.3762436 0.36955422 0.12359619 -0.049328893 -0.37151206
-0.3629616 -0.22725996

critic.layer_2.weight f4 [1, 10]
00000000: 3a97 263e d67f 5c3e 300d 0f3e 607f 1ebc
00000010: 0884 8cbc 1849 9bbe 1e87 83bd 10aa 94bc
00000020: 8425 d2bd 7e63 3a3e
0.16268626 0.2153314 0.13969874 -0.009673923 -0.017152801 -0.30329204 -0.06422256 -0.018147498
-0.10261062 0.18202016

actor.layer_1.weight f4 [10, 4]
00000000: 40aa 2bbc a201 cb3e 8255 843e 4079 1dbe
00000010: 505e babe 4460 f2be 583b e8be fc65 9fbe
00000020: ce76 983e e8d2 5cbe fac0 debe 9c0e b6be
00000030: 0e5d b1be 6aa0 88be 80dd d9be ec0e 5b3e
00000040: e0ac f93c d028 edbd 9069 9ebd 20f4 3d3d
00000050: be08 d9be 30e3 6f3e 403c f93d b83d e03d
00000060: 2afa 923e 7a56 ef3e e615 b93e aaaa e23e
00000070: 1cab 3c3e 808c 7d3e 2090 963e 70b0 1cbd
00000080: 4a59 82be d8c1 e6be 825a ac3e 908a 593e
00000090: 4a88 d2be a843 943d 607d d93e f448 503e
-0.0104776025 0.39649683 0.25846487 -0.15378284 -0.3640008 -0.4733907 -0.45357776 -0.31132495
0.2977814 -0.2156483 -0.43506604 -0.3555802 -0.34641308 -0.26684886 -0.42551804 0.21392411
0.030477941 -0.1158005 -0.07734978 0.046375394 -0.42389482 0.23426509 0.12169695 0.10949272
0.28706485 0.46745664 0.3614952 0.4427083 0.18424648 0.24760628 0.29406834 -0.0382542
-0.25458747 -0.45069766 0.33662802 0.21244264 -0.41119605 0.07239467 0.42478466 0.2034033

actor.layer_1.bias f4 [10]
00000000: 18d1 e03e 682f be3d e00b 913e 2888 e63d
00000010: ce28 89be ec40 b5be d0d4 2e3e fcf9 873e
00000020: 10ef 3b3e 30ca 873e
0.43909526 0.09286386 0.28329372 0.112564385 -0.26788944 -0.35401094 0.17073369 0.2655791
0.18352914 0.26521444

actor.layer_2.weight f4 [1, 10]
00000000: ba5c 6bbe 6bd2 913e 9c27 dbbd feb5 5d3e
00000010: 48ab 0f3e 4a3f 4b3e 62c2 173e e18e 913e
00000020: df51 a0be 987a 57be
-0.22984591 0.2848085 -0.10700914 0.21651456 0.14030182 0.19848362 0.14820245 0.2842932
-0.31312463 -0.2104286
